models/MNIST/more_small3_1.pth (torch, 668111 bytes, 8 tensors)

0.weight f4 [16, 1, 4, 4]
0	0xbc90c42b	-0.017671665
1	0xbe277d7a	-0.1635646
2	0xbd73edbe	-0.0595529
3	0x3b13db5c	0.0022561168
4	0xbd4c1b48	-0.049830705
5	0xbda93a65	-0.08263091
6	0xbe102856	-0.14077887
7	0xbcd4b030	-0.025962919
8	0xbc4757b8	-0.01216691
9	0xbd11c56f	-0.035588678
10	0xbd57dced	-0.052700926
11	0xbc6110f4	-0.013736952
12	0xbd924b6e	-0.07143293
13	0xbc110182	-0.008850457
14	0x3d98200b	0.07427987
15	0x3df0a656	0.11750476
16	0x3c1a50a6	0.009418642
17	0xbd474624	-0.048650876
18	0x3d88159a	0.06644745
19	0xbb8c4414	-0.0042805765
20	0xbd1a5068	-0.037674338
21	0x3c8d771a	0.017268706
22	0xbcdbb434	-0.026819326
23	0xbc03a334	-0.008034516
24	0xbc886230	-0.016648382
25	0x3c02422c	0.007950347
26	0xbdd49486	-0.10379891
27	0xbd08941a	-0.033344366
28	0xbc771f2c	-0.015083116
29	0xbd53b25a	-0.05168376
30	0x3d665cf4	0.05624099
31	0xbce00fd1	-0.027351292
32	0x3b385d32	0.002813172
33	0xb9fbf532	-0.00048057135
34	0xba2fde19	-0.00067088153
35	0xba31b4eb	-0.0006778973
36	0xba97cfce	-0.0011582316
37	0xba8a95ab	-0.0010573169
38	0xba1b6c6b	-0.00059289363
39	0x3adacebc	0.0016693692
40	0xb7dcf199	-2.6338546e-05
41	0xb9011c01	-0.00012312831
42	0xb88d9b0c	-6.752284e-05
43	0x39cffc2a	0.00039669994
44	0x3fac6ba4	1.3470349
45	0x3b79a3e3	0.003809207
46	0x3934c8bc	0.00017240917
47	0x3a72164d	0.00092348905
48	0x3a875f6d	0.0010328122
49	0x3fedfda8	1.8593035
50	0xbaa3b61d	-0.0012490187
51	0x3ac4abdc	0.0015004831
52	0x398ffd17	0.00027463652
53	0x3844249c	4.6764137e-05
54	0x394e324a	0.00019664425
55	0xb85009ee	-4.9600312e-05
56	0x3ad8ea85	0.0016549384
57	0xb92d56db	-0.00016530922
58	0xbb3af2f3	-0.0028526157
59	0xb9e22d32	-0.00043139752
60	0x399f0d96	0.00030336966
61	0xba86861e	-0.0010263359
62	0x38f1dfb4	0.000115334435
63	0xb9e1c387	-0.00043061023
64	0x3c4f4e5f	0.0126529625
65	0xbca60b07	-0.02026893
66	0xbd476725	-0.04868235
67	0xbc3b571c	-0.011434343
68	0xbd9d68a6	-0.07685976
69	0xbd5155ef	-0.051107343
70	0xbd20181a	-0.039085485
71	0xbd5a8216	-0.053346716
72	0xbd3ef2ab	-0.046618145
73	0xbc8eea12	-0.017445598
74	0xbd21140f	-0.03932577
75	0xbc9f538e	-0.019449022
76	0x3aca67a9	0.001544227
77	0xbce1d1b9	-0.027565824
78	0xbc029f9a	-0.007972622
79	0x3ce35e33	0.027754879
80	0xbd83f259	-0.064427085
81	0xbd0f23a6	-0.034946106
82	0xbdb538b7	-0.08848708
83	0xbe0b62d5	-0.1361192
84	0xbd576150	-0.05258304
85	0xbd9245e6	-0.07142238
86	0xbd812da3	-0.06307533
87	0xbd85b8d1	-0.065293916
88	0x3ad7567b	0.0016428971
89	0xbc6b1b93	-0.014349836
90	0xbd162e47	-0.036665227
91	0xbd1e4acd	-0.038645554
92	0xbd2d9b18	-0.042384237
93	0xbd5829db	-0.05277429
94	0xbc7fb79b	-0.01560774
95	0xbe05b177	-0.13055979
96	0xbd196cd2	-0.037457295
97	0xbb9d2d74	-0.004796678
98	0xbbfb8c0d	-0.0076766075
99	0xbc322b80	-0.010874629
100	0xbc9ffd43	-0.019529944
101	0xbcf42ac4	-0.029805548
102	0xbd080302	-0.033205993
103	0xbcf2fdc3	-0.029662019
104	0xbd31c484	-0.043400303
105	0xbcf5cca2	-0.030004803
106	0x3b8ae11a	0.00423826
107	0xbb836569	-0.0040098918
108	0xbc5b78ed	-0.01339553
109	0xbd0822dd	-0.033236373
110	0x3c758e71	0.014987574
111	0xbc66bd8f	-0.01408328
112	0x3cc73892	0.024318967
113	0xbbeb91d1	-0.0071890135
114	0xbd71ee9b	-0.059065443
115	0xbcae7388	-0.021295324
116	0xbce1ecdb	-0.027578762
117	0x3beba1f6	0.007190938
118	0xbc161fb1	-0.009162829
119	0x3c937034	0.017997839
120	0xbcbc4169	-0.022980409
121	0xbbea3ebc	-0.007148592
122	0x3ca67ca2	0.020323101
123	0x3c0d0b80	0.008608699
124	0xbce026f7	-0.02736233
125	0xbc588c2a	-0.0132170115
126	0xbb8eb815	-0.0043554404
127	0xbd07ff2b	-0.03320233
128	0x3b1d2d0a	0.0023983144
129	0x3a26fa15	0.00063696626
130	0xb9c53576	-0.000376146
131	0x3a962b14	0.001145693
132	0xbaa981b2	-0.0012932329
133	0x395f3402	0.00021286312
134	0x3b622f7e	0.003451317
135	0x3a355a16	0.0006918026
136	0xb95353cc	-0.00020153745
137	0x3fc5c8fd	1.5451962
138	0x394fc5c6	0.00019814735
139	0xb92879fc	-0.00016067171
140	0x38e8041f	0.0001106339
141	0xb90fe9ea	-0.00013724683
142	0xba466919	-0.00075687614
143	0x3a2c03f0	0.0006561866
144	0xbcbd1f00	-0.023086071
145	0xbce8c8b9	-0.028416025
146	0x3b2c1d98	0.0026262756
147	0xbc4f83a0	-0.012665659
148	0x3b3ce687	0.0028823928
149	0xbca13722	-0.01967961
150	0xbc625b38	-0.013815694
151	0xbc480621	-0.0122084925
152	0xbad0b468	-0.0015922906
153	0xbc8bf9c8	-0.017086878
154	0xbcaaeb2e	-0.020864096
155	0xbc090c04	-0.008364681
156	0xb9f71f66	-0.00047134905
157	0xbcae544a	-0.021280427
158	0xbcb89b6c	-0.022535048
159	0xbc96601d	-0.018356377
160	0xbc3cbf49	-0.011520215
161	0x3c91a6af	0.017779676
162	0xbb6dfbd1	-0.0036313424
163	0xbc4862b2	-0.012230562
164	0x39ef9253	0.00045694652
165	0xbce1acc7	-0.027548207
166	0xbd1615f9	-0.03664205
167	0x3b09a9cb	0.0021005746
168	0xbcdf6733	-0.027270889
169	0xbb05f9e5	-0.0020443138
170	0xbc837cc9	-0.016050713
171	0xbc9f22c0	-0.01942575
172	0xbce870f2	-0.028374169
173	0xbcdca07a	-0.02693199
174	0xbc704cc3	-0.014666739
175	0xbcfe1e2e	-0.03102025
176	0x3abcdcdc	0.0014409083
177	0xbcb9a77a	-0.022662867
178	0xbca943ff	-0.020662306
179	0x3a2c435b	0.0006571316
180	0xbc62b196	-0.013836285
181	0xbcc8acee	-0.024496522
182	0xbccfac61	-0.025350751
183	0x3a73e376	0.00093036087
184	0x3b3e3c6b	0.002902771
185	0xbc9ca732	-0.019122694
186	0xbbf42284	-0.0074504036
187	0xbcd7482f	-0.026279537
188	0x3b24b024	0.0025129402
189	0xbc8f763d	-0.017512435
190	0xbc5a6fae	-0.013332291
191	0xbc55b001	-0.013042451
192	0x3c47ede6	0.0122027155
193	0xbceb1339	-0.02869569
194	0xbc369665	-0.011144255
195	0xb9377093	-0.00017494177
196	0x3c64bcc1	0.013961018
197	0xbb7b5620	-0.0038350895
198	0x3ac863d5	0.0015288541
199	0xbcf4d5d7	-0.029887123
200	0xbcb6d971	-0.022320481
201	0x3c04b7c4	0.008100454
202	0xbd4be58d	-0.049779464
203	0x3d456a2a	0.04819695
204	0xbce02e27	-0.027365757
205	0xbd50124c	-0.0507987
206	0x3cc5ad33	0.02413044
207	0xbd0df120	-0.034653783
208	0xbc37e513	-0.011224049
209	0xbbbdbcd6	-0.0057903333
210	0xbd2f713b	-0.042832594
211	0x3c33f6d5	0.010984142
212	0xbcccd782	-0.025005106
213	0xbc0da887	-0.008646137
214	0xbcf294a1	-0.029611887
215	0x3c9e02c5	0.01928843
216	0x3cf23136	0.029564481
217	0xbcae846f	-0.021303384
218	0xbcbf2c01	-0.023336412
219	0xbd114a9c	-0.035471544
220	0xbc9f55d0	-0.019450098
221	0xbd178c9f	-0.03699934
222	0xba8a402b	-0.0010547688
223	0x3c6d597f	0.01448667
224	0x39cd3369	0.0003913895
225	0xba2c986d	-0.00065839925
226	0x3a553208	0.00081327604
227	0xbadca466	-0.0016833663
228	0x39b0f46b	0.00033751442
229	0xbb0005c0	-0.0019534677
230	0x39a43050	0.00031316513
231	0xba1b8cbe	-0.0005933753
232	0xb88af374	-6.6256995e-05
233	0x3a316abd	0.00067679194
234	0x402096cf	2.5092046
235	0xbae300cd	-0.0017318964
236	0xba820314	-0.000991913
237	0x3b0a8414	0.0021135854
238	0x38d6e67b	0.000102472455
239	0x3ade4bab	0.0016959807
240	0x396dd50b	0.00022681446
241	0x3ae8c19f	0.0017757899
242	0x39548e7c	0.00020270975
243	0xb9d93199	-0.00041426418
244	0xb8a9fe2c	-8.105891e-05
245	0x392d6886	0.00016537504
246	0xb82dd86e	-4.144798e-05
247	0xb968b4b2	-0.00022192558
248	0xb7923eed	-1.7433858e-05
249	0x3ab35b0f	0.0013683754
250	0xb8dece17	-0.00010624172
251	0xba2f084f	-0.00066769583
252	0xb914e85d	-0.00014200942
253	0xb921aaf5	-0.00015417843
254	0x3917a2f1	0.00014461183
255	0x39153e44	0.00014232943

0.bias f4 [16]
0	0xbf13e302	-0.5776826
1	0xbea04c88	-0.3130839
2	0xbf012aca	-0.50455916
3	0xbf31ddad	-0.69478875
4	0xbe8a3c11	-0.26998952
5	0xbe834291	-0.25636724
6	0xbdef748e	-0.11692153
7	0xbe6bdf0a	-0.23034301
8	0xbf13fbb7	-0.5780596
9	0xbd8fea33	-0.07027092
10	0xbe09d97f	-0.13461874
11	0xbdbad615	-0.09122864
12	0xbe99e5d0	-0.30058146
13	0xbe7a9434	-0.24470598
14	0xbf6c0904	-0.92201257
15	0x3f60160b	0.87533635

2.weight f4 [32, 16, 4, 4]
0	0x3e869617	0.26286384
1	0x3d8f94e3	0.0701082
2	0x3d757829	0.059929047
3	0xbc505d75	-0.012717594
4	0xbd505d6b	-0.05087034
5	0xbb23d79b	-0.0025000337
6	0xbd95e0da	-0.07318278
7	0xbcb604a8	-0.022219017
8	0xbcd44962	-0.025913898
9	0x3d79c081	0.0609746
10	0xbd0fc71d	-0.035102
11	0x3da655e4	0.08121851
12	0xbc780b85	-0.015139465
13	0x3ce70aa1	0.02820331
14	0x3cc3d881	0.023906948
15	0x3d868e35	0.065700926
16	0x3be09107	0.006853226
17	0xbafa6d8f	-0.0019106137
18	0xbcac1dd4	-0.021010317
19	0x3c555241	0.013020099
20	0xbd60cfd7	-0.05488571
21	0xbcb39ede	-0.02192634
22	0xbbc58d52	-0.0060288096
23	0x3d0ed2af	0.034868892
24	0xbc001ad5	-0.007818897
25	0xbe7384cc	-0.23781127
26	0xbc900d53	-0.017584478
27	0x3d3282c7	0.04358175
28	0xbdf01800	-0.11723328
29	0x3a9d2441	0.0011988954
30	0x3ca79593	0.020457065
31	0x3cc8898c	0.02447965
32	0xbcbebf2a	-0.023284514
33	0xbbd245b4	-0.0064170007
34	0x3dce00cd	0.100587465
35	0xbcacdc59	-0.021101164
36	0xbd67e2c7	-0.056612756
37	0xbe140be4	-0.14457661
38	0xbc0757e6	-0.008260703
39	0xbd49f8b5	-0.04930945
40	0xbd910c46	-0.07082419
41	0xbe699ef5	-0.22814544
42	0xbdf4d12d	-0.119539596
43	0xbda02dce	-0.078212366
44	0xbc099b8c	-0.008398902
45	0xbe40d02f	-0.18829416
46	0xbd115869	-0.035484705
47	0xbd3c704c	-0.046005532
48	0xbd1e78cb	-0.038689416
49	0xbcc26e41	-0.023734214
50	0xbd33b7aa	-0.043876328
51	0xbd498efa	-0.04920862
52	0xbc1c3afd	-0.009535548
53	0x3d5b280a	0.05350498
54	0x3c31aaed	0.010843975
55	0xbcb6f771	-0.022334786
56	0xbdb1ff9f	-0.08691334
57	0xbe017741	-0.12643148
58	0xbce0d138	-0.027443513
59	0xbcc34415	-0.023836175
60	0xbf0032eb	-0.50077695
61	0xbf0afd17	-0.54292434
62	0xbcdcd70d	-0.026958013
63	0xbcf7467e	-0.03018498
64	0xbbc1ced6	-0.0059145493
65	0x3c973a07	0.018460287
66	0x3ca0de68	0.019637302
67	0x3b15337e	0.0022766287
68	0xbbe89d50	-0.0070988312
69	0xb8c6d75c	-9.4814895e-05
70	0xbcc11c2f	-0.02357301
71	0xbd56dd71	-0.052457277
72	0x3bfdb445	0.007742437
73	0xbcdb338d	-0.02675798
74	0xbb7286cd	-0.0037006617
75	0x3de3b48b	0.1111842
76	0xbd61b265	-0.05510177
77	0x3c7be519	0.015374445
78	0xbd2d5b4b	-0.042323392
79	0x3cd68649	0.026187079
80	0x3c610cc6	0.013735956
81	0xbc83e221	-0.016099038
82	0xbd253568	-0.040334135
83	0x3c55cbc3	0.013049069
84	0x3c0f348f	0.008740558
85	0xbac15517	-0.001475009
86	0xbce122a4	-0.027482338
87	0x3c6d004b	0.014465402
88	0xbcaf2e7c	-0.02138447
89	0x3c9b7d8e	0.018980768
90	0x3c1e4569	0.009660103
91	0xbcbae42a	-0.022813875
92	0xbb8975da	-0.004194957
93	0x3cb58b58	0.02216117
94	0x3c390d08	0.011294611
95	0xbc118f74	-0.0088843
96	0xbc9e57db	-0.019329002
97	0xbcb8bbbd	-0.022550458
98	0x3bce8282	0.006302179
99	0x3c1ae431	0.009453819
100	0xbbe6b8dc	-0.00704108
101	0x3c3fe1f6	0.011711588
102	0xbb1d9d22	-0.0024049957
103	0x387c69af	6.0179907e-05
104	0xbc252f7a	-0.01008212
105	0x3cd0a6f6	0.025470238
106	0xbce354d8	-0.027750418
107	0x3d3ab91d	0.045586694
108	0xbc7e21e5	-0.015511011
109	0xbccea9e9	-0.025227504
110	0xbbfe1828	-0.0077543445
111	0x3d141e55	0.03616174
112	0xbcae491a	-0.021275092
113	0x3cd08271	0.025452824
114	0x3d0fa462	0.035068877
115	0xbcc22f14	-0.02370409
116	0xbc083ce3	-0.008315298
117	0xbdbc8146	-0.092043445
118	0xbd7e2bde	-0.062053554
119	0xbd11ce43	-0.035597097
120	0xbda94748	-0.08265549
121	0x3bf98554	0.007614771
122	0xbdd5b892	-0.104355946
123	0xbd25f715	-0.04051884
124	0xbeeefcd1	-0.4667726
125	0xbe334ab3	-0.17508964
126	0xbdd8559b	-0.10563203
127	0x3d1decb9	0.038555834
128	0x3c230c86	0.009951716
129	0xbcf904fb	-0.030397883
130	0xbe1197bb	-0.14218037
131	0xbbcd4595	-0.0062643983
132	0x3ad5b6ec	0.0016305125
133	0xbc8af7fe	-0.016963955
134	0xbd874e63	-0.06606748
135	0xbce665d9	-0.028124737
136	0xbebec74f	-0.37261435
137	0xbe2cd3b5	-0.16877635
138	0xbd9c4b5d	-0.07631562
139	0x3bb9c360	0.0056690425
140	0xbef8909e	-0.48547834
141	0xbf28ed86	-0.6598743
142	0xbd72b79f	-0.059257146
143	0xbc739aa6	-0.014868414
144	0xbd4f1de7	-0.050565626
145	0xbdb3ccc4	-0.0877929
146	0xbd2eb54c	-0.042653367
147	0xbd4f5ac1	-0.05062366
148	0xbd3e937c	-0.04652737
149	0xbd1825f1	-0.03714556
150	0xbd716933	-0.058938216
151	0xbd031b09	-0.032008205
152	0xbd38a3d0	-0.0450781
153	0x3cdb32f7	0.0267577
154	0xbda81188	-0.08206469
155	0x3d62e2be	0.05539202
156	0xbdd53370	-0.104102015
157	0xbd933133	-0.071871184
158	0xbdaf2d16	-0.08553521
159	0xbd927031	-0.07150305
160	0x3cf15d44	0.029463418
161	0xbd327317	-0.04356679
162	0xbd3cd8f9	-0.04610536
163	0xbc0ec906	-0.00871492
164	0xbd23c41e	-0.039981954
165	0xbd666284	-0.056246296
166	0xbdb26726	-0.0871108
167	0xbc582174	-0.01319157
168	0xbd5c3ae9	-0.05376712
169	0x3c118c45	0.0088835405
170	0xbe392dea	-0.18083921
171	0xbda8f56d	-0.08249936
172	0xbe173af0	-0.14768577
173	0xbdad9c08	-0.08477026
174	0xbdcecf88	-0.10098177
175	0xbdc3f1fa	-0.09567638
176	0xbddeda27	-0.10881453
177	0xbdad10b3	-0.08450451
178	0xbd45d222	-0.0482961
179	0xbd08ee95	-0.033430655
180	0xbdda093f	-0.10646295
181	0xbd190e36	-0.03736707
182	0x3ca95e35	0.020674804
183	0xbd3edc83	-0.046597015
184	0x3d04b00a	0.032394446
185	0xbd37b9ab	-0.0448548
186	0xbcfd5dec	-0.030928575
187	0xbd7c5cd3	-0.06161196
188	0xbc148485	-0.009064798
189	0xbd83e2d5	-0.06439749
190	0xbdbfce83	-0.09365561
191	0xbd1152d3	-0.035479378
192	0xbdae378b	-0.08506688
193	0xbd808650	-0.06275618
194	0xbcaaed2a	-0.020865042
195	0xbd4cd0e7	-0.050003912
196	0x3d8ad87b	0.067795716
197	0xbd85e8dc	-0.06538555
198	0xbb80d386	-0.0039314656
199	0xbc96a40c	-0.01838877
200	0xbca14e3f	-0.019690631
201	0x3c04ad0c	0.008097898
202	0xbd2e4b19	-0.042552087
203	0x3b128f65	0.0022363302
204	0xbe696b6d	-0.22794886
205	0x3da81b74	0.08208361
206	0x3ca99a62	0.020703498
207	0xbcddd344	-0.027078278
208	0xbd3ec6c9	-0.046576295
209	0xbdd0955a	-0.101847365
210	0x3d0c39a6	0.034234665
211	0xbce1068e	-0.027468946
212	0x3da5b344	0.08090833
213	0xbd84373d	-0.06455848
214	0xbd59616c	-0.053071424
215	0x3c458cdf	0.012057512
216	0xbe455bb9	-0.1927327
217	0xbd810d44	-0.06301358
218	0x3d9cd529	0.076578446
219	0xbceb5d4f	-0.028731016
220	0xbd123895	-0.035698492
221	0xbe1cd017	-0.15313755
222	0xbd2eaafd	-0.042643536
223	0x3d888cf4	0.0666751
224	0xbd009220	-0.031389356
225	0xbce11167	-0.027474118
226	0xbcf2ffb1	-0.029662939
227	0xbd303124	-0.043015614
228	0xbba67cdc	-0.0050808024
229	0x3bc16286	0.0059016375
230	0x3dbdb617	0.092632465
231	0xbbdf5e57	-0.006816666
232	0xbeb61edd	-0.35570422
233	0xbe8d1c65	-0.27560726
234	0xbca67a74	-0.020322062
235	0x3be4d0e7	0.006982911
236	0xbed9de59	-0.4255245
237	0xbded4428	-0.115852654
238	0xbcd75ab2	-0.026288364
239	0xbd06aaed	-0.03287785
240	0xbe7980b6	-0.24365506
241	0xbe600cb1	-0.21879841
242	0xbe8c5d07	-0.27414724
243	0xbe3b50a3	-0.18292479
244	0xbe73777e	-0.23776051
245	0xbe9bbd41	-0.30417827
246	0xbe95b6c2	-0.29240996
247	0xbe4cb669	-0.19991459
248	0xbe810994	-0.2520262
249	0xbe9830e4	-0.297248
250	0xbed1102e	-0.40832657
251	0xbe86d5a0	-0.26334858
252	0xbecc6315	-0.39919344
253	0xbec4f4d8	-0.3846805
254	0xbea85001	-0.32873538
255	0xbe96970e	-0.2941212

2.bias f4 [32]
0	0xbe5a9c8d	-0.21348782
1	0xbf29f4b7	-0.6638903
2	0xbeb91a33	-0.361528
3	0x3ea3a050	0.31958246
4	0xbe5941e1	-0.21216537
5	0xbf410e5d	-0.7541254
6	0xbe9d7876	-0.30755967
7	0xbc026d0a	-0.007960567
8	0xbce6ee18	-0.028189704
9	0x3e76ec7c	0.24113649
10	0xbec80de9	-0.39073113
11	0x3f37d574	0.7181008
12	0x3f37acec	0.7174823
13	0xbeb1b3a2	-0.3470736
14	0xbeb298cd	-0.34882203
15	0x3e92d1e8	0.2867577
16	0xbe39f88a	-0.18161216
17	0x3f809947	1.0046777
18	0x3f2fc57c	0.6866071
19	0x3e717777	0.23580728
20	0xbdd85be8	-0.10564405
21	0x3f942798	1.1574583
22	0xbe3985d6	-0.1811746
23	0xbe885336	-0.26625985
24	0xbe451545	-0.19246395
25	0xbeaf5f39	-0.34252337
26	0xbe077522	-0.13228276
27	0x3d3da710	0.0463019
28	0xbe809838	-0.25116134
29	0x3ed96018	0.42456126
30	0xbe365cf7	-0.17808901
31	0x3e9bd61e	0.30436796

5.weight f4 [100, 1568]
0	0xbcfc540e	-0.0308018
1	0x3d52b9de	0.051446788
2	0xbd36d75f	-0.044638988
3	0xbc4d58fa	-0.012533421
4	0x3d953928	0.07286292
5	0x3dccce4d	0.10000286
6	0x3cec2c81	0.028829815
7	0x3d084304	0.033267036
8	0xbd1061e2	-0.0352496
9	0x3c19461d	0.009355095
10	0x3b9fef88	0.0048808493
11	0x3c13abbf	0.009013115
12	0x3d6e81cb	0.05822925
13	0x3af3c700	0.0018598735
14	0xbd6d0d60	-0.057874084
15	0x3d5b46b6	0.053534232
16	0xbceac541	-0.028658511
17	0x3c97101b	0.018440297
18	0xbc776688	-0.015100129
19	0x3dae9f45	0.08526472
20	0x3c956021	0.018234314
21	0xbd34bc0b	-0.044124644
22	0x3c6346a3	0.013871822
23	0xbd03e48e	-0.03220039
24	0xbd412025	-0.047149796
25	0xbcd563f5	-0.02604864
26	0xbcbb305f	-0.022850214
27	0x3be0e991	0.006863781
28	0x3d2e451d	0.04254638
29	0xbc5dd038	-0.013538413
30	0x3b3bd62d	0.0028661594
31	0xba1a473c	-0.00058852485
32	0x3c68d8ce	0.0142118465
33	0xbcd8bb05	-0.026456365
34	0xbd171eaf	-0.036894497
35	0xbcf18ca9	-0.029486017
36	0x3e00095b	0.12503569
37	0x3ccefecd	0.025267983
38	0xbd048f82	-0.032363422
39	0x3d1a076e	0.03760474
40	0x3cbd1576	0.023081522
41	0xbc3a9e1f	-0.011390238
42	0x3d38cb63	0.04511584
43	0x3d0713ce	0.03297787
44	0x3c899d24	0.016798563
45	0xbb59851c	-0.0033190912
46	0x3cdf41ae	0.027252998
47	0x3cf6e4d4	0.03013841
48	0x3c77cf16	0.015125057
49	0xbca203f6	-0.01977728
50	0xbbef3f6b	-0.007301261
51	0xbd929103	-0.07156565
52	0x3d0b70cc	0.03404312
53	0xbdccced8	-0.1000039
54	0x3d225250	0.03962928
55	0xbb2bd6d7	-0.0026220584
56	0x3c6863cf	0.0141839525
57	0x3d1d9c0a	0.03847889
58	0xbe27fb81	-0.16404535
59	0xbc044f04	-0.008075479
60	0x3c3ab6db	0.011396135
61	0x3d2a2de1	0.04154766
62	0xbd3db0f3	-0.04631133
63	0xbd6eb57f	-0.058278557
64	0xbdb1af98	-0.0867607
65	0x39d60259	0.0004081901
66	0xbcdc7c1b	-0.026914647
67	0xbc998d2d	-0.018744076
68	0x3c9376ac	0.018000923
69	0xbd2fc266	-0.042910002
70	0xbe0e1612	-0.13875607
71	0xbd71eb98	-0.05906257
72	0x3dc50b5e	0.09621309
73	0x3c899448	0.016794339
74	0xbd2a5f86	-0.041595004
75	0x3c18cb37	0.009325794
76	0xbd1a594f	-0.037682828
77	0x3d989727	0.07450705
78	0x3b867af2	0.0041040117
79	0x3da1e674	0.079052836
80	0xbb2934ba	-0.002581878
81	0x3c6bd60b	0.014394294
82	0xbbb7292d	-0.0055896253
83	0xbbf2148f	-0.0073877047
84	0xbcae10e1	-0.021248283
85	0xbb9ec9c6	-0.0048458306
86	0x3cca1327	0.024667336
87	0x3aa5b467	0.0012642265
88	0x3d9d4528	0.07679206
89	0xbdeca8b5	-0.11555616
90	0xbc04021c	-0.008057144
91	0xbcd88d7c	-0.026434653
92	0xbc6f1804	-0.014593128
93	0xbcd816f5	-0.026378134
94	0x3d9c6dfb	0.076381646
95	0x3c9f8de0	0.019476831
96	0xbe1d134d	-0.15339394
97	0x3cb18bf5	0.021673182
98	0x3c91973f	0.017772315
99	0xbda6c720	-0.08143449
100	0x3c205ef2	0.009788262
101	0xbd2825a7	-0.041051533
102	0x3cc67ba1	0.024228873
103	0x3de21829	0.110397644
104	0x3a7f1191	0.00097300956
105	0xbde3b82a	-0.11119111
106	0xbd82b263	-0.06381681
107	0x3cd1641f	0.025560437
108	0x3ce10a3f	0.027470706
109	0xbc3b8e04	-0.011447433
110	0x3cc0398a	0.023464937
111	0x3a952d89	0.0011381368
112	0xbd1e5509	-0.038655315
113	0xbca1ad7d	-0.019736046
114	0x3d8d2de9	0.06893522
115	0x3cfe7f31	0.031066509
116	0xbde4e161	-0.111758
117	0x3ce2f8e8	0.027706578
118	0xbcb96325	-0.022630284
119	0xbd46424f	-0.04840308
120	0xbd2f4a85	-0.042795677
121	0x3dd0d5e8	0.101970494
122	0x3dae7276	0.085179254
123	0x38e5f005	0.00010964278
124	0x3bee908e	0.007280416
125	0x3c84efe4	0.01622767
126	0xbd4a4289	-0.04937986
127	0xbd895c9b	-0.06707116
128	0xbaf970cd	-0.001903081
129	0x3cf13c69	0.029447751
130	0x3d36e3be	0.044650786
131	0xbd185799	-0.037192915
132	0xbc666574	-0.014062274
133	0xbdea2844	-0.11433461
134	0xbd5c99d2	-0.053857632
135	0x3ca720d6	0.0204014
136	0x3c7d337a	0.0154541675
137	0x3d53dd0a	0.05172447
138	0xbc1d229a	-0.009590769
139	0x3d1e67a7	0.03867307
140	0xbaf04c30	-0.0018333253
141	0x3c1f6a37	0.009729913
142	0xbd69b819	-0.057060335
143	0x3d7b2ded	0.061323095
144	0xbd2f81b9	-0.042848323
145	0x3d55c7b4	0.052192405
146	0x3c58732c	0.013211053
147	0x3d850cce	0.06496583
148	0x3ce75b02	0.028241638
149	0xbb010162	-0.0019684662
150	0xba80dca3	-0.000983138
151	0xbc34d958	-0.011038147
152	0x3986265a	0.00025587046
153	0x3e0a15b3	0.1348484
154	0xbe25cecc	-0.16192168
155	0xbe2c30f0	-0.16815543
156	0xbc97a157	-0.01850955
157	0xbd02618b	-0.031831305
158	0x3a9f9b67	0.0012177051
159	0x3c9a85af	0.018862573
160	0x3d801b4d	0.06255207
161	0xbe356292	-0.17713383
162	0xbcff2668	-0.031146243
163	0xbbe3201c	-0.006931318
164	0xbc2dde23	-0.010612044
165	0xbc7634e0	-0.015027255
166	0xbcf2bc8d	-0.029630924
167	0x3dade0a2	0.08490111
168	0xbdf4ace4	-0.11947039
169	0xbc62782b	-0.013822596
170	0x3c254059	0.010086142
171	0x3b9d7dd0	0.004806258
172	0x3c10824f	0.0088201305
173	0xbcab4483	-0.020906692
174	0x3dfb77cf	0.12278711
175	0xbdb403ab	-0.08789762
176	0xbadebc30	-0.001699334
177	0xbca203a9	-0.019777136
178	0x3c23d992	0.010000603
179	0xbc4d9fbc	-0.012550291
180	0xbbf9ba13	-0.0076210587
181	0x3de2b823	0.110702775
182	0xbd49dc20	-0.049282193
183	0x3c881d10	0.01661542
184	0xbb8d367f	-0.004309475
185	0xbb919274	-0.0044425074
186	0x3b55f1b4	0.0032645287
187	0x3b3513c1	0.0027630182
188	0xbdcfcc8e	-0.101464376
189	0xbc938e67	-0.018012239
190	0xbcc2e6b8	-0.023791656
191	0xbb9f7ceb	-0.0048671863
192	0x3b840b9f	0.0040297057
193	0xbccadf29	-0.024764614
194	0xbdf35fe0	-0.11883521
195	0xbe31118e	-0.17291853
196	0x3d14b0ce	0.036301427
197	0x3cc14717	0.023593469
198	0x3d996b4d	0.07491169
199	0x3caffff3	0.02148435
200	0x3c81d56d	0.01584884
201	0x381fdac7	3.8112306e-05
202	0x3d50eabb	0.051005106
203	0xbc106529	-0.008813181
204	0x3cb52bcc	0.02211561
205	0x3d21a8ee	0.039467745
206	0x3d4156bb	0.047201853
207	0x3dac3df5	0.08410255
208	0xbc104ab8	-0.008806877
209	0x3cb29dfe	0.021803852
210	0xbbb74ccc	-0.0055938717
211	0x3db2b44b	0.087257944
212	0x3cd2d55a	0.0257365
213	0xbd5bc4ed	-0.0536546
214	0x3c2548f1	0.010088191
215	0xbccac6d0	-0.024753004
216	0x3c183735	0.009290506
217	0xbcf45757	-0.029826803
218	0x3c0723c4	0.008248273
219	0x3cc91a96	0.02454881
220	0x3d47b31f	0.048754808
221	0xba2fe281	-0.0006709472
222	0xbbe78f77	-0.007066663
223	0x3d0880f0	0.03332609
224	0xbd44bb9a	-0.048030473
225	0xbd99c5e9	-0.075084515
226	0xbd32e411	-0.043674532
227	0x3dbf11e7	0.093295865
228	0x3c81122f	0.01575574
229	0x3d03ec78	0.032207936
230	0x3c547b47	0.012968845
231	0x3cced393	0.02524737
232	0xbba5746c	-0.005049279
233	0x3c320cfd	0.010867354
234	0x3ccdc0ee	0.02511641
235	0x3ca6d20f	0.020363836
236	0xbd702dee	-0.058637552
237	0x3da847f9	0.08216853
238	0xbcc039d3	-0.023465073
239	0xbc99b056	-0.018760841
240	0x3d0e60ca	0.034760274
241	0x3d291d83	0.04128791
242	0x3cca0bdb	0.024663856
243	0x3bcd3204	0.006262066
244	0x3c5565f3	0.013024795
245	0xbe264dfa	-0.16240683
246	0xbd9fe04f	-0.07806455
247	0x3c9bc7a0	0.019016087
248	0x3da8bd3b	0.08239218
249	0x3d65b253	0.056078266
250	0x3d913941	0.070909984
251	0x3bd04c3d	0.0063567446
252	0x3e249ce0	0.16075468
253	0xbd7a4583	-0.061101448
254	0xbe0dd49d	-0.13850637
255	0xbd3c90b8	-0.046036452

5.bias f4 [100]
0	0x3b1b88df	0.0023732705
1	0xbd197926	-0.03746905
2	0xbe458f74	-0.19293004
3	0xbd33756d	-0.043813158
4	0xbc8ecdfd	-0.017432207
5	0xba3686aa	-0.00069628155
6	0xbda4a651	-0.08039535
7	0xbe762386	-0.24036989
8	0xbdb9d3d8	-0.09073609
9	0x3e983622	0.297288
10	0xbdb78e72	-0.08962716
11	0xbe6840d3	-0.22680978
12	0x3c4f84c7	0.012665934
13	0xbe4914c5	-0.19636829
14	0xbcfa275f	-0.030536352
15	0x3e2a4e88	0.1663152
16	0xbe33fc40	-0.17576694
17	0xbd83ec15	-0.064415134
18	0xbd8528a7	-0.065018944
19	0x3e45bdbe	0.19310662
20	0xbd4303c5	-0.047611017
21	0xbd324fb7	-0.043533053
22	0xbcf41b07	-0.029798044
23	0x3e902914	0.2815634
24	0x3e9c497b	0.3052481
25	0x3d53d427	0.051715996
26	0xbe99c050	-0.30029535
27	0xbd60c774	-0.054877713
28	0x3e02c442	0.12770179
29	0xbd77ebb3	-0.060527515
30	0xbd7bd03e	-0.061477892
31	0xbd7b23d3	-0.06131346
32	0x3d00a738	0.031409472
33	0xbd83ed5d	-0.06441758
34	0xbe830f1e	-0.2559747
35	0xbd3cbd71	-0.046079103
36	0xbde71080	-0.11282444
37	0x3e11257b	0.14174454
38	0xbcc337fd	-0.023830408
39	0xbd379606	-0.044820808
40	0x3e8516e6	0.25994033
41	0x3eb491c0	0.35267448
42	0xbeb634c8	-0.35587144
43	0xbcc176c7	-0.023616208
44	0xbb05d61b	-0.0020421806
45	0xbda6c871	-0.081437
46	0x3ec38d9e	0.38193983
47	0xbe2cb0a9	-0.16864266
48	0xbd07c9dc	-0.033151492
49	0x3e517a71	0.20456864
50	0xbe7b8353	-0.24561815
51	0xbcd54657	-0.026034517
52	0xbd250804	-0.040290847
53	0x3c53e0d9	0.012932026
54	0xbda25f1c	-0.07928297
55	0xbda0ef29	-0.07858116
56	0xbd44f9da	-0.04808984
57	0xbd95597d	-0.07292459
58	0xbc9e258e	-0.019305017
59	0xbda1da73	-0.07902994
60	0xbd2e03e3	-0.042484175
61	0xbd4089f3	-0.04700656
62	0xbdcea3ef	-0.100898616
63	0xbd23e6b6	-0.040014945
64	0x3ec6ad86	0.38804263
65	0x3e8c6f79	0.27428797
66	0xbd1168c2	-0.035500295
67	0xbd9815da	-0.07426043
68	0xbd3752de	-0.044756763
69	0xbd50306b	-0.050827425
70	0xbce3ac83	-0.027792221
71	0xbe3183b3	-0.17335396
72	0xbce1875f	-0.02753037
73	0xbe7a18b0	-0.2442348
74	0x3e4a9a3c	0.19785398
75	0x3df279e2	0.118396536
76	0xbd69960a	-0.057027854
77	0x3f1df05e	0.61694896
78	0xbe254fe2	-0.16143754
79	0xbda1f1e7	-0.07907467
80	0xbd0fc75d	-0.035102237
81	0xbe044dd8	-0.1292032
82	0xbd6fbdd1	-0.058530632
83	0x3b1b2377	0.0023672262
84	0x3ed0c698	0.40776515
85	0xbd7ef1af	-0.062242206
86	0xbd0dfb93	-0.034663748
87	0xbe4ba73b	-0.19888012
88	0xbd346e4c	-0.0440505
89	0xbd8ad976	-0.06779759
90	0xbe85c25c	-0.26124847
91	0xbe09c6cb	-0.1345474
92	0xbf0320db	-0.5122201
93	0xbdafceaf	-0.08584344
94	0x3eb3b229	0.35096863
95	0x3f0c7f0c	0.5488136
96	0xbd5052f0	-0.050860345
97	0x3ef53680	0.47893143
98	0x3d4a5e67	0.049406435
99	0xbe621a7c	-0.22080415

7.weight f4 [10, 100]
0	0x3d587b65	0.052852053
1	0xbca9d794	-0.020732678
2	0x3d040c82	0.03223849
3	0x3d9d4af8	0.07680315
4	0x3c3f9a85	0.011694555
5	0xbcd77511	-0.026300939
6	0xbe29593c	-0.16537946
7	0x3c49406c	0.012283426
8	0x3c49d54a	0.0123189185
9	0x3d648d13	0.0557986
10	0x3d3ec38d	0.04657321
11	0xbd200b5c	-0.039073333
12	0x3d05c2d1	0.032656495
13	0x3d11d311	0.03560168
14	0x3d25b56c	0.04045622
15	0x3d073966	0.033013724
16	0x3c6fb6d4	0.014630992
17	0xbd58c4db	-0.05292211
18	0xbd7ab21b	-0.06120501
19	0xbcf3d9e1	-0.029766979
20	0x3c192b9e	0.009348778
21	0x3d8e64a6	0.06952791
22	0xbceff0b0	-0.029289573
23	0xbd3c2f22	-0.045943387
24	0x3e42769e	0.18990561
25	0x3cb64b9c	0.02225285
26	0x3cacdaa5	0.021100352
27	0x3d1bc320	0.038027883
28	0x3d0eca76	0.03486105
29	0xbcd82a2a	-0.026387293
30	0x3d06e859	0.032936428
31	0xbc43db31	-0.011954115
32	0xbd14bc6a	-0.0363125
33	0x3d81a038	0.063293874
34	0xbcc91d7b	-0.02455019
35	0x3d36654f	0.04453021
36	0x3cf9916a	0.030464847
37	0x3d866f5e	0.0656421
38	0x3d8b6a04	0.0680733
39	0xbb80af79	-0.003927168
40	0x3dee8269	0.116459675
41	0xbc60be12	-0.013717191
42	0x3cea1067	0.028572274
43	0xbd5aa903	-0.05338384
44	0x3be8e96e	0.007107905
45	0x3d8357ef	0.064132564
46	0xbd994237	-0.074833326
47	0x3d1dd246	0.03853061
48	0xbd2693a1	-0.040668134
49	0x3c66190f	0.01404406
50	0x3d399a4e	0.045313172
51	0xbcdacca6	-0.026708912
52	0xbc9fb134	-0.019493677
53	0xbb943f3a	-0.0045241388
54	0x3b8037ea	0.0039129155
55	0x3d12ffb4	0.03588839
56	0x3d068b75	0.03284784
57	0xbd3d6ac6	-0.046244405
58	0x3c8cbc4a	0.017179627
59	0xbcf38248	-0.029725209
60	0xbd06793d	-0.032830466
61	0xbc7ba3e1	-0.015358896
62	0xb82f3ea3	-4.1781586e-05
63	0x3c0f0f61	0.008731694
64	0xbd9c3753	-0.0762774
65	0x3ce90c41	0.028448226
66	0x3d7392ff	0.05946636
67	0xbe1dfeb5	-0.15429194
68	0xbce8d8c6	-0.028423678
69	0x3d5d0d17	0.05396756
70	0xbd1d8f47	-0.038466718
71	0x3c3e44b7	0.011613063
72	0xbda4c6f0	-0.08045757
73	0x3c9bf4fb	0.019037714
74	0x3c8cf1a0	0.01720506
75	0xbd4b759a	-0.0496727
76	0xbc32fc0f	-0.010924353
77	0x3d8c2814	0.06843582
78	0x3b8a71f6	0.004225011
79	0x3ca0b937	0.019619567
80	0x3d753bd9	0.05987153
81	0x3d3f84fe	0.04675769
82	0x3dbcc404	0.092170745
83	0x3c9c512b	0.019081673
84	0x3d2e1762	0.04250277
85	0x3bb3aa47	0.005482945
86	0x3d109023	0.03529371
87	0x3c9fd649	0.019511359
88	0xbcd2ffc6	-0.025756728
89	0xbbca512d	-0.0061742277
90	0xbcf94ad2	-0.030431185
91	0xbc1e86e3	-0.009675714
92	0x3abd222e	0.0014429742
93	0x3ca6530e	0.020303275
94	0xbbd9965d	-0.006640239
95	0x3d3b7392	0.045764513
96	0x3d06891d	0.032845605
97	0xbcad04ff	-0.021120546
98	0xbd146506	-0.036229156
99	0xbd5d4bb7	-0.054027285
100	0x3d55b6fd	0.052176464
101	0xbd4b7e5e	-0.04968106
102	0x3ca78686	0.020449888
103	0xbd882b7e	-0.066489205
104	0x3da84b3c	0.08217475
105	0x3c68c22f	0.014206453
106	0x3d9777df	0.073959105
107	0x3ccc5b8f	0.024946002
108	0x3c54a81b	0.012979533
109	0xbd076019	-0.03305063
110	0x3d913c72	0.07091607
111	0x3c5e8271	0.013580904
112	0x3ca42d56	0.02004115
113	0x3d15a537	0.036534514
114	0xbaf7a988	-0.0018895129
115	0xbc202bd3	-0.0097760735
116	0x3c732a2c	0.0148415975
117	0xbd2620bd	-0.040558565
118	0xbc8420cb	-0.016128918
119	0x3d176ba1	0.036967877
120	0xbcb95f70	-0.022628516
121	0x3b85b438	0.0040803216
122	0xbccaf259	-0.024773763
123	0xbd8ee678	-0.06977552
124	0xbcf7dd3b	-0.030256858
125	0x3cb4f9fc	0.022091858
126	0x3c363eb4	0.011123348
127	0x3d34af4c	0.04411249
128	0x3d2120f2	0.03933806
129	0x3c854e99	0.01627283
130	0x3c668408	0.014069565
131	0xbdac1739	-0.08402867
132	0xbd0eb07c	-0.034836277
133	0x3cdf2f96	0.02724437
134	0xbcfceebd	-0.030875558
135	0x3d9becf9	0.07613558
136	0x3ba06219	0.0048945067
137	0xbe07057a	-0.13185683
138	0xbd48a6b2	-0.048987098
139	0x3c0f0d54	0.008731205
140	0xbc3ac7b5	-0.011400153
141	0xbdac014b	-0.08398684
142	0x3ce92794	0.028461255
143	0x3bc323c0	0.0059551895
144	0x3d50b0bd	0.0509498
145	0x3d282866	0.041054152
146	0xbda944e6	-0.082650945
147	0x3e4ef29d	0.20209737
148	0xbd1fb30c	-0.03898911
149	0x3c49039c	0.012268927
150	0x3d14fcc5	0.036373872
151	0x3d46c45c	0.048527107
152	0xbac32d73	-0.0014890864
153	0x3a886037	0.0010404651
154	0x3cf2921f	0.029610692
155	0x3d75d4e9	0.0600175
156	0x3d45d83b	0.048301917
157	0xbcd2f7f4	-0.025752999
158	0x3c5cd79b	0.013479139
159	0xbd1a552b	-0.03767888
160	0x3d165414	0.036701277
161	0x3ceb03c6	0.028688323
162	0x3ce354fa	0.02775048
163	0xbc9c5987	-0.019085659
164	0xbdd768a6	-0.10518007
165	0xbdb35065	-0.087555684
166	0xbd2cc2fa	-0.04217813
167	0x3d665cbc	0.056240782
168	0xbb7f32d0	-0.0038940199
169	0xbd2a1827	-0.04152694
170	0xbc65ecd5	-0.014033516
171	0x3c22bbbd	0.009932456
172	0x3be008f3	0.0068370043
173	0x3cfce6d0	0.030871779
174	0x3c86ab5c	0.016439132
175	0x3e06d501	0.13167192
176	0xbd6b312e	-0.05741995
177	0xbdc204ac	-0.09473547
178	0x3afb8ec5	0.0019192329
179	0x3cde38b5	0.02712665
180	0x3b496b0a	0.0030733966
181	0x3db5b8bb	0.08873125
182	0x3d58cffd	0.052932728
183	0x3ca9a208	0.020707145
184	0x3ba4b731	0.005026721
185	0xbd60f8e1	-0.05492485
186	0xbcb8f468	-0.02257748
187	0x3c376a82	0.011194827
188	0xbd7823ae	-0.0605809
189	0x3d4d7adf	0.050166007
190	0xbd22ddea	-0.039762415
191	0x3c90e7e1	0.017688693
192	0x3df5b165	0.11996726
193	0x3ccb79b2	0.024838302
194	0xbc02d6f0	-0.007985815
195	0xbd8ab3da	-0.06772585
196	0xbd2e1e43	-0.04250933
197	0xbcd0023d	-0.025391692
198	0x3dac7a7d	0.084218
199	0xbd1427f6	-0.036170922
200	0x3d5a475c	0.05329071
201	0xbc8d3e7f	-0.017241715
202	0x3cd19ae3	0.025586551
203	0xbb547ca3	-0.0032422922
204	0x3c86c1ed	0.016449893
205	0x3d1e1af0	0.03859991
206	0xbd99604d	-0.07489071
207	0x3cca985c	0.024730854
208	0x3cd61769	0.02613421
209	0xbd615b54	-0.055018738
210	0xbce76384	-0.028245695
211	0xbc1c09e5	-0.009523843
212	0x3c8587d3	0.016300118
213	0x3d1360f1	0.035981122
214	0xbca834d7	-0.020533009
215	0xbb10cbc9	-0.0022094122
216	0x3c3ba662	0.011453243
217	0x3aae634c	0.0013304739
218	0xbd04ba11	-0.03240401
219	0x3df49728	0.11942893
220	0xbc115d0a	-0.00887228
221	0x3d888df9	0.06667704
222	0xbd8ee52e	-0.06977306
223	0x3e1adde9	0.15123715
224	0x3db62a72	0.088948146
225	0x3cbc5cf3	0.02299354
226	0x3c9b622c	0.01896771
227	0x3cd3e7b1	0.025867315
228	0x3d29489f	0.041329022
229	0xbce2edd4	-0.027701296
230	0xbcad6c09	-0.02116968
231	0xbd6e2f8a	-0.058150806
232	0xbd13e048	-0.036102563
233	0xbc2f7622	-0.010709317
234	0xbd213f9c	-0.039367303
235	0x3cc46738	0.023975
236	0x3cb0fae8	0.021604016
237	0xbdcc9748	-0.09989792
238	0xbb8bd89f	-0.0042677666
239	0x3bf0e63b	0.0073516644
240	0xbc48df01	-0.0122601995
241	0xbd20e6c3	-0.03928257
242	0x3d02d6c5	0.0319431
243	0xbce2191b	-0.027599862
244	0xbd002898	-0.031288713
245	0x3d15932a	0.0365173
246	0xbc57b0e2	-0.013164731
247	0xbd441d64	-0.04787959
248	0x3ca4c3a6	0.020112824
249	0x3c6ab505	0.014325385
250	0x3d340daf	0.043958362
251	0x3ca81c96	0.020521443
252	0x3c20ca8d	0.009813917
253	0xbb00fb03	-0.0019680865
254	0xbcdc472d	-0.026889408
255	0x3d84a353	0.06476464

7.bias f4 [10]
0	0x3c1cdf30	0.009574696
1	0xbf17a0c8	-0.5922971
2	0x3d714959	0.05890784
3	0x3d927d92	0.07152857
4	0x3df128dd	0.11775372
5	0x3e67abeb	0.22624175
6	0xbe31cd4b	-0.1736347
7	0xbe8cd989	-0.27509716
8	0x3eb97c76	0.3622777
9	0x3cf6891f	0.030094681
