models/MNIST/more_small158_1.pth (torch, 668111 bytes, 8 tensors)

0.weight f4 [16, 1, 4, 4]
0	0xba88d1fb	-0.0010438556
1	0xbb2d7f53	-0.0026473596
2	0xbc289e22	-0.010291608
3	0xbbd7475f	-0.0065697874
4	0xbb2823bf	-0.0025656072
5	0xbbaa3050	-0.0051937476
6	0xbbcafef3	-0.006194943
7	0xbbf789ba	-0.00755426
8	0xbc04137c	-0.008061286
9	0xbc0c180f	-0.008550658
10	0xbb8bb5c5	-0.004263612
11	0xbcac003c	-0.020996206
12	0xbae8209e	-0.0017709916
13	0xbb4f0774	-0.0031590136
14	0x39cf5eba	0.00039552693
15	0xbab33bb8	-0.0013674414
16	0x3a389656	0.0007041445
17	0x3a35068d	0.0006905578
18	0xba220e3d	-0.0006181931
19	0xbb184a29	-0.0023237562
20	0xb9dd2677	-0.00042181063
21	0xba0ca730	-0.0005365489
22	0x3a9754ae	0.0011545622
23	0xba986b5a	-0.0011628673
24	0xba06c55b	-0.00051411026
25	0x39b433ee	0.00034370966
26	0xba331a60	-0.0006832238
27	0xb932f255	-0.00017065679
28	0xba7977b7	-0.0009516435
29	0xba96dff5	-0.0011510836
30	0x3a80b94c	0.0009820848
31	0xbb26511b	-0.0025377932
32	0x39a87f80	0.00032138452
33	0xb972ff63	-0.00023174057
34	0xbacbb726	-0.0015542253
35	0xbaac94ba	-0.0013166883
36	0x38c506a5	9.39493e-05
37	0xbaa04b11	-0.0012229403
38	0xbaaf24d9	-0.0013362422
39	0xbaa3f123	-0.0012507777
40	0xba8cb28a	-0.0010734361
41	0xba6878d0	-0.00088681
42	0xb9fd20c2	-0.00048280327
43	0x36ae1402	5.1879333e-06
44	0xb9a3afb5	-0.00031220695
45	0xbacb06a8	-0.0015489655
46	0xb7bf546d	-2.2808288e-05
47	0xba979e9a	-0.0011567653
48	0x3a6cee79	0.0009038221
49	0x3bb74ccc	0.0055938717
50	0x3c534039	0.01289373
51	0x3b9075fd	0.0044085965
52	0x3aead049	0.0017914857
53	0x3a137d36	0.0005626263
54	0x3bc06a58	0.005872052
55	0x3ab888fe	0.0014078913
56	0x3a4b9644	0.0007766227
57	0xbba9b46a	-0.0051789777
58	0xbb9a4892	-0.004708358
59	0xbc07d9a6	-0.0082916375
60	0x3af6ebf3	0.0018838629
61	0x3a412caf	0.0007369024
62	0x3ac9f4c3	0.0015408028
63	0xba9510d7	-0.0011372817
64	0x3bbf1e1b	0.0058324463
65	0x3ccec5f7	0.025240881
66	0x3cfa7542	0.030573491
67	0x3c97164e	0.018443253
68	0x3c8f2ee2	0.01747841
69	0x3d78ce78	0.06074378
70	0x3d8f1fa3	0.06988456
71	0x3d2e489a	0.042549707
72	0x3cb990be	0.022652026
73	0x3d7f32dc	0.062304363
74	0x3d89685d	0.06709359
75	0x3d12b6ca	0.035818852
76	0x3c1a94c2	0.009434881
77	0x3cd75bda	0.026288915
78	0x3cd25628	0.025675848
79	0x3c270359	0.010193669
80	0xbafadf9a	-0.0019140125
81	0xbad1338b	-0.0015960796
82	0x3abeb5ae	0.0014549994
83	0xbbdedb09	-0.0068010134
84	0xbb58d2fa	-0.0033084736
85	0x3bc88943	0.0061198785
86	0x3c130d76	0.008975377
87	0xbbde9885	-0.006793084
88	0xbb833e4f	-0.0040052305
89	0x3c2805a1	0.010255248
90	0x3c63527f	0.013874649
91	0x3b2ee50d	0.0026686818
92	0xbb8519ce	-0.004061914
93	0x3c225aee	0.009909375
94	0x3bd64c60	0.0065398663
95	0xbb59bed9	-0.0033225326
96	0x3b9e7c46	0.004836592
97	0x3be575a4	0.0070025492
98	0x3bd71b7f	0.006564557
99	0x3b4a0f42	0.0030831848
100	0x3bc67d1f	0.006057396
101	0xbb473380	-0.0030395687
102	0x3b291eb5	0.0025805656
103	0x3b3b1161	0.0028544294
104	0x3bdfacba	0.0068260105
105	0xbacfdbb5	-0.0015858324
106	0x3a90493c	0.0011008154
107	0x3b1510dc	0.0022745645
108	0x3b90a73d	0.0044144676
109	0x37552c1e	1.2706061e-05
110	0xba74d976	-0.00093402655
111	0xbb0cd657	-0.0021490061
112	0xbb1c55a9	-0.0023854768
113	0xbb62ed9a	-0.0034626485
114	0xbafcf162	-0.0019298012
115	0xbb14f973	-0.002273169
116	0xbabb78ab	-0.001430293
117	0xba9b0ea3	-0.0011829924
118	0xbb71dc9d	-0.0036905177
119	0xbaaf9fd1	-0.001339907
120	0xbad4f374	-0.0016246871
121	0xbb318866	-0.0027089356
122	0xbb80f83b	-0.0039358414
123	0xbafa9daf	-0.001912048
124	0xbb750c17	-0.003739124
125	0xbbb46208	-0.0055048503
126	0xbba2673f	-0.0049561555
127	0xbb741cd0	-0.003724862
128	0x3b238c6e	0.0024955529
129	0xbb4b7876	-0.0031047142
130	0x3c1bc3f1	0.009507165
131	0xb9562f4f	-0.00020426254
132	0x3b605d0a	0.0034235143
133	0xbbdccdc5	-0.006738397
134	0x38e6882b	0.00010992618
135	0xba57d18e	-0.0008232825
136	0xba2ef1d2	-0.0006673607
137	0xbc22744a	-0.009915421
138	0xba158d73	-0.00057049765
139	0xbc08a666	-0.008340454
140	0x3bb0487e	0.0053797355
141	0xbc01e52a	-0.007928172
142	0xbbafa251	-0.005359926
143	0xbc7ee918	-0.015558504
144	0x3c124f58	0.00893005
145	0x3c63fbc0	0.013915002
146	0x3b9e0148	0.00482193
147	0xbc37219e	-0.011177449
148	0xba9ce0d0	-0.0011968855
149	0xbc42eaa3	-0.011896762
150	0xbccb37a7	-0.02480681
151	0xbd0ac9be	-0.033883803
152	0xbb69ed94	-0.0035694586
153	0xbca63172	-0.02028725
154	0xbce2a8e3	-0.027668422
155	0xbcc13878	-0.023586497
156	0xbc01d7cf	-0.007924988
157	0xbc81d8d1	-0.015850456
158	0xbca405e9	-0.02002235
159	0xbc08ff4c	-0.008361649
160	0xbc931951	-0.017956408
161	0xbcd8daea	-0.026471574
162	0xbc705d96	-0.01467075
163	0x3b9bd59a	0.004755688
164	0xbce57165	-0.028008172
165	0xbd115e4a	-0.03549031
166	0xbccfd01e	-0.025367793
167	0x3aa269f1	0.0012391192
168	0xbc7b1dc1	-0.015326918
169	0xbc59d57c	-0.013295528
170	0xbb800e10	-0.0039079264
171	0x3c080609	0.00830222
172	0x3b9bbb1a	0.004752529
173	0x3c155e1f	0.0091166785
174	0x3c45c012	0.012069719
175	0x3c0e066a	0.008668521
176	0xb835ebd4	-4.3373395e-05
177	0xbc134698	-0.008988999
178	0xbbf1fdf3	-0.0073850094
179	0xbbc47f25	-0.005996602
180	0x3cd0db0b	0.025495073
181	0x3c8d3b4f	0.017240195
182	0x3c0a4624	0.008439574
183	0xbbe167e3	-0.0068788393
184	0x3d0e3032	0.03471393
185	0x3cdb88fa	0.026798714
186	0x3bf7f385	0.0075668716
187	0xbbf59e1d	-0.007495655
188	0x3cabe0b6	0.020981174
189	0x3c863453	0.016382372
190	0x3ae7b3b9	0.0017677463
191	0xba8ae910	-0.0010598022
192	0xbb1f27da	-0.0024285228
193	0xbc12edd1	-0.008967833
194	0xbc384ad1	-0.011248306
195	0xbc3d2dff	-0.011546611
196	0xbc1a353e	-0.009412108
197	0xbc6111f3	-0.01373719
198	0xbc70e6a4	-0.0147034265
199	0xbc5ded6e	-0.013545377
200	0xbc68e591	-0.014214889
201	0xbc64f7d4	-0.013975102
202	0xbc1d64b0	-0.009606525
203	0xbc1e1d1a	-0.009650493
204	0xbbb75933	-0.00559535
205	0xbc846dc1	-0.016165616
206	0xbc33ff75	-0.010986199
207	0x3bde63c2	0.0067867944
208	0x3a949a20	0.0011337437
209	0xb9b161f6	-0.00033833057
210	0xbb5c10dc	-0.0033579385
211	0x3b383581	0.0028108063
212	0xbbb8adfc	-0.005635975
213	0xbbe79d85	-0.0070683383
214	0xbc091684	-0.008367185
215	0xbb4ae08f	-0.0030956601
216	0xbc1655dc	-0.009175744
217	0xbc33c646	-0.010972565
218	0x3b0a9f60	0.0021152124
219	0x3ad916d8	0.0016562594
220	0x3b5fc7e8	0.0034146253
221	0xbc3185eb	-0.010835151
222	0x3b67c262	0.0035363664
223	0x3bbe84f7	0.0058141905
224	0x3ba3ccc4	0.004998775
225	0xbbd958b5	-0.006632889
226	0x3b0be739	0.0021347536
227	0xbbf09147	-0.007341537
228	0xbbdde641	-0.006771833
229	0xbac83ff0	-0.0015277844
230	0xbb21b9cf	-0.00246774
231	0x3b940b54	0.004517952
232	0xbabc7697	-0.0014378604
233	0xba2bcd80	-0.0006553754
234	0xb9e41a92	-0.00043507345
235	0xbb32c27f	-0.0027276573
236	0xbb4de403	-0.0031416423
237	0xba962d4a	-0.0011457589
238	0xbb35d5ea	-0.002774591
239	0xbc5b0e78	-0.013370149
240	0xbaf409fc	-0.0018618698
241	0xbbee1214	-0.0072653387
242	0xbc2d2819	-0.010568642
243	0x3b5de10a	0.0033856058
244	0xbc31818e	-0.010834111
245	0xbc5b6773	-0.013391363
246	0xbbc20113	-0.005920538
247	0x3c920ab4	0.01782737
248	0xbcf861b7	-0.030320032
249	0xbd1321aa	-0.035920776
250	0xbcb3a0a0	-0.021927178
251	0x3a340874	0.00068677147
252	0xbcd50cc8	-0.026007071
253	0xbce73f67	-0.028228475
254	0xbc480927	-0.012209213
255	0xbb91b8f0	-0.004447095

0.bias f4 [16]
0	0xbdc00c7c	-0.09377381
1	0xbcc74d66	-0.024328899
2	0xbc700138	-0.014648728
3	0x3d46c56b	0.048528116
4	0x3ea17692	0.31535774
5	0x3d86a7e9	0.06574995
6	0x3d084fc3	0.03327919
7	0xbd0aa9e1	-0.033853415
8	0xbe147f04	-0.14501578
9	0x3ea4789a	0.32123262
10	0x3e917361	0.2840834
11	0x3e11159d	0.14168401
12	0xbe22b0cd	-0.15887757
13	0xbdec4c6d	-0.115380146
14	0xbd99d28c	-0.07510862
15	0x3ea2b9a1	0.3178225

2.weight f4 [32, 16, 4, 4]
0	0xbd159f60	-0.036528945
1	0xbc4bd5fc	-0.012441155
2	0xbd2d43ab	-0.04230086
3	0xbcf968c9	-0.030445473
4	0xbcb53228	-0.022118643
5	0x3cb9e837	0.022693736
6	0xbd253d7f	-0.04034185
7	0xbc1b87e3	-0.009492847
8	0xbd4ded42	-0.050275095
9	0xbd22529f	-0.039629575
10	0xbd274c14	-0.040844038
11	0x3ca0fce3	0.019651836
12	0xbd5eaecc	-0.054365918
13	0xbcd6a51b	-0.026201775
14	0xbc48561f	-0.012227564
15	0x3cbc2d91	0.022970947
16	0xbd1096b9	-0.03529999
17	0x3bae1352	0.0053123618
18	0xbb85858d	-0.0040747584
19	0xbcd573e3	-0.026056236
20	0xbb740474	-0.00372341
21	0x3e629018	0.2212528
22	0x3e2d9977	0.16953073
23	0x394a8448	0.000193135
24	0x3c431938	0.011907868
25	0x3e7a13cd	0.24421616
26	0x3dfd03c8	0.12354237
27	0x3c431dfc	0.011909004
28	0xbcfd62d9	-0.030930923
29	0x3b73fc97	0.0037229413
30	0x3aab733a	0.0013080605
31	0xbc10f009	-0.008846291
32	0xbd461709	-0.04836181
33	0x3c79cdb0	0.015246794
34	0x3dab0647	0.08350807
35	0x3b81896b	0.003953149
36	0xbc8a9705	-0.016917715
37	0x3d99ea6d	0.07515416
38	0x3e950e07	0.29112265
39	0x3c51d4ab	0.012807052
40	0x3ae972b8	0.0017810678
41	0x3cce1631	0.025157066
42	0x3dc223ca	0.094794825
43	0x3d17c0d3	0.037049126
44	0xbcf27c7e	-0.029600378
45	0x3b68dffd	0.0035533898
46	0xbc1cd936	-0.0095732715
47	0xb8d4c975	-0.00010146472
48	0x3e515e68	0.2044617
49	0xbca0e63c	-0.019641034
50	0x3e2706d1	0.16311194
51	0x3d4d297b	0.050088387
52	0x3d0b9ee5	0.03408708
53	0xbe0bf8a3	-0.13669066
54	0xbd88ce6f	-0.06679999
55	0x3c5c1a42	0.013433995
56	0xbd8ec29d	-0.06970713
57	0xbda54e7c	-0.0807161
58	0x3cd8b730	0.026454538
59	0xbcf49cec	-0.029859982
60	0xbc651b92	-0.013983624
61	0xbe01a49d	-0.12660451
62	0xbd0fe6b8	-0.03513214
63	0x3d42c115	0.04754742
64	0x3e2bb403	0.16767888
65	0x3c85f51d	0.01635223
66	0x3e631f9d	0.22180028
67	0x3e03454b	0.12819402
68	0x3d359766	0.044333838
69	0x3e7ad2af	0.24494432
70	0x3e6af490	0.22944856
71	0xbae9d263	-0.0017839189
72	0x3d3decf0	0.04636854
73	0x3d813520	0.06308961
74	0x3ce8042b	0.0283223
75	0xbd21018e	-0.039308123
76	0x3e1647d0	0.14675832
77	0xbc97c731	-0.018527599
78	0x3d53b580	0.051686764
79	0x3e902e54	0.28160346
80	0x3df7a38f	0.12091743
81	0xbda1abfb	-0.07894131
82	0x3d19ccbd	0.03754877
83	0xbdaa718a	-0.08322437
84	0xbd9a2313	-0.07526221
85	0xbdadf546	-0.08494048
86	0x3d32bacb	0.04363517
87	0xbda033ec	-0.07822403
88	0xbd31a805	-0.043373127
89	0xbe019e8e	-0.1265814
90	0xbcff2167	-0.031143857
91	0xbcd68c6a	-0.026190002
92	0x3e7a2608	0.2442857
93	0x3c2c7a6b	0.010527234
94	0xbc3f7a7f	-0.01168692
95	0x3e9045c4	0.28178227
96	0x3d17a622	0.03702367
97	0xbd5557ba	-0.052085616
98	0x3d198d0c	0.03748803
99	0x3e0c7067	0.13714753
100	0xbd5d2da1	-0.053998593
101	0xbdf7606a	-0.120789364
102	0xbcf07db1	-0.02935681
103	0x3dc8f625	0.09812573
104	0xbd872da5	-0.06600503
105	0xbd1d376c	-0.038382933
106	0xbcb62ac5	-0.022237191
107	0xbd4ca40a	-0.049961127
108	0x3c89cb61	0.016820611
109	0xbd0cd9d9	-0.034387443
110	0xbca1e8f6	-0.019764405
111	0x3d9402dc	0.07227108
112	0x3b506bba	0.0031802491
113	0x390f6a14	0.0001367706
114	0xbcd91ff9	-0.026504504
115	0xbc983038	-0.01857768
116	0xbbd143e0	-0.006386265
117	0x3e06d3b9	0.13166703
118	0x3e02db0f	0.12778877
119	0x3b1c5388	0.00238535
120	0x3b254b1b	0.0025221768
121	0x3e2ebc55	0.1706403
122	0x3e4aa3fd	0.19789119
123	0x3d832f89	0.06405551
124	0xbc19b820	-0.009382278
125	0x3cb485f5	0.022036532
126	0x3c4ae724	0.01238421
127	0x3b5de300	0.0033857226
128	0xbd0ba3be	-0.034091704
129	0x3d66504f	0.056228932
130	0xbd41d268	-0.0473198
131	0xbd40d370	-0.047076643
132	0xbc8beadf	-0.017079769
133	0x3e0d377d	0.13790698
134	0x3e6088a2	0.21927121
135	0x3ccddfe2	0.02513117
136	0xbd25f790	-0.040519297
137	0x3db1e768	0.08686715
138	0x3dfdc2b0	0.12390649
139	0x3d8e8955	0.06959788
140	0xbd283477	-0.04106566
141	0xbcc28795	-0.023746291
142	0x3cf3dc6a	0.029768188
143	0x3c0305db	0.0079970015
144	0x3ed6c467	0.41946718
145	0xba8577b4	-0.0010182769
146	0xbd527d6b	-0.05138914
147	0x3ec1ac7e	0.37826914
148	0x3d3c1f62	0.045928366
149	0xbf02023f	-0.5078468
150	0xbeda2a46	-0.42610377
151	0xbd4c6f9d	-0.04991113
152	0x3dcd829a	0.10034676
153	0xbe9363ae	-0.28786987
154	0xbe8ea6c0	-0.27861595
155	0x3d1bedb0	0.038068473
156	0x3e9499f4	0.29023707
157	0x3dd9525b	0.10611411
158	0xbc871871	-0.016491147
159	0x3ea52326	0.3225338
160	0x3e4e63f9	0.20155324
161	0x3dce91e8	0.10086423
162	0x3c396efc	0.011317965
163	0x3e9a6fb5	0.3016335
164	0x3c4a6c70	0.012354955
165	0xbe7b3651	-0.24532439
166	0xbeca9590	-0.39567232
167	0x3d8e5403	0.06949618
168	0x3d5e2cb9	0.05424187
169	0xbe5392f1	-0.20661522
170	0xbeeb318e	-0.45936245
171	0x3d16b1d4	0.036790684
172	0x3e44c146	0.19214353
173	0x3e07cc80	0.13261604
174	0x3e04ca9a	0.12967911
175	0x3eb54ac3	0.354086
176	0x3e88167b	0.2657965
177	0xbd59e3e3	-0.053195845
178	0x3dcb3e2e	0.09923969
179	0x3e7bde7d	0.24596591
180	0x3d59c98c	0.053170726
181	0xbe4a45ec	-0.19753236
182	0x3e6d8fa6	0.23199329
183	0x3dc28133	0.09497299
184	0xbc098c40	-0.008395255
185	0xbeafa242	-0.3430348
186	0xbe4536cd	-0.19259186
187	0xbd7574c6	-0.059925817
188	0x3eb3f2b6	0.3514611
189	0xbcf12906	-0.029438507
190	0x3c0a0acf	0.0084254285
191	0x3e9cfe4a	0.30662757
192	0xbd21319a	-0.039353944
193	0x3c9f05d7	0.019411964
194	0xbca0f1d0	-0.019646555
195	0xbd22941c	-0.03969203
196	0x3c81ef58	0.015861198
197	0x3e2f81d9	0.17139377
198	0x3cae18d2	0.02125207
199	0x3d2642ed	0.04059117
200	0xbd4f6eba	-0.050642706
201	0x3d2158d7	0.039391365
202	0xbc0f8798	-0.008760355
203	0xbd76ff0f	-0.060301837
204	0x3a792ee8	0.0009505586
205	0x3c99da9f	0.018781004
206	0x3c04a034	0.008094836
207	0x3c9bb837	0.019008739
208	0xbdc8cebc	-0.098050565
209	0xbc2b12a5	-0.010441457
210	0x3c9628b2	0.018329952
211	0xbd318e88	-0.04334882
212	0xbd3de709	-0.04636291
213	0x3ddc9fdd	0.10772679
214	0x3e2bbbf7	0.16770922
215	0x3bc1f381	0.0059189205
216	0x3d4e9a13	0.050439905
217	0xba299553	-0.00064690894
218	0x3bebc1cd	0.0071947337
219	0xbc2e9784	-0.010656241
220	0x3c488a22	0.012239965
221	0x3cd943f5	0.026521662
222	0x3d52a3b4	0.05142565
223	0xbcfe1470	-0.031015605
224	0xbc340d6a	-0.010989526
225	0x3cfe44f0	0.031038731
226	0xbcd6ce8d	-0.026221538
227	0x3c882ea4	0.016623802
228	0xbd3491d2	-0.044084378
229	0x3ea4ee6a	0.32213145
230	0x3e41937f	0.18903922
231	0xbcedd167	-0.029030515
232	0xbc72ddb3	-0.014823365
233	0x3da466f5	0.0802745
234	0x3d9ec2b3	0.0775198
235	0x3a5ecf5f	0.00084995286
236	0xbc7f9d0a	-0.015601406
237	0xbd2ff69b	-0.04295979
238	0xbcbc129a	-0.022958089
239	0xbca8f47e	-0.020624395
240	0x3e52aef5	0.20574553
241	0x3d36d9e6	0.044641398
242	0xbe1961ad	-0.14978667
243	0x3ea09305	0.31362167
244	0x3e08f53a	0.13374797
245	0xbe86ad60	-0.2630415
246	0xbf098365	-0.5371612
247	0x3c3e3e3d	0.011611518
248	0x3d1f0a38	0.038828105
249	0xbe5d6118	-0.2161907
250	0xbeb26f63	-0.34850606
251	0x3b9dcaa2	0.0048154155
252	0x3e46f20f	0.19428276
253	0xbd181425	-0.037128586
254	0xba615a64	-0.0008596538
255	0x3e858347	0.2607672

2.bias f4 [32]
0	0xbe4b1437	-0.1983193
1	0xbdedb19d	-0.11606143
2	0xbd306acf	-0.04307061
3	0xbcbf22ce	-0.023332026
4	0xbd934a5a	-0.07191916
5	0xbdd19d07	-0.10235029
6	0xbe01b3ef	-0.12666295
7	0xbdbcf35f	-0.09226107
8	0xbda79094	-0.08181873
9	0xbe13fd16	-0.14452013
10	0xbe946bb5	-0.28988424
11	0x3dfb0cd3	0.122583054
12	0x3e80b874	0.25140727
13	0xbdb3da83	-0.08781912
14	0xbd821fd3	-0.06353726
15	0xbd12d1cc	-0.03584461
16	0xbdb2b01e	-0.08724998
17	0x3d8b6387	0.06806093
18	0x3e06d6a3	0.13167815
19	0xbcf9ca3a	-0.030491937
20	0xbdb17b57	-0.08666103
21	0xbe29e533	-0.16591339
22	0xbe1234c6	-0.14277944
23	0xbd8e7ccb	-0.06957396
24	0x39d1578b	0.0003992881
25	0xbe222810	-0.15835595
26	0xbd716165	-0.058930773
27	0xbde062c8	-0.10956341
28	0xbd3570f0	-0.04429716
29	0xbdc18dea	-0.09450896
30	0xbdd34430	-0.1031574
31	0xbde5e394	-0.11225048

5.weight f4 [100, 1568]
0	0xbc39ce83	-0.01134074
1	0x3738d07e	1.1015798e-05
2	0x3ab87aa7	0.0014074639
3	0x3a8130e1	0.0009856486
4	0x3ab69de0	0.0013932548
5	0xba07a3cc	-0.0005174249
6	0xb819b2d7	-3.66446e-05
7	0xba068946	-0.00051321497
8	0xbbb6abc9	-0.0055746776
9	0x3d5997d6	0.053123318
10	0xbcd66df4	-0.026175477
11	0xbc62a377	-0.013832918
12	0xbd60018f	-0.054688986
13	0x3aa1d68d	0.0012347266
14	0x38ca3b4b	9.643155e-05
15	0xbd024112	-0.031800337
16	0x3d193819	0.037407015
17	0x3da1f71b	0.0790846
18	0xbe0231ee	-0.12714359
19	0x3aa54ca3	0.001261134
20	0xbb35dfef	-0.0027751883
21	0xb89dfa1c	-7.53293e-05
22	0xbe8d76e8	-0.2762978
23	0xbdd1e2eb	-0.10248359
24	0x3f0d40ff	0.551773
25	0xbe3f0b96	-0.18656763
26	0xbc0c4b62	-0.008562895
27	0xba9e9b8d	-0.0012100801
28	0x3a1134e0	0.000553919
29	0x3d22587a	0.03963516
30	0xbdfffba9	-0.12499172
31	0x3e9996c0	0.29997826
32	0xbe16ae27	-0.14714871
33	0xbdae6bbf	-0.08516645
34	0xb98e7666	-0.00027172564
35	0x3b4df19a	0.0031424523
36	0xbce34fdf	-0.027748046
37	0xbd05a8bb	-0.032631617
38	0x3ca1c90f	0.019749193
39	0xbc9b8037	-0.018982036
40	0xbc0e5cf1	-0.008689151
41	0x38c0dcf5	9.19643e-05
42	0xbd216ba2	-0.039409287
43	0xb86340a3	-5.4181215e-05
44	0xb9844fbb	-0.00025236406
45	0x39a22d5a	0.00030932837
46	0x39f654c4	0.00046983932
47	0x3a0b9d40	0.0005325861
48	0x3d2f7d97	0.04284438
49	0xbb343f1d	-0.0027503439
50	0x3ceaa7b7	0.028644426
51	0xbb8b3d78	-0.004249271
52	0x3bb791b2	0.005602085
53	0x3bde14fb	0.0067774034
54	0x3cb97903	0.02264071
55	0x3cae5c98	0.021284387
56	0xbda469c2	-0.08027984
57	0xbbac977c	-0.005267082
58	0x3b1b4f6f	0.002369847
59	0x3c24d912	0.010061519
60	0x3c578c1c	0.013155963
61	0xbaf89236	-0.0018964473
62	0xbd4733bb	-0.04863332
63	0xbd85a419	-0.0652544
64	0xbc2a8cf7	-0.010409585
65	0x3adda503	0.0016910139
66	0xbd3c51b7	-0.045976367
67	0x3d566b84	0.05234863
68	0xbc292f2b	-0.010326187
69	0xbb335b86	-0.0027367785
70	0xbbf381d2	-0.0074312473
71	0xbcd93473	-0.026514268
72	0x3cd635e1	0.026148738
73	0x3c39d9b6	0.01134341
74	0x3d1c5fa2	0.03817714
75	0x3aab866d	0.0013086327
76	0x3cb20735	0.021731952
77	0xbdb06dd4	-0.08614698
78	0x3b1e9098	0.0024195071
79	0x3ac0d0e6	0.0014710694
80	0xbc7a57cc	-0.0152797215
81	0x3cad43ea	0.021150548
82	0x3cab093a	0.020878423
83	0xbcc97e58	-0.024596378
84	0xbd550117	-0.052002992
85	0xbcd2c4a7	-0.025728537
86	0x3ae56270	0.001750065
87	0xbc824619	-0.015902566
88	0xbbf252c9	-0.0073951227
89	0x3b85e152	0.004085698
90	0x3c85d3f1	0.016336413
91	0xbceb1d96	-0.028700631
92	0xbd0cdbe7	-0.034389403
93	0x3cb07696	0.021540921
94	0x3b92ad17	0.0044762003
95	0xbc37e0c6	-0.011223024
96	0x39a0f0b5	0.0003069692
97	0x3c04b789	0.008100399
98	0x3d418ac6	0.047251485
99	0xbcd2f91e	-0.025753554
100	0x3cb82e15	0.022482911
101	0xbd087165	-0.033311266
102	0x3d26c231	0.04071254
103	0xbb51be5d	-0.0032004334
104	0x3cc63c92	0.024198804
105	0xbce49d8f	-0.027907161
106	0xbd745b8e	-0.059657626
107	0xbc8a6bf4	-0.01689718
108	0xbcfab23e	-0.03060257
109	0x3beb0301	0.007171989
110	0x3bf7d154	0.0075627957
111	0x3d78cae4	0.060740367
112	0xbd9bb006	-0.07601933
113	0xbd83079a	-0.06397934
114	0x3c411cfa	0.011786694
115	0x3cc8d5a2	0.02451593
116	0xbd9a283d	-0.07527206
117	0x3d1ffaa2	0.03905738
118	0x3d144543	0.036198866
119	0x3d0aea60	0.033914924
120	0xbd4bca99	-0.04975376
121	0xbd8bd90a	-0.06828506
122	0x3de39447	0.11112266
123	0x3c4d3064	0.012523744
124	0xbc9f69b8	-0.01945959
125	0xbd500343	-0.05078436
126	0xbdbe342b	-0.09287294
127	0x3c5e791a	0.013578678
128	0xbcc2fd6e	-0.023802485
129	0xbdf6e9ed	-0.120563366
130	0x3dd4bd24	0.10387638
131	0xbd091528	-0.03346744
132	0xbc7bfe1b	-0.015380408
133	0xbd5216ac	-0.051291153
134	0xbe2f11df	-0.17096661
135	0xbe2e31be	-0.17011163
136	0xbc390bf2	-0.011294352
137	0xbdddb8d4	-0.10826269
138	0xbd31e8bc	-0.043434843
139	0xbba7f484	-0.005125584
140	0xb7040abc	-7.870312e-06
141	0x3cb8325b	0.022484949
142	0x3c2813a8	0.010258593
143	0xbc7e09b0	-0.015505239
144	0xbd251e50	-0.04031211
145	0xbc08be4b	-0.008346151
146	0x3d2f68e8	0.042824656
147	0xbcd5cc2d	-0.026098335
148	0xbc66c50c	-0.014085066
149	0xbd19135e	-0.037371986
150	0xbc397917	-0.011320374
151	0x3d0900d4	0.033448055
152	0xbd955d1f	-0.07293152
153	0xbd1cf2b4	-0.038317397
154	0x3c27211d	0.010200766
155	0x3cb5aa45	0.022175917
156	0xbb9c3bf4	-0.004767889
157	0x3d25293a	0.04032252
158	0xbd5a615b	-0.0533155
159	0xbc897754	-0.016780533
160	0x3d40ec14	0.04710014
161	0x3b536640	0.003225699
162	0x3cf71edc	0.030166082
163	0x3cccdc95	0.025007525
164	0xbbd7559b	-0.0065714843
165	0xbd0e0885	-0.034676094
166	0xbcdd3594	-0.027003087
167	0x3d8ecdfd	0.06972883
168	0x3d1cfdbc	0.038327917
169	0x3dbd0f7a	0.092314675
170	0x3d1a7202	0.037706383
171	0xbcde8723	-0.027164048
172	0xbce74937	-0.028233154
173	0xbd489e0a	-0.048978843
174	0x3c4ec2e5	0.012619709
175	0xbd627d2c	-0.055295154
176	0xbca1aece	-0.019736674
177	0x3d11f95f	0.03563821
178	0x3ae2011b	0.0017242761
179	0x3c2bd1d3	0.010487038
180	0xbd3b499e	-0.045724504
181	0x3c0dff91	0.008666889
182	0x3d083a54	0.03325875
183	0xbd262286	-0.040560268
184	0x3bfc769a	0.007704568
185	0x3c852ddc	0.016257219
186	0x3c1a84a7	0.009431041
187	0x3c1eb686	0.009687072
188	0xbc8d2815	-0.017231027
189	0xbd8060c9	-0.0626846
190	0xbc7f2e3f	-0.015574991
191	0xbc948fb9	-0.018134939
192	0x3c994b58	0.018712685
193	0x3cf1c442	0.029512528
194	0x3c585d90	0.013205901
195	0xbc2b4cfd	-0.010455367
196	0x3d190b1d	0.037364114
197	0xbb65bb3e	-0.0035054232
198	0x3b7ae37a	0.003828256
199	0x3c6411f4	0.013920296
200	0x3d5665ab	0.052343052
201	0x3ca1611b	0.019699624
202	0x3d5b39d6	0.053521954
203	0xbd2c9f25	-0.04214396
204	0x3c154e42	0.009112896
205	0x3d281c63	0.041042697
206	0xbe021e25	-0.12706812
207	0xbbb6624c	-0.005565917
208	0x3ab39a7e	0.0013702658
209	0x3ba43333	0.0050109862
210	0x3be96535	0.0071226605
211	0xba185cdf	-0.0005812179
212	0x3d1ee85c	0.038795814
213	0xbc72de3a	-0.014823491
214	0xbbab1eca	-0.005222176
215	0xbe5c2d5f	-0.21501683
216	0x3bdbb50d	0.0067049325
217	0x3d06e35f	0.03293168
218	0xbcea4e5b	-0.028601816
219	0x3c25fe65	0.010131453
220	0xbca597b5	-0.020213941
221	0x3c3e98f7	0.011633149
222	0xbc51e675	-0.012811293
223	0xbd5b70c8	-0.053574353
224	0x3ce19786	0.027538072
225	0x3bcde4c2	0.0062833736
226	0x398c3010	0.0002673869
227	0x3a22dd83	0.00062128174
228	0xbbb6462c	-0.0055625644
229	0xbd8a5179	-0.06753821
230	0x3c861e25	0.016371796
231	0xbc691875	-0.014227022
232	0xbbbb38ff	-0.0057135816
233	0xbc06770a	-0.008207092
234	0x3c554269	0.013016322
235	0x3bba382f	0.005682967
236	0x3c153b8b	0.009108434
237	0x3c6ae012	0.014335649
238	0xbce7420e	-0.02822974
239	0xbc5f1a73	-0.013617146
240	0x3b3f613a	0.0029202239
241	0x3c220616	0.009889146
242	0x3b95a8d2	0.004567244
243	0xbcba0e78	-0.022711977
244	0x3ce7ea20	0.028309882
245	0x3bcdef8d	0.00628466
246	0xbd3e920e	-0.046526007
247	0x3b69656b	0.0035613428
248	0xbc6d7ed0	-0.0144955665
249	0x3a8ffa77	0.0010984679
250	0x3c93f720	0.018062174
251	0x3c8828de	0.01662105
252	0x3ca82a35	0.020527938
253	0xbb24ed3b	-0.0025165814
254	0x3c8dfba1	0.0173319
255	0x3b309e8d	0.0026949972

5.bias f4 [100]
0	0x3e87918e	0.26478237
1	0x3d4e894f	0.050423916
2	0xbd7e5e60	-0.06210172
3	0xbdcfce37	-0.10146754
4	0xbdc91cac	-0.09819922
5	0x3e568bb7	0.20951734
6	0x3e6a6b09	0.22892393
7	0x3dc9a4c3	0.09845879
8	0xbd6142f0	-0.054995477
9	0x3dcc4901	0.09974862
10	0xbc3ff637	-0.011716417
11	0x3e71e221	0.23621418
12	0x3e22d4f2	0.15901545
13	0x3e491aeb	0.19639175
14	0xbadb140a	-0.0016714346
15	0x3e293d6e	0.1652734
16	0x3d194d17	0.037427034
17	0x3db286a8	0.0871709
18	0xbc31a2fd	-0.010842082
19	0x3df89d54	0.12139383
20	0xbd106927	-0.03525653
21	0x3daa95bf	0.08329343
22	0x3d8dc69a	0.06922646
23	0x3da9fd5c	0.083002776
24	0xbe6cbf94	-0.23119956
25	0x3abc6089	0.0014372031
26	0xbdc93ae4	-0.098256856
27	0xbdc174c3	-0.09446099
28	0x3dc9b2d5	0.09848563
29	0xbce90d63	-0.028448766
30	0xbd9da118	-0.07696742
31	0xbd0a29a3	-0.033731114
32	0x3d435b7e	0.047694676
33	0x3e3c76af	0.18404649
34	0xbd01c438	-0.03168127
35	0xbcd1ad75	-0.025595406
36	0xbd29d14a	-0.04145936
37	0xbd45a7e1	-0.048255805
38	0xbd1e04df	-0.038578864
39	0xbe3e6f65	-0.18597181
40	0xbd1dfb33	-0.03856964
41	0x3dfeadc0	0.12435484
42	0xbcce5a69	-0.025189595
43	0x3c516706	0.01278091
44	0xbdac1b85	-0.084036864
45	0x3dc3713a	0.09543081
46	0xbd0616e2	-0.032736667
47	0x3e033009	0.12811293
48	0xbc6d5a79	-0.014486902
49	0x3d6d8780	0.05799055
50	0xbcc3afa5	-0.023887465
51	0xbc71d5c3	-0.014760437
52	0xbd5bf2c0	-0.0536983
53	0x3e0fed65	0.14055403
54	0x3e1dfca2	0.15428403
55	0x3e2b3ea8	0.1672312
56	0x3d8f5c2c	0.07000002
57	0xbd4ad8f7	-0.04952332
58	0xb9e61da6	-0.00043891108
59	0x3dd86c91	0.105675824
60	0xbd05bb6e	-0.03264945
61	0xbdd4743c	-0.103737324
62	0xbd1ef221	-0.03880513
63	0x3ddb5229	0.1070903
64	0x3d04effe	0.032455437
65	0x3e201f2e	0.15636894
66	0xbd1d855a	-0.038457252
67	0x3d9936cd	0.074811555
68	0x3c53f52f	0.012936874
69	0x3e569379	0.20954694
70	0x3daace30	0.083401084
71	0x3de1e661	0.110302694
72	0x3e29d850	0.16586423
73	0xbd852ffd	-0.06503294
74	0xbbd62174	-0.0065347496
75	0xbc6dab94	-0.014506239
76	0xbca79f2d	-0.020461643
77	0x3d5f6953	0.054543804
78	0xbdbeb1e9	-0.093112774
79	0xbd24b5e7	-0.040212538
80	0x3db3c6d8	0.08778161
81	0xbcf8da2e	-0.030377474
82	0xbe10edbb	-0.14153187
83	0x3d733691	0.05937821
84	0xbd9c698f	-0.07637321
85	0xbd7e9d4b	-0.062161725
86	0xbb09dcbb	-0.0021036107
87	0x3c589d9f	0.013221174
88	0xbd0e7509	-0.034779582
89	0x3e316ca9	0.17326607
90	0x3b3a969c	0.0028471118
91	0x3cbb7dd7	0.022887154
92	0x3e4a4ec2	0.19756606
93	0x3deace24	0.114650995
94	0x3e7ba3f7	0.24574266
95	0xbd0259f9	-0.031824086
96	0xbd1e45af	-0.038640674
97	0x3e12668d	0.14296933
98	0x3e827867	0.25482485
99	0xbbcf4898	-0.0063257925

7.weight f4 [10, 100]
0	0x3ccc7acd	0.0249609
1	0xbc7568e7	-0.014978624
2	0xbe6044f1	-0.21901299
3	0x3f14b567	0.580893
4	0xbe482647	-0.19545852
5	0xbd261f96	-0.040557466
6	0xbdd088bf	-0.10182332
7	0xbd9d3c39	-0.07677502
8	0xbdc5b8b4	-0.0965437
9	0x3e2afcc2	0.16697982
10	0xbcadd9f5	-0.021222094
11	0xbe2cb864	-0.16867214
12	0xbe45d87e	-0.19320866
13	0xbe549537	-0.20760046
14	0x3dd4730a	0.103735045
15	0x3d083c5c	0.03326069
16	0xbd743a42	-0.05962587
17	0xbd8701b3	-0.06592121
18	0xbd883f33	-0.06652679
19	0xbe883b48	-0.26607728
20	0x3d2767a4	0.040870324
21	0x3dfaa86a	0.12239154
22	0xbde62a14	-0.112384945
23	0xbda8409e	-0.0821545
24	0x3dab6236	0.083683416
25	0x3cc80597	0.024416728
26	0xbd882402	-0.06647493
27	0xbe074a17	-0.13211857
28	0xbe699103	-0.22809224
29	0xbd784949	-0.060616765
30	0x3dab8172	0.08374299
31	0x3d5cdb4f	0.053920086
32	0x3bd07b5c	0.006362362
33	0x3cb9a756	0.0226628
34	0x3caee2b4	0.021348335
35	0xbc84297d	-0.016133064
36	0xbd842eeb	-0.064542614
37	0x3f25e70a	0.6480566
38	0x3d9f6ff8	0.07785028
39	0xbe8c8a7d	-0.27449408
40	0x3e957e57	0.29197952
41	0xbc47342e	-0.012158437
42	0x3c10ba32	0.008833455
43	0xbda089f0	-0.078388095
44	0xbe47a00f	-0.19494651
45	0xbd6afb8a	-0.057368793
46	0xbcf79b57	-0.030225439
47	0xbc482e73	-0.012218106
48	0xbd8ec5a4	-0.06971291
49	0x3bab8ba5	0.005235153
50	0xbd78b9d2	-0.060724087
51	0xbcf8aecf	-0.030356793
52	0xbe19f2f5	-0.15034087
53	0xbe139a91	-0.14414431
54	0xbd1f8c25	-0.03895201
55	0xbe1ef2a8	-0.15522254
56	0x3c833ee6	0.016021203
57	0xbd9562e7	-0.07294255
58	0xbc5755a5	-0.013142978
59	0x3da65a88	0.08122736
60	0xbd251afc	-0.040308937
61	0xbd919c94	-0.07109943
62	0xbc9b3978	-0.018948302
63	0x3e22fd86	0.15917024
64	0x3bb4bec9	0.0055159074
65	0xbbc2c495	-0.0059438446
66	0x3e58dcf0	0.21178031
67	0xbe2ac37d	-0.16676135
68	0xbdad013a	-0.084474996
69	0xbe419472	-0.18904284
70	0xbcaf53e5	-0.021402309
71	0xbd8a9386	-0.06766419
72	0xbe2ec45b	-0.17067091
73	0xbcf408d2	-0.029789362
74	0x3e956293	0.2917677
75	0xbd8bbc35	-0.06823007
76	0x3cc054b0	0.023477882
77	0x3e2a1abd	0.16611762
78	0x3e4a7807	0.1977235
79	0x3d9aaad5	0.07552115
80	0xbd84f23a	-0.064915136
81	0xbc9366d9	-0.017993378
82	0x3ea0d84d	0.31415024
83	0xbca1d599	-0.019755172
84	0x3f03dd78	0.5150981
85	0x3e598fa2	0.21246198
86	0x3da1b361	0.07895542
87	0x3de75791	0.11295999
88	0xbbdc3a27	-0.0067207995
89	0xbd5351c3	-0.051591646
90	0x3d804b94	0.062644154
91	0x3cc10caf	0.023565618
92	0xbd24ee56	-0.040266357
93	0xbdd556d3	-0.10416951
94	0xbdd55e17	-0.10418337
95	0xbe00cb29	-0.125775
96	0x3d832907	0.0640431
97	0xbdb7168a	-0.08939846
98	0xbe1f4451	-0.15553404
99	0x3d86dad1	0.06584705
100	0x3e35ea12	0.17765072
101	0xbc836895	-0.01604108
102	0xbe60f819	-0.21969642
103	0xbdd44afe	-0.10365866
104	0x3f4c758b	0.79866856
105	0xbd3b6a04	-0.0457554
106	0x3dc0b364	0.09409216
107	0x3e146c1e	0.14494368
108	0x3d81c692	0.063367024
109	0xbdfca44f	-0.12336027
110	0x3c6a0e43	0.014285627
111	0xbe21f0fb	-0.15814583
112	0xbe4689a4	-0.19388443
113	0x3e0bc4eb	0.13649337
114	0xbd2fb639	-0.04289839
115	0x3d085901	0.033288006
116	0xbd6e9e7e	-0.05825662
117	0xbd837039	-0.06417889
118	0xbd8dd076	-0.069245264
119	0xbd46c399	-0.04852638
120	0xbb772faa	-0.003771762
121	0xbd879771	-0.06620682
122	0xbe11f155	-0.14252217
123	0xbe41a9d5	-0.18912442
124	0xbe3d1b07	-0.18467341
125	0x3cc7ccf7	0.024389727
126	0xbd8966c0	-0.06709051
127	0x3f72be61	0.94821745
128	0x3e17be30	0.14818645
129	0x3d647579	0.055776093
130	0x3ca35b17	0.019940896
131	0xbd27d91c	-0.040978536
132	0xbd4db526	-0.050221585
133	0x3e1c7748	0.15279877
134	0x3d34b074	0.04411359
135	0x3d8b3ef4	0.06799117
136	0xbd84d6df	-0.06486296
137	0xbeadf1d5	-0.33973566
138	0xbd88f87d	-0.066880204
139	0x3f365923	0.7122976
140	0xbdb2259f	-0.08698582
141	0xbe546ed6	-0.20745406
142	0x3c1cb6fa	0.009565109
143	0x3d7c88df	0.061653968
144	0xbe47cf73	-0.1951273
145	0xbd69e59a	-0.05710373
146	0xbcaeab9c	-0.021322064
147	0x3c26d3b9	0.010182315
148	0xbd39e74a	-0.04538659
149	0x3bc1e0a3	0.0059166714
150	0x3caf107c	0.021370165
151	0x3d78e541	0.06076551
152	0xbe1a343f	-0.15058993
153	0x3e5d26a5	0.21596773
154	0xbd214924	-0.039376393
155	0x3cf5364b	0.029933115
156	0xbcfddcbb	-0.030989042
157	0xbce72bc2	-0.028219108
158	0xbc4de6b7	-0.012567214
159	0x3ccb4d0e	0.024817016
160	0x3d1a49af	0.037667926
161	0xbd912fd2	-0.07089199
162	0xbd218054	-0.039429024
163	0xbe5c736d	-0.21528406
164	0xbe74996b	-0.2388665
165	0xbbb3ee25	-0.0054910355
166	0xbe115e71	-0.14196183
167	0x3d9e84a1	0.07740141
168	0xbb9d5691	-0.0048015793
169	0xbe408c4c	-0.18803519
170	0xbd6aa25a	-0.057283737
171	0xbd8781a2	-0.06616522
172	0xbe372706	-0.1788598
173	0xbcf35a0e	-0.029706027
174	0x3ddb921c	0.107212275
175	0xbd8a9e03	-0.067684196
176	0x3c55f045	0.013057773
177	0xbe1e6d6c	-0.15471429
178	0xbdb20dfa	-0.08694072
179	0xbdbcb137	-0.092134885
180	0xbdbe179f	-0.09281849
181	0x3d242a34	0.04007931
182	0xbdaf759b	-0.08567353
183	0xbda3553f	-0.07975244
184	0xbcf90684	-0.030398615
185	0xbdd1462b	-0.102184616
186	0xbd399be5	-0.04531469
187	0xbdbf0b35	-0.093283094
188	0xbdaf451f	-0.08558106
189	0x3e0f0d7e	0.1396999
190	0xbc9b0a5a	-0.018925834
191	0x3cc0c6e7	0.023532344
192	0x3ef88e93	0.48546275
193	0xbdd571db	-0.10422107
194	0xbd61bf13	-0.055113863
195	0xbdff0833	-0.12452736
196	0xbe730c97	-0.23735271
197	0xbdd1c355	-0.10242335
198	0x3dbd1353	0.092322014
199	0x3d2c637c	0.042087063
200	0x3cc62160	0.024185836
201	0xbc53fbcb	-0.01293845
202	0xbe608131	-0.21924283
203	0xbdd3f1dd	-0.10348866
204	0xbe481ee0	-0.19543028
205	0x3d691113	0.05690105
206	0xbd844559	-0.064585395
207	0xbaacdbb0	-0.001318803
208	0x3e4aff07	0.19823848
209	0xbdfaa13f	-0.122377865
210	0xbcdb88f2	-0.026798699
211	0x3db3e071	0.08783043
212	0xbe464ee3	-0.1936603
213	0xbe52b226	-0.2057577
214	0xbd53ff75	-0.051757295
215	0x3d087517	0.03331479
216	0xbd738414	-0.05945213
217	0xbd8856f6	-0.066572115
218	0x3cba442f	0.02273759
219	0x3e4cd1bc	0.20001882
220	0xbcaf478f	-0.021396426
221	0xbcc4b801	-0.024013521
222	0xbda88936	-0.08229296
223	0x3e9b35af	0.30314395
224	0x3da95615	0.08268372
225	0x3cc8a4e6	0.024492692
226	0x3e63920a	0.22223678
227	0xbe06fe82	-0.13183025
228	0x3e318a58	0.1733793
229	0xbd6dc175	-0.058045823
230	0xbde4b0a3	-0.11166503
231	0xbd64d425	-0.05586638
232	0xbd522ab3	-0.051310252
233	0xbde09b3c	-0.109671086
234	0x3d214a77	0.039377656
235	0xbd8004ea	-0.06250937
236	0xbd855998	-0.06511229
237	0xbeade884	-0.33966458
238	0x3d203bf5	0.03911968
239	0xbe8c7248	-0.2743094
240	0xbdb2e3aa	-0.0873483
241	0x3c3c6d95	0.011500736
242	0x3c1a70fb	0.009426351
243	0x3d883e95	0.066525616
244	0xbe47e69e	-0.19521567
245	0x3eb41808	0.35174584
246	0x3c5059a8	0.012716688
247	0x3c68ec77	0.014216534
248	0x3d076b4e	0.033061318
249	0x3b968e6a	0.004594614
250	0xbd7ee207	-0.062227275
251	0x3da8fb90	0.08251107
252	0xbe19f989	-0.15036596
253	0xbe015faf	-0.12634157
254	0xbd2171e6	-0.039415263
255	0xbe261114	-0.16217452

7.bias f4 [10]
0	0xbe4e2f9b	-0.20135348
1	0xbe317b6e	-0.17332241
2	0xbd6d9fb3	-0.05801363
3	0xbe37daf1	-0.17954613
4	0x3defbbc2	0.11705734
5	0x3e5f7286	0.21821031
6	0xbdf59d68	-0.119929135
7	0xbda225b8	-0.079173505
8	0x3e51c2c3	0.20484452
9	0x3d95aa5c	0.07307884
