models/non_seq_trained/l_inf/more_mnist_small_0_1_2.pth (torch, 668111 bytes, 8 tensors)

0.weight f4 [16, 1, 4, 4]
-0.038428713 -0.036981434 -0.030539038 -0.02319289 -0.0529855 -0.021480436 -0.0034572321 -0.0045353505
-0.051958647 -0.047156084 -0.08443707 -0.031077588 -0.038125977 -0.050287798 0.15677588 -0.065461844
-0.107148916 -0.012099634 0.090146534 0.051542237 -0.030465018 0.06416133 0.01930674 -0.0017728966
0.056537602 -0.079109035 -0.3043343 -0.061508734 -0.07888969 -0.06752347 -0.10910622 -0.0037956245
-0.03337373 0.021341339 -0.019701429 -0.001286128 -0.022091908 -0.05785919 -0.06812616 -0.048455663
0.023524974 -0.06846975 0.012500207 -0.036012486 0.009085546 0.11398747 -0.045221586 0.023163985
-0.0034248559 1.2121987 0.0039878236 0.0015710593 0.0043034623 -0.0038779224 0.0018686369 0.0020452281
0.0013645613 -0.0017875149 -0.00085127994 0.0012069686 0.0024308173 -0.0036590167 -0.00052632653 -0.0020427387
-0.0005798218 -0.0041638683 0.008807481 -0.0036105062 -0.0034915316 0.005023302 1.2955978 -0.0115964385
-0.004803568 -0.0025312693 -0.0062173298 -0.0034945942 0.0021386493 -0.0017152443 0.0060828575 0.0009543661
-0.011883578 0.0026926727 -0.007565682 4.136008e-06 -0.004478571 -0.022392983 -0.025318393 -0.024469495
-0.021991184 -0.013753849 -0.0067402273 0.0010687634 -0.00548954 -0.00930135 -0.0061984733 -0.0085272165
-0.028360292 -0.011668218 -0.008428902 -0.038689088 0.0076791416 -0.024005938 -0.010013951 -0.026243752
-0.008232066 -0.022388399 -0.029567005 -0.0055711335 -0.019164843 0.0032928584 -0.0028672952 -0.015573358
0.026680818 -0.35486484 -0.086298935 -0.075348526 -0.0140762525 -0.069096394 -0.009410446 0.097379886
-0.22777177 -0.011612103 -0.2527282 -0.2238937 -0.06950722 -0.06085896 -0.05793191 -0.122001916
-0.0049766023 -0.0012381822 0.0025940388 -0.004735099 -0.0008878328 0.006333295 0.00016446589 0.0021870697
0.0062923273 2.2716796 -0.0021715222 -0.0031898117 -0.0015635536 -0.0042547057 -0.0017631546 0.0032772615
-0.0052110064 0.002148959 0.0020490992 -0.00181368 -0.0018310222 -0.00033101154 -0.0010249998 0.001043145
-0.0020293882 0.00019374251 -0.002030873 0.0015677287 0.0042546084 -0.0034353724 0.004560584 -0.0035430135
-5.2182324e-05 -0.0008116671 0.0018536645 0.001202028 0.0022094287 0.00036309843 -0.0036738305 0.0018638414
0.00049326837 0.0009944317 -0.0005125539 -0.00022465114 0.0021652312 -0.0012552859 -0.00055191614 -0.00062790094
0.0007656988 0.0032067448 0.0049677505 -0.0074883723 1.569413 0.00497582 -0.0017148872 0.00045333034
0.0075993338 0.0013340684 -0.002213458 -0.0029474706 -0.002357635 -0.0016768129 -0.0005401831 0.0029280006
-0.00076241785 0.00081980816 0.0029566798 0.004673075 0.00095183117 -0.0054860185 -0.0031240943 -0.00954918
0.0013333323 -0.00064512255 0.004419218 0.4523532 -0.0049474793 -0.0038106667 0.0077273264 0.006413635
0.001979264 0.0024344511 -0.0023074558 -0.00129375 0.7489463 -0.0006701671 -0.009942513 0.0011438808
0.0009839683 -0.00039814823 0.001081022 0.0034385568 0.0011794486 0.0041910773 0.0013243632 -0.0009688759
-0.0025855112 0.00202831 -0.0025814646 -0.0033840463 -0.006647707 -0.0041612806 0.0026087686 0.0009826564
0.005357004 0.0041729 1.3599405 0.0003341508 -0.0038721443 0.0012497761 -0.0016563575 -0.002091593
-0.00028420088 0.00050485966 -0.00092510245 0.0017758603 0.0041061314 -0.002410533 -0.0013833389 -0.0020186591
0.0015318835 -0.0013143546 -0.0013801828 0.0005158304 0.0036966947 0.00017595083 -0.00031644406 -0.002298174
00000000: 6d67 1dbd d879 17bd 012d fabc 04ff bdbc
00000010: 5307 59bd bdf7 afbc bb92 62bb 479d 94bb
00000020: 97d2 54bd bd26 41bd 58ed acbd 6d96 febc
00000030: fc29 1cbd 94fa 4dbd db89 203e dc10 86bd
00000040: e470 dbbd 8b3d 46bc bf9e b83d f41d 533d
00000050: c691 f9bc 0467 833d 2b29 9e3c 8a60 e8ba
00000060: f993 673d eb03 a2bd b5d1 9bbe 95f0 7bbd
00000070: eb90 a1bd bf49 8abd 1573 dfbd 03c0 78bb
00000080: e4b2 08bd 08d4 ae3c e464 a1bc 4b93 a8ba
00000090: 17fa b4bc c2fd 6cbd ba85 8bbd 7279 46bd
000000a0: 72b7 c03c de39 8cbd abcd 4c3c d481 13bd
000000b0: 8bdb 143c 4372 e93d 453a 39bd 66c2 bd3c
000000c0: 8c73 60bb 5429 9b3f 4aac 823b 01ec cd3a
000000d0: 0f04 8d3b be24 7ebb 0ded f43a 3c09 063b
000000e0: 14db b23a 0c4b eaba 6e28 5fba 2533 9e3a
000000f0: 594e 1f3b 1dcc 6fbb 2df9 09ba 78df 05bb
00000100: 2fff 17ba 0f71 88bb 414d 103c 3e9e 6cbb
00000110: 2ed2 64bb 839a a43b 26d6 a53f fdfe 3dbc
00000120: 4067 9dbb a7e3 25bb beba cbbb 9005 65bb
00000130: 9528 0c3b 0cd2 e0ba b552 c73b 6d2e 7a3a
00000140: 57b3 42bc 8d77 303b 8ae9 f7bb 0ac8 8a36
00000150: fac0 92bb 7d71 b7bc 8568 cfbc 4074 c8bc
00000160: db26 b4bc d357 61bc 20dd dcbb c015 8c3a
00000170: 99e1 b3bb b164 18bc 901c cbbb bdb5 0bbc
00000180: d853 e8bc 0e2c 3fbc 6119 0abc 7378 1ebd
00000190: 4fa1 fb3b 1aa8 c4bc 8e11 24bc 23fd d6bc
000001a0: cadf 06bc e067 b7bc 8136 f2bc 0e8e b6bb
000001b0: 97ff 9cbc ffcc 573b 3be9 3bbb 6627 7fbc
000001c0: bb91 da3c d8b0 b5be 7fbd b0bd 5450 9abd
000001d0: 15a0 66bc 6982 8dbd 452e 1abc 1b6f c73d
000001e0: 013d 69be b140 3ebc 9765 81be 6444 65be
000001f0: cd59 8ebd 3f47 79bd 034a 6dbd 24dc f9bd
00000200: c412 a3bb 804a a2ba c000 2a3b e428 9bbb
00000210: 73bd 68ba 8787 cf3b 7a74 2c39 f154 0f3b
00000220: de2f ce3b 3363 1140 1950 0ebb 290c 51bb
00000230: 27f0 ccba 0f6b 8bbb a719 e7ba 53c7 563b
00000240: 17c1 aabb 8dd5 0c3b 2e4a 063b 01b9 edba
00000250: e9fe efba 9e8b adb9 4959 86ba 23ba 883a
00000260: 7cff 04bb 5c27 4b39 6518 05bb 3f7c cd3a
00000270: 3e6a 8b3b fc23 61bb f470 953b e731 68bb
00000280: 58de 5ab8 0fc6 54ba a9f6 f23a 5e8d 9d3a
00000290: 10cc 103b 3f5e be39 a6c4 70bb 244c f43a
000002a0: ae4e 013a 9757 823a e95c 06ba 5590 6bb9
000002b0: 8de6 0d3b 6888 a4ba 77ae 10ba b899 24ba
000002c0: 2db9 483a 4028 523b 83c8 a23b 0561 f5bb
000002d0: 86e2 c83f 340c a33b 11c6 e0ba f8ac ed39
000002e0: d503 f93b e8db ae3a aa0f 11bb 5a2a 41bb
000002f0: 8d82 1abb 81c8 dbba 139b 0dba b3e3 3f3b
00000300: ffdc 47ba 65e8 563a dbc4 413b 9820 993b
00000310: 4f84 793a 0fc4 b3bb 9bbd 4cbb 2a74 1cbc
00000320: 35c3 ae3a 711d 29ba 16cf 903b d79a e73e
00000330: 771e a2bb 61bc 79bb 8335 fd3b 7829 d23b
00000340: 8ab6 013b 508b 1f3b af38 17bb 0c93 a9ba
00000350: f2ba 3f3f 27ae 2fba ece5 22bc 45ee 953a
00000360: 7ff8 803a 8dbe d0b9 14b1 8d3a 6959 613b
00000370: ba97 9a3a 4e55 893b 4196 ad3a 29fc 7dba
00000380: ae71 29bb 65ed 043b ca2d 29bb e0c6 5dbb
00000390: 02d5 d9bb 5a5b 88bb e0f7 2a3b 7acc 803a
000003a0: ce89 af3b d3bc 883b 8812 ae3f f630 af39
000003b0: cdc3 7dbb 87cf a33a 231a d9ba 1c13 09bb
000003c0: cc00 95b9 8f58 043a 9382 72ba fcc3 e83a
000003d0: ba8c 863b 08fa 1dbb 2751 b5ba 7b4b 04bb
000003e0: 7bc9 c83a 6c46 acba 40e7 b4ba cb38 073a
000003f0: 3f44 723b 717f 3839 67e8 a5b9 f69c 16bb

0.bias f4 [16]
-0.24105734 -0.47809094 -0.2975792 -0.1860231 -0.18776998 -0.036091216 -0.05194536 -0.35726067
-0.33304235 0.01769711 0.51386607 -0.23484269 -0.076895334 -0.121390045 -0.20684706 0.088049814
00000000: bcd7 76be 56c8 f4be 4d5c 98be d77c 3ebe
00000010: c646 40be 62d4 13bd a8c4 54bd dfea b6be
00000020: 8784 aabe 88f9 903c ba8c 033f 9a7a 70be
00000030: 4d7b 9dbd 589b f8bd b7cf 53be 7653 b43d

2.weight f4 [32, 16, 4, 4]
0.04782358 -0.057031505 0.11806976 0.040725164 0.17230059 0.06908752 -0.013165152 -0.062419485
-0.43074328 0.09852995 -0.10259391 0.050249554 -0.07582704 -0.03431775 -0.101790115 0.012658124
0.016091537 0.075070836 0.08246643 -0.06710206 -0.081871875 0.02856227 0.13710149 -0.04783185
-0.015307041 -0.053791147 0.039120987 -0.0017772672 -0.17128882 0.014043917 -0.02686821 0.010687869
-0.058700804 0.020963728 0.091148496 0.041395728 0.05628106 0.20934114 0.23278916 0.09531171
-0.28096482 0.014026295 0.2520124 -0.041683692 -0.16624343 -0.051243644 -0.08348079 0.029317254
0.038449463 0.02403542 0.054685816 -0.02925713 0.008486078 0.024310214 -0.020129006 -0.0033487503
-0.017897755 -0.000742251 0.055339742 0.036324013 -0.25845978 -0.16139872 -0.0019738788 0.073793225
-0.0014636354 -0.09236134 0.06177108 0.023369052 0.06633585 0.08279746 0.012070005 -0.006630843
0.09310747 0.057700288 -0.042913377 0.03469402 -0.8087126 -0.0099396845 0.012682618 0.0042401785
0.03668315 -0.04729327 -0.06684651 0.022212561 0.030691061 0.10902913 -0.018003179 -0.034916263
0.014216074 -0.17091231 0.03460289 -0.051809777 -0.011541174 0.03877418 0.008077384 -0.021421148
-0.069271795 0.03359628 0.04270056 -0.038512744 4.7103407e-05 -0.0092789205 0.0060047354 0.044829227
-0.012572249 -0.00890036 0.007567532 0.08206153 0.007963787 0.010236155 -0.020372296 0.07796582
0.074717075 0.060606025 0.10681531 -0.016187795 0.08102748 -0.0044993307 0.1290234 0.028903391
-0.113912776 0.00067594706 0.0029450606 0.10030216 -0.15423073 -0.033296194 -0.005794599 0.11547383
0.011577478 0.1279361 0.037998196 0.12560177 0.13777974 0.19197589 0.3010757 0.029497381
-0.31962222 -0.012977035 0.04268201 0.07392703 -0.67325884 -0.017549424 0.016638376 0.03355216
-0.013335938 -0.0075406637 0.019809447 -0.013485677 0.011121953 -0.0150853535 0.004017932 -0.028328672
-0.009616002 0.04012361 -0.003928241 0.02638366 0.013133811 0.002767843 -0.007032908 -0.034828413
0.096937425 0.039491236 -0.01557411 0.030772999 0.07483236 -0.097388335 -0.015632194 0.029200686
-0.05195069 -0.08265309 -0.096799456 0.04382187 0.034080066 0.027005425 -0.04489276 0.059010506
0.018271198 0.01677814 0.09501677 -0.010004954 -0.020335238 0.22610196 0.23527926 0.19007081
0.0031414346 0.037180193 0.07654412 0.04297319 -0.90101963 -0.7421082 -0.000749629 -0.009351722
0.0855753 -0.073584706 -0.00883156 -0.061149936 0.08261177 -0.0016877084 0.008347718 -0.018829346
0.023337875 -0.04403417 -0.0035829598 -0.016348178 0.05453381 0.02699631 -0.07190276 0.0483804
0.015350079 -0.035016336 0.0101729585 0.060993195 0.016452985 0.06030202 0.02836712 -0.005000864
0.0077782595 -0.20388733 0.030912308 -0.004191212 -0.57595897 -0.7658673 0.06749043 -0.023168463
0.04780328 0.021055242 -0.016111447 0.0031886185 0.13141863 0.27189922 0.16073774 0.04128354
-0.05846267 -0.0029658023 0.036549687 0.022910163 -0.4388546 0.031272758 0.010336388 0.01192593
0.010758033 0.02348351 0.030055251 0.041723587 0.049686007 -0.0022839948 -0.0075432803 0.001199922
0.030288184 -0.05965335 -0.039148517 0.025130467 -0.023329847 0.0130722495 -0.06540221 0.017042868
00000000: a9e2 433d de99 69bd 8fce f13d 6ecf 263d
00000010: 916f 303e c27d 8d3d a6b2 57bc 93ab 7fbd
00000020: 628a dcbe 12ca c93d c21c d2bd 7ad2 4d3d
00000030: 354b 9bbd c590 0cbd 5677 d0bd 0564 4f3c
00000040: 66d2 833c bdbe 993d 29e4 a83d ce6c 89bd
00000050: 71ac a7bd 6cfb e93c 5564 0c3e 54eb 43bd
00000060: 62ca 7abc 1b54 5cbd 543d 203d 31f3 e8ba
00000070: 5666 2fbe 7518 663c b81a dcbc 2c1c 2f3c
00000080: 4170 70bd 20bc ab3c 10ac ba3d 918e 293d
00000090: f886 663d 865d 563e 4860 6e3e c932 c33d
000000a0: 9fda 8fbe 8cce 653c c507 813e 85bc 2abd
000000b0: b83b 2abe dbe4 51bd faf7 aabd bd2a f03c
000000c0: 2f7d 1d3d eee5 c43c 3cfe 5f3d a6ac efbc
000000d0: 3109 0b3c 3726 c73c 96e5 a4bc b576 5bbb
000000e0: 509e 92bc 9f93 42ba edab 623d 7dc8 143d
000000f0: d754 84be b545 25be 315c 01bb e720 973d
00000100: 74d7 bfba f127 bdbd ac03 7d3d 7470 bf3c
00000110: 17db 873d b791 a93d 45c1 453c 8b47 d9bb
00000120: 21af be3d 2357 6c3d f0c5 2fbd 511b 0e3d
00000130: ca07 4fbf 0fda 22bc c1ca 4f3c 32f1 8a3b
00000140: 1241 163d 96b6 41bd d3e6 88bd 1ef7 b53c
00000150: d26b fb3c aa4a df3d 677b 93bc 5b04 0fbd
00000160: 89ea 683c a303 2fbe c3bb 0d3d 7d36 54bd
00000170: 3117 3dbc add1 1e3d 0157 043c 677b afbc
00000180: 5fde 8dbd 419c 093d c8e6 2e3d 8abf 1dbd
00000190: e690 4538 9d06 18bc 5fc3 c43b da9e 373d
000001a0: d6fb 4dbc d1d2 11bc 0ff9 f73b e00f a83d
000001b0: 8b7a 023c 8cb5 273c cde3 a6bc 8bac 9f3d
000001c0: 4405 993d 063e 783d fcc1 da3d 449c 84bc
000001d0: bcf1 a53d 1f6f 93bb b61e 043e cec6 ec3c
000001e0: 1a4b e9bd 0a32 313a eb01 413b 386b cd3d
000001f0: a9ee 1dbe 9761 08bd 9fe0 bdbb 8b7d ec3d
00000200: 76af 3d3c ae01 033e ffa3 1b3d c09d 003e
00000210: 2216 0d3e 5495 443e 9826 9a3e 7ea4 f13c
00000220: 86a5 a3be a19d 54bc 55d3 2e3d 0e67 973d
00000230: b15a 2cbf cfc3 8fbc 344d 883c fd6d 093d
00000240: fa7e 5abc ac17 f7bb 6c47 a23c 07f3 5cbc
00000250: da38 363c 8f28 77bc dba8 833b 8811 e8bc
00000260: 708c 1dbc a858 243d 79b8 80bb 8c22 d83c
00000270: 322f 573c b364 353b 4f74 e6bb 3da8 0ebd
00000280: 2187 c63d 90c1 213d 8d2a 7fbc a817 fc3c
00000290: b541 993d 8973 c7bd 160f 80bc 4736 ef3c
000002a0: 3fca 54bd 0646 a9bd cb3e c6bd 907e 333d
000002b0: 8a97 0b3d 7b3a dd3c 79e1 37bd 00b5 713d
000002c0: 7bad 953c 4f72 893c 2798 c23d d2eb 23bc
000002d0: 1696 a6bc 4687 673e 0ced 703e eca1 423e
000002e0: 87e0 4d3b 424a 183d 2ac3 9c3d a804 303d
000002f0: 39a9 66bf cefa 3dbf c082 44ba f737 19bc
00000300: 1a42 af3d 94b3 96bd 3fb2 10bc 5b78 7abd
00000310: 5c30 a93d 1936 ddba dec4 083c 0040 9abc
00000320: 122f bf3c 2d5d 34bd 17d0 6abb 9dec 85bc
00000330: d85e 5f3d 5e27 dd3c c141 93bd 872a 463d
00000340: e67e 7b3c 4a6d 0fbd 7bac 263c 00d4 793d
00000350: 69c8 863c 40ff 763d 2a62 e83c 4ade a3bb
00000360: c5e0 fe3b d7c7 50be cf3b fd3c 6f56 89bb
00000370: 0c72 13bf e10f 44bf 6c38 8a3d cacb bdbc
00000380: 5fcd 433d 0b7c ac3c 27fc 83bc 24f8 503b
00000390: 9b92 063e 6036 8b3e 6f98 243e ee18 293d
000003a0: 8d76 6fbd e85d 42bb 20b5 153d 18ae bb3c
000003b0: 8db1 e0be dd17 003d f459 293c fa64 433c
000003c0: 7642 303c 7d60 c03c 6e36 f63c 5ae6 2a3d
000003d0: 8e83 4b3d 13af 15bb 9f2d f7bb b346 9d3a
000003e0: ed1e f83c 1257 74bd 325a 20bd 69de cd3c
000003f0: 3c1e bfbc fd2c 563c 98f1 85bd 7c9d 8b3c

2.bias f4 [32]
0.0042726533 -0.28178772 -0.19687465 -0.09049067 -0.09725678 -0.21045284 -0.052372333 -0.10252888
-0.03775604 -0.06768351 -0.107864395 0.26038277 0.7273669 -0.23450205 -0.01980513 -0.08872439
0.0075100893 -0.061191753 0.0180757 -0.05980295 -0.17917432 0.45516497 -0.2910376 -0.1325135
-0.03284941 -0.10473854 -0.054602887 -0.03371136 -0.08303428 0.002896403 -0.067202665 0.185827
00000000: 9d01 8c3b 7b46 90be 8299 49be 2c53 b9bd
00000010: 902e c7bd f380 57be 5f84 56bd a9fa d1bd
00000020: 14a6 1abd a79d 8abd 02e8 dcbd e450 853e
00000030: b834 3a3f 4e21 70be 5e3e a2bc 22b5 b5bd
00000040: 3217 f63b 34a4 7abd 7e13 943c f0f3 74bd
00000050: 7979 37be 620b e93e e102 95be 9eb1 07be
00000060: 1a8d 06bd 2981 d6bd 47a7 5fbd ec14 0abd
00000070: e00d aabd 94d1 3d3b 8da1 89bd 6f49 3e3e

5.weight f4 [100, 1568]
0.08430678 0.08435245 -0.017365824 -0.062926576 -0.018853823 -0.042497206 0.071077526 -0.107846774
0.026134413 -0.013291428 -0.17537802 -0.084490284 0.19027305 -0.030889519 -0.20895499 0.05637526
0.032563776 -0.01293281 0.0139438445 -0.067678384 0.094801135 -0.13789827 -0.22031611 0.15679829
-0.04214335 -0.14539242 -0.015205734 -0.17895594 -0.21725413 -0.3209381 -0.0043608733 -0.25286895
0.07746875 -0.20573236 0.0145281665 -0.19135854 -0.2878581 -0.06759856 -0.0023531872 -0.07267801
-0.02054679 -0.10202829 0.037579045 -0.0038623232 -0.014008159 -0.024654446 -0.12353058 0.027818292
0.14375512 -0.027090782 -0.01423508 0.08578624 -0.11108521 -0.04720526 0.112325184 -0.001967724
-0.11231074 -0.20766331 -0.008519707 -0.056941435 0.031630088 0.18298282 -0.028804567 -0.02266507
-0.026819307 -0.083773084 -0.034712125 0.03646448 0.028892564 0.10248793 -0.02990822 -0.004587906
0.08159694 -0.028804522 0.09854489 -0.106026486 0.044660136 -0.060832974 -0.30991083 0.111208305
-0.12531203 -0.059452012 -0.024323216 -0.12510648 0.0013633948 -0.36601406 0.059197623 0.029591855
-0.094929285 0.031409796 0.16979669 -0.08272768 -0.10562555 -0.05644336 0.032420978 0.10935283
-0.109732054 0.0927374 -0.038984742 0.06284773 -0.08113391 -0.05918747 0.0051055676 0.04485849
0.06263994 -0.06853762 -0.12228938 0.041054063 0.054487623 -0.055250026 0.06960795 0.04338147
0.00086291565 -0.08435553 0.014169 -0.027115524 -0.17446446 0.054099083 0.028960047 0.03435591
0.087035716 -0.032730058 0.33622772 -0.043745857 -0.3199612 -0.030731656 -0.08550529 -0.023015343
0.10440956 -0.07381638 0.05646903 -0.17342809 -0.07470678 -0.016173707 -0.04336066 -0.08729499
-0.011565908 0.007387199 0.11485321 0.14612597 0.05045447 0.07477958 0.14280573 0.05257722
0.018992338 0.015917705 -0.14349307 -0.0066399137 -0.017137034 -0.01342688 0.041058425 -0.008862359
0.004515278 -0.022665268 0.005030435 -0.0039613014 -0.0011975978 -0.0144658815 -0.010015856 0.005197834
0.02539285 0.0058979243 0.029089924 -0.020444686 0.04720848 0.031462967 0.05489442 -0.003911303
0.007534469 -0.0132940225 -0.021936262 -0.038642935 0.000116154064 -0.01064352 0.0717341 -0.033547178
0.016242117 0.037604 0.026798194 0.017587692 -0.021387512 0.06388133 -0.038119446 -0.023571847
0.044591486 0.014355605 0.011900565 0.05201645 0.020898044 0.007857673 0.039369587 0.049601287
0.10437525 -0.014801692 0.050196487 0.031620506 0.30372643 0.014383619 -0.031312358 -0.10480687
-0.029421356 -0.030415151 0.06895323 0.03498461 0.09504678 0.071139894 -0.3783076 0.13934761
-0.2918292 -0.09092825 -0.26203755 0.18428774 0.017316634 0.044514883 0.23136456 -0.33787036
0.0126588065 -0.20825684 -0.048850752 0.25681156 -0.09869128 -0.11556692 -0.49052948 -0.021413015
-0.24963576 -0.41010833 -0.19607116 -0.31526953 0.07952692 0.05603673 0.10145372 -0.43224826
-0.3174816 0.07651973 0.03203172 -0.454635 0.10398081 0.017993925 -0.23023634 0.048714533
0.022648318 0.05311063 0.0061091254 -0.1703814 0.0950927 -0.0042324504 -0.17545323 -0.0004403678
-0.0058101392 -0.08152929 -0.03771488 -0.27738988 -0.052804366 -0.15611058 0.06067583 -0.0799965
00000000: 08a9 ac3d fac0 ac3d c642 8ebc a6df 80bd
00000010: 5573 9abc 8d11 2ebd 1891 913d c5de dcbd
00000020: d617 d63c 4ac4 59bc 4c96 33be 3e09 adbd
00000030: f0d6 423e 040c fdbc 4cf8 55be bfe9 663d
00000040: 9861 053d 23e4 53bc b974 643c f79a 8abd
00000050: 1927 c23d 3435 0dbe 8c9a 61be bb8f 203e
00000060: 819e 2cbd c0e1 14be 7921 79bc 3a40 37be
00000070: de77 5ebe 0052 a4be a8e5 8ebb 0a78 81be
00000080: f0a7 9e3d 81ab 52be 8c07 6e3c 7ef3 43be
00000090: 2362 93be 1d71 8abd ee37 1abb 35d8 94bd
000000a0: be51 a8bc 35f4 d0bd 7cec 193d 081f 7dbb
000000b0: 7a82 65bc 1ff8 c9bc 9afd fcbd 30e3 e33c
000000c0: 8b34 133e 7ded ddbc 413a 69bc b2b0 af3d
000000d0: a580 e3bd 4d5a 41bd bf0a e63d eef4 00bb
000000e0: 2c03 e6bd b1a5 54be 3e96 0bbc 6c3b 69bd
000000f0: 8d8e 013d d95f 3b3e 8ef7 ebbc 19ac b9bc
00000100: 2ab4 dbbc 3991 abbd 4d2e 0ebd c75b 153d
00000110: 19b0 ec3c 31e5 d13d 1502 f5bc 2556 96bb
00000120: 4c1c a73d 76f7 ebbc e7d1 c93d 6a24 d9bd
00000130: 8ced 363d ff2b 79bd a2ac 9ebe 2ec1 e33d
00000140: cc51 00be f483 73bd 7b41 c7bc ea1b 00be
00000150: f0b3 b23a 3266 bbbe 3579 723d 9e6a f23c
00000160: 496a c2bd 8fa7 003d 2fdf 2d3e 216d a9bd
00000170: 3552 d8bd 2731 67bd dccb 043d 60f4 df3d
00000180: 33bb e0bd 1bed bd3d 77ae 1fbd 50b6 803d
00000190: 8929 a6bd 8f6e 72bd 9b4c a73b 89bd 373d
000001a0: 5e49 803d 745d 8cbd db72 fabd 4e28 283d
000001b0: 6a2e 5f3d da4d 62bd 9d8e 8e3d c5b0 313d
000001c0: 4a35 623a 98c2 acbd 1825 683c 6021 debc
000001d0: d0a6 32be 0097 5d3d 9f3d ed3c c8b8 0c3d
000001e0: c83f b23d f40f 06bd 0a26 ac3e db2e 33bd
000001f0: f4d1 a3be f4c0 fbbc 661d afbd ac8a bcbc
00000200: aed4 d53d 0b2d 97bd 124c 673d 2297 31be
00000210: deff 98bd b97e 84bc f39a 31bd b7c7 b2bd
00000220: ef7e 3dbc 5110 f23b 2938 eb3d 0ca2 153e
00000230: 59a9 4e3d 0926 993d aa3b 123e 365b 573d
00000240: d295 9b3c d965 823c d9ef 12be a293 d9bb
00000250: f762 8cbc 6bfc 5bbc e12c 283d 6e33 11bc
00000260: e6f4 933b 83ac b9bc 59d6 a43b cecd 81bb
00000270: b7f8 9cba 4e02 6dbc 8b19 24bc 9852 aa3b
00000280: ab04 d03c 6043 c13b fe4d ee3c 9d7b a7bc
00000290: ae5d 413d 50df 003d f9d8 603d 632a 80bb
000002a0: b5e3 f63b 2ccf 59bc adb3 b3bc 0e48 1ebd
000002b0: bd97 f338 2962 2ebc 54e9 923d c468 09bd
000002c0: 300e 853c a706 1a3d e387 db3c 1014 903c
000002d0: dd34 afbc 37d4 823d 2323 1cbd bf19 c1bc
000002e0: 90a5 363d c533 6b3c 96fa 423c 330f 553d
000002f0: 6032 ab3c 78bd 003c 0142 213d b82a 4b3d
00000300: b1c2 d53d cc82 72bc d59a 4d3d 8184 013d
00000310: 0882 9b3e 45a9 6b3c 6341 00bd fca4 d6bd
00000320: 0e05 f1bc 3229 f9bc 5a37 8d3d 064c 0f3d
00000330: e3a7 c23d cbb1 913d 89b1 c1be 24b1 0e3e
00000340: a36a 95be 9738 babd c929 86be edb5 3c3e
00000350: 9ddb 8d3c 3d55 363d d5ea 6c3e 58fd acbe
00000360: e266 4f3c 4841 55be ba17 48bd ce7c 833e
00000370: a71e cabd 59ae ecbd ae26 fbbe 596a afbc
00000380: 84a0 7fbe b8f9 d1be e1c6 48be 026b a1be
00000390: 03df a23d c586 653d f8c6 cf3d a54f ddbe
000003a0: f38c a2be 60b6 9c3d b133 033d ebc5 e8be
000003b0: e4f3 d43d ff67 933c 13c3 6bbe e488 473d
000003c0: f788 b93c 888a 593d 0f2f c83b 7678 2ebe
000003d0: f6bf c23d 5eb0 8abb 03aa 33be 2ae1 e6b9
000003e0: fb62 bebb d4f8 a6bd eb7a 1abd 0c06 8ebe
000003f0: 6449 58bd 74db 1fbe 3887 783d 34d5 a3bd

5.bias f4 [100]
0.2253887 0.06276865 -0.07990958 -0.09708446 -0.02996721 -0.43808967 0.214792 -0.16265796
-0.26844588 0.13979064 -0.022367453 -0.05439564 0.11572437 -0.046037417 -0.07763258 0.38848168
-0.15311198 0.32025272 -0.048334673 0.02058984 -0.0120412605 -0.12213825 -0.10199901 0.14731824
0.1366245 -0.010360466 -0.24432665 -0.025036851 -0.17212059 -0.031202087 -0.088315435 -0.03332187
0.018479133 -0.04821976 -0.01654221 -0.017825954 -0.0612465 0.080378056 -0.17789502 -0.085933074
-0.035377443 0.46177968 -0.1464116 0.004057355 0.011740149 -0.09683632 0.45026007 0.026862657
-0.031518556 0.16728508 -0.07451385 -0.25575194 -0.021384537 0.15526003 0.1968392 -0.027375158
-0.10222903 -0.11408034 -0.0713794 -0.06449109 -0.072078235 -0.1367778 -0.05717679 -0.03960911
0.24393907 -0.03190511 -0.07051756 -0.0032610549 0.0024905324 -0.046922866 -0.11119212 -0.10492326
-0.07842314 -0.2807921 -0.026233962 0.090472914 -0.04528932 0.4357922 -0.05958563 -0.036039554
-0.026272066 -0.124063365 -0.053123258 0.10000887 0.044268444 -0.008580498 -0.0062406664 -0.037479464
-0.27477655 -0.20979875 0.22063094 0.0088332025 -0.2732815 -0.15886115 0.36153778 0.14997298
-0.08654308 0.40086955 0.35611242 0.001889243
00000000: 4ccc 663e da8c 803d a2a7 a3bd 38d4 c6bd
00000010: cb7d f5bc 4a4d e0be 6ff2 5b3e cf8f 26be
00000020: bd71 89be 4725 0f3e f33b b7bc f6cd 5ebd
00000030: e600 ed3d bb91 3cbd d5fd 9ebd 12e7 c63e
00000040: 63c9 1cbe 2af8 a33e 94fa 45bd 06ac a83c
00000050: b548 45bc 9e23 fabd dbe4 d0bd 98da 163e
00000060: 4be7 0b3e f2be 29bc c430 7abe 151a cdbc
00000070: 6140 30be 859b ffbc b9de b4bd 837c 08bd
00000080: 8d61 973c 1582 45bd 8783 87bc bc07 92bc
00000090: 9cdd 7abd 409d a43d 1d2a 36be aefd afbd
000000a0: f0e7 10bd 636e ec3e ecec 15be 90f3 843b
000000b0: c159 403c 1f52 c6bd 7d88 e63e 130f dc3c
000000c0: 9a19 01bd c84c 2b3e b89a 98bd ebf1 82be
000000d0: a02e afbc 7cfc 1e3e 3790 493e de41 e0bc
000000e0: 745d d1bd f4a2 e9bd 5d2f 92bd e813 84bd
000000f0: c19d 93bd 7b0f 0cbe 3632 6abd 2a3d 22bd
00000100: 2acb 793e efae 02bd 836b 90bd 6cb7 55bb
00000110: 3338 233b 3132 40bd b2b8 e3bd 02e2 d6bd
00000120: 509c a0bd fbc3 8fbe 9be8 d6bc dd49 b93d
00000130: 4b81 39bd 2820 df3e 1010 74bd 369e 13bd
00000140: 8438 d7bc ef14 febd c697 59bd 73d1 cc3d
00000150: d452 353d 3895 0cbc 817e ccbb 1184 19bd
00000160: 83af 8cbe 7cd5 56be 14ed 613e 23b9 103c
00000170: 8eeb 8bbe 7fac 22be 7b1b b93e 8492 193e
00000180: 803d b1bd c63e cd3e 5e54 b63e 7aa0 f73a

7.weight f4 [10, 100]
0.15957917 -0.06337799 -0.20388794 0.04736119 -0.007830635 -0.06318193 -0.10865363 0.0013629626
-0.043429177 0.022588708 -0.031668752 -0.05247841 0.03724062 0.0027530727 0.020792775 0.016005596
-0.08551959 -0.08866281 0.03348116 -0.039360072 0.03277962 0.042668786 -0.0063486123 -0.09249393
0.10672595 -0.011748901 -0.047989268 0.0051809964 0.015915532 -0.057844423 0.06911483 0.0076699243
-0.070738636 0.06331211 0.021953128 0.012878708 0.03575471 0.1525306 0.28772944 0.07756485
0.06423283 0.07319038 -0.15539542 -0.073799305 -0.042550597 0.051764306 -0.08080598 -0.021549815
-0.04175212 -0.04964334 -0.017359462 0.2031879 -0.08961941 -0.04746272 0.04273471 0.0012474351
0.16557895 -0.03227751 0.013011955 0.010487248 -0.013701287 0.014114796 -0.025715955 0.08999133
-0.03984369 0.036948 0.16846828 -0.1715116 -0.07067438 0.004790892 -0.18871954 -0.07786727
-0.02847325 -0.083549775 0.20249464 -0.15738754 0.020963993 0.12783004 0.093439415 0.084147125
0.04101692 -0.028640455 0.06373042 -0.006185187 0.2483151 0.054971237 0.07839397 0.06907651
-0.23425077 -0.16224255 -0.10392109 -0.15021303 0.0023361892 -0.0067075435 -0.028377099 0.07695621
-0.032375176 -0.04457035 0.05864048 0.05159309 0.114601456 -0.06411905 -0.072564 -0.0021742946
0.10343653 0.25565785 -0.009793133 0.12767817 0.049775686 -0.044225182 -0.012860602 -0.020866709
-0.08257402 0.0071016788 0.0405549 -0.029133549 0.051415376 -0.058770318 -0.3368877 0.13755316
0.0054429667 0.02535001 -0.04033066 -0.013983843 0.04200436 -0.01393685 -0.05139293 0.060378954
0.29341263 0.012012914 0.04261336 -0.024624782 -0.06858275 0.027478196 0.023504438 0.06781732
0.02379269 -0.03723128 -0.045844004 0.039826863 -0.021273019 -0.08204898 -0.15437792 0.06385744
0.07229559 0.036290508 -0.07961485 -0.020385142 -0.017619092 0.05626809 0.04809812 -0.18458916
-0.006393849 -0.045159888 -0.042631265 -0.07246906 -0.04540884 -0.0017192258 -0.013318193 -0.0064705387
0.02130257 -0.0051764627 -0.029838435 -0.07587393 -0.07048604 -0.05085222 -0.10179562 0.044205412
0.001726637 -0.09710347 -0.18774903 -0.078084104 0.011830317 0.07629145 0.07381354 0.1607957
0.005627254 -0.081224985 -0.08222719 -0.065219045 0.0035625456 0.06670543 -0.024938649 -0.020709807
0.002524674 -0.07245628 -0.044421535 -0.04748891 -0.23481722 0.24435595 -0.10205502 -0.07357785
0.32761165 0.4897854 -0.027325239 -0.03413139 -0.028993834 -0.09849364 0.090950534 -0.04191394
-0.011602782 -0.06249078 -0.20443377 0.015270445 -0.010713316 -0.20029248 -0.014112615 -0.06500078
0.06778879 -0.048530024 -0.0029162713 0.012784532 -0.081374176 0.0035507593 -0.022842864 0.056770176
0.05972945 0.08856745 -0.33667564 0.0034149892 -0.040194694 0.0022925553 -0.09619738 0.105112985
0.07560358 -0.020938052 0.21759662 0.017716132 0.027527366 -0.04804663 -0.027229806 -0.01991404
0.1429367 -0.07211225 0.040467046 -0.03154064 -0.025038868 -0.061766066 0.104135804 0.011835376
-0.021341207 -0.084982134 0.3138952 0.058367472 -0.02210167 0.019726982 -0.06556442 -0.020496154
0.017974954 -0.050335295 -0.055326138 0.20903648 -0.0050239465 -0.0457806 -0.043946035 -0.106602
00000000: b968 233e 52cc 81bd 00c8 50be cffd 413d
00000010: 104c 00bc 8765 81bd cb85 debd 70a5 b23a
00000020: cbe2 31bd f40b b93c 18b7 01bd 9af3 56bd
00000030: 9f89 183d e56c 343b 9c55 aa3c 2b1e 833c
00000040: e524 afbd d994 b5bd 8a23 093d 0738 21bd
00000050: ec43 063d 77c5 2e3d 0508 d0bb 756d bdbd
00000060: 2393 da3d 767e 40bc 6590 44bd 59c5 a93b
00000070: 4a61 823c 46ee 6cbd 138c 8d3d fd53 fb3b
00000080: 6bdf 90bd c8a9 813d 0cd7 b33c 3701 533c
00000090: 8873 123d fb30 1c3e 4651 933e 52da 9e3d
000000a0: 818c 833d d7e4 953d fa1f 1fbe 1724 97bd
000000b0: 8949 2ebd cf06 543d 9b7d a5bd 3d89 b0bc
000000c0: 4504 2bbd d156 4bbd 6e35 8ebc 7d10 503e
000000d0: 628a b7bd 4568 42bd 970a 2f3d fa80 a33a
000000e0: 878d 293e 6c35 04bd 1830 553c b5d2 2b3c
000000f0: 5d7b 60bc bf41 673c 44aa d2bc 604d b83d
00000100: 2333 23bd c956 173d f382 2c3e bda0 2fbe
00000110: bbbd 90bd eafc 9c3b b23f 41be e078 9fbd
00000120: bc40 e9bc 251c abbd c15a 4f3e 332a 21be
00000130: aebc ab3c e1e5 023e 2a5d bf3d 5455 ac3d
00000140: 5c01 283d 639f eabc 1885 823d 1cad cabb
00000150: 5046 7e3e 8529 613d 058d a03d fc77 8d3d
00000160: 6fdf 6fbe e922 26be 95d4 d4bd 72d1 19be
00000170: c01a 193b f4ca dbbb 1777 e8bc 389b 9d3d
00000180: d59b 04bd 668f 36bd 0031 703d 4753 533d
00000190: 2bb4 ea3d d950 83bd 6f9c 94bd 9c7e 0ebb
000001a0: 88d6 d33d 96e5 823e 6073 20bc 11be 023e
000001b0: 97e1 4b3d 7725 35bd 46b5 52bc a9f0 aabc
000001c0: 911c a9bd 33b5 e83b e51c 263d 7ba9 eebc
000001d0: ee98 523d 25b9 70bd 8b7c acbe bcda 0c3e
000001e0: ea5a b23b d3aa cf3c c331 25bd 7d1c 65bc
000001f0: c40c 2c3d 6357 64bc 6581 52bd ec4f 773d
00000200: 2e3a 963e d0d1 443c 598b 2e3d e9b9 c9bc
00000210: 1d75 8cbd f419 e13c 618c c03c cfe3 8a3d
00000220: e3e8 c23c d47f 18bd ecc6 3bbd 7e21 233d
00000230: c144 aebc 4c09 a8bd 3f15 1ebe b1c7 823d
00000240: b60f 943d 5ba5 143d 1c0d a3bd befe a6bc
00000250: ea55 90bc 5e79 663d 8902 453d f104 3dbe
00000260: 7e83 d1bb 93f9 38bd 1f9e 2ebd a96a 94bd
00000270: 9ffe 39bd a557 e1ba 8d34 5abc d006 d4bb
00000280: ba82 ae3c 519f a9bb bc6f f4bc ca63 9bbd
00000290: fc5a 90bd 6b4a 50bd 397a d0bd bc10 353d
000002a0: 5350 e23a 2fde c6bd 4841 40be 8fea 9fbd
000002b0: f2d3 413c b13e 9c3d 8e2b 973d a1a7 243e
000002c0: d464 b83b 4959 a6bd bb66 a8bd 9091 85bd
000002d0: 9979 693b db9c 883d 234c ccbc 9da7 a9bc
000002e0: 0075 253b f563 94bd 5bf3 35bd bb83 42bd
000002f0: ed73 70be 7238 7a3e 3902 d1bd fcaf 96bd
00000300: b7bc a73e 27c5 fa3e 2ed9 dfbc 5bcd 0bbd
00000310: 7a84 edbc 09b7 c9bd 4644 ba3d f4ad 2bbd
00000320: 9819 3ebc 55f6 7fbd 1657 51be e330 7a3c
00000330: e786 2fbc 7919 4dbe 9938 67bc 211f 85bd
00000340: d9d4 8a3d 6bc7 46bd ea1e 3fbb 3776 513c
00000350: 81a7 a6bd dbb3 683b f520 bbbc d887 683d
00000360: dea6 743d da62 b53d c060 acbe 03ce 5f3b
00000370: 31a3 24bd b23e 163b 2203 c5bd 7a45 d73d
00000380: 0dd6 9a3d 4786 abbc a6d1 5e3e 6c21 913c
00000390: 1281 e13c 8bcc 44bd 0b11 dfbc c522 a3bc
000003a0: 005e 123e 96af 93bd c6c0 253d c230 01bd
000003b0: 501e cdbc 6afe 7cbd 2745 d53d 2ae9 413c
000003c0: c1d3 aebc 1d0b aebd dfb6 a03e bb12 6f3d
000003d0: 900e b5bc 7b9a a13c a346 86bd 8de7 a7bc
000003e0: 3640 933c 622c 4ebd a99d 62bd a90d 563e
000003f0: eb9f a4bb 7084 3bbd c200 34bd 2652 dabd

7.bias f4 [10]
-0.03532233 -0.32135376 -0.12233362 -0.13128538 0.0782209 0.045421015 -0.16931398 -0.27221522
0.59579587 0.004846626
00000000: 26ae 10bd 7b88 a4be 0d8a fabd ad6f 06be
00000010: 4732 a03d 630b 3a3d a560 2dbe cb5f 8bbe
00000020: 1486 183f 72d0 9e3b
