models/non_seq_trained/l_inf/more_mnist_small_exact_0_1_1.pth (torch, 668111 bytes, 8 tensors)

0.weight f4 [16, 1, 4, 4]
000000 e2 97 05 3a fa 1d d3 3c 63 3f 32 3f f6 7e a0 3d
       0.00050961797 0.02577113 0.6962797 0.07836716
000010 d5 66 49 39 be 6d 08 3b cf 74 f1 3c 70 63 a7 3a
       0.00019207162 0.0020817365 0.029474644 0.0012770724
000020 90 6d 73 b8 68 79 44 3a bd 89 cf 39 cd 85 b8 b9
       -5.8037753e-05 0.00074948976 0.0003958474 -0.00035194904
000030 78 2b 05 b9 7a 19 0d ba 5f e4 bd b9 db dc 02 39
       -0.00012700062 -0.00053825194 -0.0003621904 0.00012480041
000040 4b 67 2b bc 64 41 b8 bb 80 b3 13 bc e4 94 1a bc
       -0.010461639 -0.0056230295 -0.009014964 -0.009434912
000050 cd 14 c8 bb 8e 84 07 bc a5 fe c1 bb c8 d3 29 bc
       -0.0061059953 -0.00827135 -0.0059202486 -0.010365434
000060 52 15 15 bc 20 18 c3 bb 0c 7d 2a bc c8 9c 0b bc
       -0.009099321 -0.0059538037 -0.01040579 -0.008521266
000070 10 45 70 bc 45 a9 04 bd b5 32 28 bc a8 8d 35 bc
       -0.014664903 -0.03238799 -0.010265996 -0.011081137
000080 ca be 30 3a 58 80 da 3a 6e f1 17 38 2c 3a f9 3a
       0.0006742297 0.001667033 3.6226054e-05 0.0019014529
000090 4f bc 23 3a 35 92 66 3a 70 74 8d 3b 6a 27 04 3a
       0.0006246017 0.000879559 0.004316859 0.00050412735
0000a0 4b bf 30 39 31 99 2a be e6 16 ee 39 b2 d1 c7 3b
       0.0001685593 -0.1666 0.00045411958 0.0060979957
0000b0 aa 7b cd 39 7c 91 6e 39 b7 bf 65 3b f0 0d 10 3a
       0.00039192784 0.00022751646 0.0035056898 0.0005495241
0000c0 ee 66 4e 3a 84 a8 55 3a 62 2f d6 ba c3 82 55 bb
       0.0007873614 0.0008150416 -0.0016341025 -0.003257916
0000d0 5e 68 38 3a 08 e4 c8 38 af 5d 13 bf 6d 35 b7 b7
       0.0007034595 9.579217e-05 -0.57564825 -2.1840178e-05
0000e0 1f 79 4f 3a 59 39 5c 39 75 d8 63 39 7a d3 42 3b
       0.0007914472 0.00021002199 0.00021729044 0.00297281
0000f0 fd 84 43 3a f7 2d 9a 39 0d cd 2f 3b 84 66 cd 3a
       0.00074584765 0.00029407415 0.00268251 0.0015670811
000100 59 93 da 38 0a c9 f2 b9 5d 10 3d 3a 64 54 68 3a
       0.00010422496 -0.00046307623 0.0007212216 0.0008862673
000110 fd 9e 3a ba b2 ac 86 38 14 9d 1c 3a 52 31 16 39
       -0.0007119028 6.421785e-05 0.0005974334 0.00014323488
000120 3c da 20 39 8d f3 ed 38 dd a8 b5 b8 d3 71 c8 be
       0.00015340088 0.000113464055 -8.662206e-05 -0.3914934
000130 2e ac 19 ba 6c 53 b0 39 24 6c 05 ba cd 13 43 3a
       -0.00058621436 0.0003363149 -0.00050896616 0.000744161
000140 a5 df 3e ba ca 15 31 b9 0c 64 4a b9 79 3f 38 38
       -0.00072812504 -0.00016888152 -0.00019301492 4.3928132e-05
000150 df 26 92 b9 84 2d f1 b9 f1 bd 81 b9 63 7f a5 b8
       -0.0002787625 -0.00046001014 -0.00024746315 -7.891541e-05
000160 8b 90 df 3f ce b5 67 bb 7c d7 96 ba e5 81 93 ba
       1.7465986 -0.0035356167 -0.0011508311 -0.0011253922
000170 b7 e0 1e 38 b9 bd 25 bb cb cf db ba fc 06 81 ba
       3.7879418e-05 -0.0025290085 -0.0016770301 -0.0009844
000180 22 a8 9a 39 df df 01 b8 ea d3 e3 b9 33 b4 45 3a
       0.00029498438 -3.0964493e-05 -0.00043454702 0.00075418054
000190 e8 6b 02 3a e2 89 9d b9 aa 28 40 3a 9e 5c f9 37
       0.0004975186 -0.00030048104 0.0007330278 2.9726241e-05
0001a0 39 d8 5e 39 28 46 62 3a f2 c2 b0 3a d9 48 46 b7
       0.00021252119 0.000863167 0.0013485833 -1.1818681e-05
0001b0 5e 2e 00 3b c8 98 1d 3f e7 b8 16 b9 a4 fc 2c b6
       0.0019558887 0.6156125 -0.00014373996 -2.5777053e-06
0001c0 cf 10 83 3a 87 bf e1 3a 65 c1 4c 3a 18 a2 bd 3a
       0.0009999516 0.0017223217 0.00078108005 0.0014467863
0001d0 2c 4a 94 3a 68 10 30 3a 01 51 28 3a 5e dd 88 36
       0.0011313609 0.0006716312 0.0006420762 4.0788864e-06
0001e0 9b bd c5 39 ab 62 a5 be 9c 0b 68 39 1e 4f 9c 3a
       0.00037716035 -0.3230184 0.00022129569 0.0011925434
0001f0 84 73 55 3a d8 1a d1 39 43 61 f9 3a 9f bc c5 38
       0.00081425183 0.00039883587 0.0019026179 9.4288254e-05
000200 af fa df 39 66 82 20 38 23 89 d8 ba e7 04 91 ba
       0.00042720648 3.8268416e-05 -0.0016520362 -0.0011064083
000210 57 72 9a 3a e8 2f 0c ba 8c cd 16 bf 27 1f 14 ba
       0.0011783344 -0.0005347715 -0.5890739 -0.0005650394
000220 a4 20 d6 39 e4 e1 24 ba 1b 0c 11 ba 5b 76 a2 3a
       0.0004084158 -0.0006289764 -0.0005533115 0.0012394892
000230 ce 31 09 3a 2b da ef 36 c5 2d 88 3a 41 81 dd 39
       0.0005233557 7.148153e-06 0.0010389617 0.00042248706
000240 d4 bf 4f b8 8a 6a 3c b9 aa cc 6a ba a7 ba 0e ba
       -4.95313e-05 -0.00017968766 -0.0008956889 -0.00054446835
000250 2a d7 98 b9 18 5f bc b8 be 8e ab be 22 fd fe b9
       -0.0002915201 -8.982251e-05 -0.3350734 -0.00048635254
000260 59 40 4a b7 4c 11 87 b8 21 e0 2b ba 18 a2 92 ba
       -1.205512e-05 -6.4405234e-05 -0.000655653 -0.0011187224
000270 51 26 67 b9 75 84 8c b9 07 6d 6c b9 ef cd bf b9
       -0.0002204415 -0.0002680157 -0.0002254733 -0.0003658379
000280 87 ed 21 bb 2a 79 71 ba dc 28 8e b9 42 69 d2 b6
       -0.0024708228 -0.0009211475 -0.00027114793 -6.2707413e-06
000290 79 bc e3 ba 2a 87 94 b9 60 b5 fb 39 73 a0 6f b5
       -0.0017374895 -0.00028329465 0.00048009586 -8.926792e-07
0002a0 8f 02 8c 39 cd 6d 91 3f f6 91 e6 39 0d d3 d3 b9
       0.00026704787 1.1361634 0.00043977768 -0.000404023
0002b0 6f e5 ae 3a aa 4f d9 3a 12 ae 8a 38 c0 fc 7a b9
       0.0013343523 0.0016579528 6.612776e-05 -0.00023936015
0002c0 fb a4 89 39 ec d9 06 ba c6 f0 72 b7 a4 e5 8c 3a
       0.00026253596 -0.0005144167 -1.44803835e-05 0.0010749591
0002d0 8d 1f 34 b8 11 83 51 ba 77 80 59 3f 13 2a 8e 39
       -4.294473e-05 -0.00079922477 0.84961647 0.00027115698
0002e0 90 13 24 b9 c7 57 15 39 71 8f 07 3a d7 de 30 bb
       -0.00015647546 0.00014242447 0.0005171216 -0.0026988292
0002f0 76 39 0c 3a e4 3c 3f 3a 33 f0 f7 b9 63 76 d7 ba
       0.00053491385 0.0007295145 -0.00047290474 -0.001643848
000300 73 f9 33 3a 21 1c be 3b 72 8a f9 39 c5 80 82 ba
       0.0006865479 0.005801693 0.0004759613 -0.0009956589
000310 31 7c 8e 3b 34 48 8a 3f 7e 32 40 3d 4b 3b 69 ba
       0.004348301 1.0803285 0.046923153 -0.000889708
000320 a8 69 22 3b 27 87 d8 3c b7 e9 7e b9 3c 6e db ba
       0.0024782214 0.026431633 -0.00024310393 -0.0016741226
000330 de 15 16 b9 67 7b cb ba 98 15 f5 ba 69 dd 72 ba
       -0.00014313261 -0.0015524448 -0.0018698452 -0.000926456
000340 61 6e a8 b7 75 0a 76 39 3d 9d 42 ba b6 9d 7d ba
       -2.007856e-05 0.00023464284 -0.0007423943 -0.0009674685
000350 56 74 ce 38 dc d6 8f 39 14 e9 94 bd a8 69 53 ba
       9.844515e-05 0.00027435168 -0.072710186 -0.0008064755
000360 dc ff 34 b9 80 59 ee bd a1 05 38 ba 33 55 4d ba
       -0.00017261453 -0.116381645 -0.0007019882 -0.0007832825
000370 ba 96 24 ba 8d 32 a6 b8 d6 71 45 ba 7c f2 81 ba
       -0.00062785635 -7.924913e-05 -0.00075319165 -0.0009914185
000380 e7 b1 7d b9 e2 8f 0b 3b f3 b5 47 3a 51 33 49 3a
       -0.00024194234 0.0021295478 0.000761836 0.0007675188
000390 f5 65 a7 b9 98 8e e0 3f 38 b0 b3 bb a9 6e 7d ba
       -0.00031928686 1.7543516 -0.0054836534 -0.0009667674
0003a0 68 14 e4 b9 10 17 9e ba 74 09 e0 ba 6d a5 cf ba
       -0.00043502753 -0.0012061317 -0.0017092661 -0.0015842147
0003b0 c2 ee 29 b8 8d 81 0e b9 e5 b1 73 ba 2c 10 66 ba
       -4.05151e-05 -0.00013590437 -0.00092962227 -0.00087762135
0003c0 07 ac d5 ba 65 f8 c6 ba 47 5d 6f ba b8 b9 8d ba
       -0.0016301878 -0.0015180229 -0.0009131026 -0.0010812795
0003d0 63 d9 42 b9 7d e4 1d 3a f6 31 ce ba a7 56 13 ba
       -0.00018582265 0.0006023122 -0.0015731442 -0.0005620517
0003e0 50 91 32 3f 10 38 49 3b 00 ee 80 ba 37 ff 26 ba
       0.6975298 0.0030703582 -0.0009836555 -0.00063704274
0003f0 e4 48 3d ba bb 5c 00 ba b7 05 ad ba b8 88 8c b9
       -0.00072206394 -0.00048966304 -0.0013200556 -0.00026804744

0.bias f4 [16]
000000 85 19 12 bf 3b 1e 29 bc 2a ac f0 3d be 94 d8 3e
       -0.5707019 -0.010322149 0.11751588 0.4230098
000010 0c b8 41 3d d1 11 94 be 37 f7 bd bd ec f1 76 3e
       0.04729466 -0.28919843 -0.09275668 0.24115723
000020 34 98 96 3d 34 ec 7b 3e 26 6a 52 be 64 e8 0f be
       0.07353249 0.24601823 -0.20548305 -0.14053494
000030 d8 df 56 bf 93 fa cc 3d 5c a0 90 be a3 25 0b bf
       -0.8393531 0.10008731 -0.28247344 -0.54354304

2.weight f4 [32, 16, 4, 4]
000000 2d 03 ec 3b db f6 cb 3b 9a 30 5c 3b 85 55 ae 3a
       0.007202527 0.006224496 0.0033598305 0.0013300633
000010 1e a0 28 3c a9 1d bc be 62 61 8c be 9d b4 b2 ba
       0.010292081 -0.3674138 -0.27418047 -0.0013634149
000020 44 13 b8 bd 60 c0 f6 be ff ac a8 3b 34 ec d7 ba
       -0.089880496 -0.48193645 0.005147576 -0.0016473592
000030 cc 52 c0 bd 23 0a 1d be e6 6d 4c 3a 0a d5 c2 39
       -0.09390792 -0.15335898 0.00077983586 0.0003716129
000040 3c 30 03 3c 10 f5 d9 3a a3 02 0c bf e5 43 c4 ba
       0.008007105 0.001662882 -0.54691523 -0.0014973847
000050 9c c7 3d bb 82 6d 6b bf f1 fc 55 be 2c 5f 94 3b
       -0.0028958088 -0.9196397 -0.2089727 0.004527947
000060 82 60 0b bd f2 c6 0c be 01 93 29 bb 5c 56 b8 3c
       -0.034027584 -0.13747767 -0.0025874975 0.022502117
000070 2e fc 39 bc d9 fc e0 bb bd 88 82 3c 01 4e 82 3c
       -0.011351628 -0.0068660793 0.015934343 0.015906336
000080 67 8f 0a 3b bf b7 88 bd c3 9b bb be 32 94 5c bd
       0.0021142603 -0.06675672 -0.36642274 -0.053852268
000090 7b ee f6 bd 95 d3 2d bf c1 6a 5e bf d8 dd e1 3b
       -0.12057205 -0.67900974 -0.86881644 0.006892901
0000a0 88 d0 9c bd 8a 83 d7 be fd 2f 17 bd a3 af 0e 3c
       -0.07656962 -0.42092544 -0.036911 0.008708867
0000b0 8d 92 8b 3c 25 f6 ee bc 26 2d 8c 3c 55 24 0b ba
       0.017037654 -0.029170105 0.017111372 -0.0005307843
0000c0 31 e8 b2 3b 96 22 50 be 62 e9 b3 be 43 87 de 3c
       0.0054598083 -0.20325693 -0.35138994 0.027164107
0000d0 84 e6 db bd cf ac 89 bf 38 cd c5 be 50 ef 22 3c
       -0.10737327 -1.0755862 -0.38633132 0.009944752
0000e0 f6 3e 0d bf 8f b5 b4 bf 52 9d 1d be 12 0b 23 39
       -0.55174196 -1.4117907 -0.15392044 0.00015549015
0000f0 c8 46 a7 be 96 ae b5 bd d1 68 e0 3c dd 65 25 3d
       -0.3267119 -0.0887119 0.02739373 0.040380348
000100 9e 7d 09 3d b3 02 40 3f 0d 12 96 3d b6 0d 43 ba
       0.033567064 0.7500412 0.07327662 -0.0007440703
000110 22 61 7c 3f 3b 74 ba 3f 6a 7e 2b 3c b7 78 45 ba
       0.9858571 1.4566721 0.010467151 -0.00075329415
000120 ac be 4e 3f 12 ee d8 3d 0b b9 7f 3c a2 e6 3d ba
       0.8075969 0.10592283 0.0156080825 -0.0007244145
000130 28 fc 02 3e 46 3b e0 bb bb e4 49 bb f1 63 7d 38
       0.12791502 -0.0068430034 -0.00308065 6.041298e-05
000140 03 a6 00 39 d8 68 9d 3a bb ac 59 3e 67 92 3e 3e
       0.00012268875 0.0012009395 0.21257298 0.18610536
000150 4c 7d 8a 3c d5 a5 22 3e 7f f6 a6 3e 9b 80 7c 3d
       0.01690545 0.15883572 0.32609937 0.061646085
000160 6e 50 85 3b 01 87 1b 3e eb 45 38 3e fe 18 2e ba
       0.004068426 0.15188219 0.17995422 -0.00066412974
000170 84 73 84 3b 6f 86 8f 3c 61 ea 78 ba c6 42 f9 bb
       0.004042091 0.017520158 -0.00094953744 -0.007606837
000180 dc c8 90 3b 3d cc 8d 3d bf 49 9b 3d 95 66 47 3a
       0.0044184756 0.06923721 0.07582425 0.00076065335
000190 67 a1 6c 3d 0a 28 12 3d 74 d3 06 3e f6 d3 77 3d
       0.057771113 0.035682715 0.131666 0.060504876
0001a0 b3 3d 1b bb c9 ae 68 3d d2 a6 bc ba 1c 2d 8c ba
       -0.0023687899 0.056807313 -0.0014392978 -0.0010694596
0001b0 f3 39 a6 b8 f7 11 5a 3b c1 b7 a7 bb 57 81 b4 bb
       -7.926291e-05 0.0033274868 -0.0051183407 -0.0055085826
0001c0 58 26 d4 3b de 07 7b bb 68 52 37 bf 0f 42 6e bd
       0.0064742975 -0.003830425 -0.71610117 -0.058168467
0001d0 21 18 65 3c 48 9b 64 bf 06 f6 a7 bf 03 c5 ce bc
       0.013982804 -0.8929944 -1.3121955 -0.025240427
0001e0 de b1 36 bd 05 92 44 bf 15 37 f1 bd a7 35 3c 3c
       -0.04460322 -0.7678531 -0.11778084 0.011487401
0001f0 e2 07 c9 bb 60 d9 04 be e7 65 8d 3c ea 4e f8 3c
       -0.006134973 -0.12973547 0.017260505 0.030311067
000200 8b 0e de 3b 1d f4 8b 3e f4 b3 17 3f 16 a7 d6 3d
       0.006776636 0.2733468 0.5925896 0.10481088
000210 df fe 99 3b da 92 99 3f 41 30 eb 3e 91 0b 34 3c
       0.0046995725 1.199794 0.45935252 0.010989086
000220 29 1e 0c 3f 19 d8 d5 3f c3 61 53 3e 50 6a 18 3d
       0.5473352 1.6706573 0.20642762 0.037210763
000230 6e c3 cf 3e 8b 2c 23 3e 81 58 5a bb a4 0b 93 3c
       0.4057879 0.1593496 -0.0033316913 0.017949887
000240 ab 1a b0 bc 31 ed 02 be 66 a1 e6 be b3 df 6b be
       -0.021497091 -0.12785794 -0.45045012 -0.23034553
000250 97 6d 11 3e 5d 89 99 be e3 41 1d be 8a e3 29 bd
       0.14201961 -0.29987612 -0.15357165 -0.041476764
000260 7b 4f 91 bd 68 6d 0f bf a1 1c d6 bd 97 e3 43 bd
       -0.07095238 -0.56026316 -0.10454679 -0.04782447
000270 45 24 23 be 65 28 08 be c5 5d 13 bd 29 cf b4 bd
       -0.15931804 -0.1329666 -0.035978097 -0.08828575
000280 25 ae ba 3a 22 6c e4 3b 17 9c 08 3d ad f8 b2 3c
       0.0014242573 0.0069708982 0.033351984 0.021847093
000290 ea 1c e2 3b 4a 7f c5 3c 6d 4a 2d 3d e2 07 cf ba
       0.0069004195 0.024108548 0.042307306 -0.0015795196
0002a0 94 38 04 3c d5 ee b4 3c 28 e3 8f 3c 71 16 e3 39
       0.00807013 0.02208654 0.017564371 0.00043313534
0002b0 ea b0 41 3b b8 bc 97 3b 31 52 9e bb 44 0f 16 bc
       0.0029554912 0.0046306513 -0.0048315753 -0.009158913
0002c0 6b 89 c3 3a cf 1b 43 3b 4a 10 3d 3c 59 e9 b0 3b
       0.0014918273 0.0029771214 0.011539528 0.005398911
0002d0 6f 4d d7 3a 55 63 93 3c f0 4b ed 3c 82 19 eb ba
       0.0016426275 0.017991701 0.028966874 -0.0017936679
0002e0 1e 8b 84 3c 7a ca 22 3d 4e 59 2e 3c 01 15 8b 3b
       0.016179617 0.039743878 0.010641409 0.004244447
0002f0 55 43 27 3c 09 ff 88 3c 2a fc 2b bb 8d 38 c6 bb
       0.010208924 0.016723173 -0.002624283 -0.006049222
000300 c7 30 c6 ba 25 29 c1 bb 51 38 82 be 93 18 67 be
       -0.0015120738 -0.0058947974 -0.2543359 -0.22567968
000310 5e 4e 89 3a 21 2a 11 be c3 27 cc be 3a f8 c5 bb
       0.0010475626 -0.14176227 -0.39874086 -0.006041554
000320 fb 8b 3a be e3 c7 b9 be 0d 43 59 be d0 a0 db bd
       -0.18217461 -0.36285314 -0.21216984 -0.10724032
000330 3f f0 b9 bd 3a bb 4f be c0 42 9d bb 7c 6c a1 3b
       -0.090790264 -0.20286265 -0.004799217 0.0049262624
000340 ba c2 d8 bc d7 fa c3 bc af 33 89 3b 4d 95 9d bc
       -0.02646004 -0.02392332 0.0041870694 -0.019236231
000350 4e 07 f3 3d 91 f3 a0 3d 35 61 9f bc 1f 6e 9c 3b
       0.11866628 0.078589566 -0.019455532 0.0047738696
000360 4f 51 5c 3e 2a 34 aa 3c 38 6b 3b 3c 54 59 d4 bd
       0.21515392 0.020776827 0.011439137 -0.103686005
000370 59 7d a3 bc 83 9a 02 bd 08 51 56 bd 5f 42 9a bd
       -0.019957231 -0.031885635 -0.05232337 -0.075321905
000380 f8 d1 a9 3b 5e eb a5 3b 06 9c 23 3e 91 12 0f 3e
       0.005182501 0.0050634583 0.15977487 0.13971926
000390 25 98 d3 3a 15 60 8a 3d b7 e4 62 3e 97 cb d2 3a
       0.0016143365 0.067566074 0.2215756 0.0016082403
0003a0 fa 60 c4 3d 67 55 5b 3e b3 43 a9 3d ce 9a 2f 3d
       0.09588809 0.21419297 0.08264866 0.042872243
0003b0 02 3b 6d 3d f4 39 d4 3d 08 ff b9 b9 83 d0 b6 bb
       0.057917602 0.10362616 -0.00035475963 -0.0055790558
0003c0 1c 3b 19 3b 8f a5 13 bc 8b db 25 be a9 c3 43 be
       0.002338118 -0.00901164 -0.1619703 -0.19117607
0003d0 75 23 19 bd d4 a1 98 be 48 c4 a9 be e1 5c 24 be
       -0.03738733 -0.29810965 -0.33157563 -0.16051055
0003e0 a3 bc ef ba d4 20 90 be dc c5 99 be 51 96 cb bb
       -0.0018290471 -0.28150046 -0.30033767 -0.0062129875
0003f0 b9 f4 29 bb fd 61 42 bd 3c f6 eb ba 3c 46 0b 3b
       -0.002593322 -0.04745673 -0.0018002461 0.002125158

2.bias f4 [32]
000000 d0 1f 8d be ec fd 20 3e 8b 04 0c 3e 63 7e 3f bd
       -0.27563334 0.15721864 0.13673608 -0.04675139
000010 5e b0 a8 bd a6 24 70 3e 07 90 3a 3e 8e cd 83 3e
       -0.08236764 0.2345148 0.18219005 0.25742763
000020 11 14 50 3e cb cf 85 3d d6 2a 42 3e c0 72 8c be
       0.20320155 0.06533774 0.18961653 -0.27431297
000030 4c 1c 94 bd 40 81 75 3e bd 40 9a 3e aa 5a 40 bb
       -0.0723196 0.23975086 0.30127516 -0.0029350915
000040 0e 61 de 3d a9 f5 69 3e 67 bb 89 bd 8f f3 15 3e
       0.108583555 0.22847618 -0.06725197 0.14643691
000050 ba 33 bb 3c ff dd e1 3d 66 35 e2 3d 9b 16 6a 3e
       0.022851814 0.110286705 0.11045341 0.22860186
000060 c6 09 4a 3e ea 3a c3 bd 44 c0 58 3e 6e c3 ea 3d
       0.19730291 -0.09532721 0.21167094 0.114630565
000070 17 e6 1f 3e 0f f1 66 3e 0f 4a 8c bd 1b 93 ae 3d
       0.15615116 0.22552894 -0.06850063 0.08524152

5.weight f4 [100, 1568]
000000 03 f7 b6 bc 82 41 6c bc 30 66 db bc a9 5f 60 3c
       -0.022334581 -0.014419915 -0.026782125 0.013694682
000010 6b f4 0b bc 3c 5c 2d bb 52 49 94 bb 04 d6 1c bb
       -0.0085421605 -0.002645268 -0.004525342 -0.0023931274
000020 9d d4 8b bc f9 82 99 3c 8c ca ec bc a6 86 18 bc
       -0.017069155 0.01873921 -0.028905176 -0.009309446
000030 91 a7 a9 bc c3 fd bd bc d2 d6 f7 3b c6 b4 42 3c
       -0.020709785 -0.023192292 0.0075634504 0.01188392
000040 02 cf c2 3b 52 4a cc 3a 68 9a 31 3c f5 db f6 3b
       0.0059450874 0.0015586114 0.010840036 0.007533545
000050 39 bf 5a bc b5 b6 88 bc f0 df 39 b9 3d b0 17 3c
       -0.013351255 -0.016688684 -0.00017726398 0.009258327
000060 b8 d4 31 3c 3d 53 c1 bb 68 9e 9d 3c 56 b2 c5 bc
       0.010853939 -0.0058998154 0.019240573 -0.024132889
000070 8e 94 92 3b eb fb 7f 3c 7b 19 91 bb 66 83 17 3c
       0.0044732755 0.015624027 -0.0044280863 0.009247636
000080 69 27 82 3c e5 67 d1 bc 26 99 2a 3c 69 d9 ba 3b
       0.015887933 -0.025562236 0.01041249 0.005702187
000090 5f 16 ee 3b 1e 90 da 3b 54 1d 15 3c 11 3a 96 3a
       0.0072658504 0.006670012 0.009101231 0.0011461397
0000a0 28 3d 03 3c 61 d2 ec bc 85 1d ff bc a9 f4 f2 3b
       0.008010186 -0.02890891 -0.031142006 0.0074144197
0000b0 75 d1 9c 3c 55 db 5d bc e2 b7 5b 3c 7e 6e 0f bc
       0.019142846 -0.013541062 0.01341054 -0.008754371
0000c0 56 65 da 3b c7 05 04 bc 9f a8 cd 3b 13 05 8b bc
       0.006664912 -0.008058018 0.0062762047 -0.016970193
0000d0 84 45 db bc b7 2f f5 3b 29 03 88 bc c4 51 52 3c
       -0.026766546 0.0074824947 -0.01660307 0.012836877
0000e0 34 e9 29 bb 2d 15 a6 bc ea e0 95 3c 10 85 32 3c
       -0.0025926353 -0.02027377 0.018295724 0.010895982
0000f0 99 6d 9c bc cf 4a ab 3b 82 b5 98 3a b5 40 b0 bc
       -0.019095229 0.0052274237 0.0011650773 -0.02151523
000100 f6 c2 6f bc a3 6e e6 bc a7 1c fe bb 3f 92 e4 bc
       -0.014633885 -0.028128928 -0.0077548805 -0.027901767
000110 08 7b 7f 3c 79 4e d9 3b f0 5f 65 3c 97 7d 62 bc
       0.015593298 0.006631669 0.013999924 -0.013823888
000120 15 45 89 bc 8a 06 e2 3b c2 46 88 3b f6 bd 00 3c
       -0.016756574 0.006897752 0.0041588256 0.00785779
000130 c5 2a 21 bc cd d1 9c 3c dd 1a bb bc c6 b1 e9 bc
       -0.009836857 0.01914301 -0.022839958 -0.028527152
000140 f1 74 44 3a 0a b5 86 3c 88 22 0a bb 58 86 58 bc
       0.0007494232 0.016443748 -0.002107771 -0.013215624
000150 32 a4 e1 bc 09 6e 33 3c 80 a6 fc bc 60 6d 86 bc
       -0.027544115 0.010951527 -0.030841112 -0.016409576
000160 6c 43 48 bc e8 2b a6 bc 3b 02 b8 bc e2 7d 99 bc
       -0.012223106 -0.020284608 -0.022462001 -0.018736783
000170 37 c2 c6 3b ed 61 89 bc ee a3 40 bc 27 7c f4 bc
       0.0060656327 -0.016770327 -0.011757834 -0.029844357
000180 13 7f fc 3b ec 8c 84 3c 81 75 ce 3a fe 1a c1 bb
       0.007705578 0.016180478 0.0015751572 -0.0058931103
000190 92 ad 0c bc 1c e4 6e 3b c7 2b 48 3c 1b 3b b4 b7
       -0.008586304 0.0036451882 0.012217469 -2.1485195e-05
0001a0 27 4b 1d 3c 6e f1 63 bc b3 5f 4a bc 4c 33 06 bd
       0.009600437 -0.013912542 -0.012351918 -0.032763764
0001b0 a9 1c 8f 3b 5c 18 b2 bc 64 c3 3b bc f4 97 fb bc
       0.00436743 -0.021740131 -0.011460159 -0.030712105
0001c0 9e 67 7b bb a4 0a ff 3a 73 d7 df ba 01 67 3d bc
       -0.0038361321 0.0019458127 -0.0017077759 -0.011560203
0001d0 a1 d5 9c bb 7f 9d 58 3c 78 4b ba bb 07 cb 47 3c
       -0.0047862087 0.013221144 -0.005685266 0.012194402
0001e0 16 7d 99 3c 26 b6 7d 3c be 76 94 bc b4 e8 25 3c
       0.018736403 0.015485322 -0.018123027 0.0101262815
0001f0 c6 f8 c9 3b a1 05 0b bc 84 a5 69 3c 1d 46 86 bc
       0.0061636893 -0.008485229 0.014260653 -0.016390854
000200 2c 72 65 bc 22 da ae 3b 2f d3 ad bc 55 1c 7e bc
       -0.0140042715 0.005336062 -0.021218864 -0.015509685
000210 54 47 98 bb 73 39 80 bb 14 9c 06 bc 26 71 c1 bb
       -0.004647175 -0.0039130985 -0.008215923 -0.005903381
000220 42 66 db 3a f3 af 96 3c d3 f8 6c bc 26 3f 01 3c
       0.0016738849 0.018394446 -0.014463621 0.007888591
000230 c9 84 f5 39 ac e3 0e 3c da 43 5c 3c 0c 62 1b bc
       0.00046828974 0.008721273 0.013443911 -0.009483825
000240 02 56 38 bc 15 c6 82 bc f1 96 5e bc 75 da 2f bc
       -0.011250975 -0.015963593 -0.013585792 -0.010733237
000250 d3 56 cc bb 84 d3 71 3c 1f 62 f8 3b e1 34 43 bc
       -0.006235936 0.014759902 0.0075800563 -0.011914463
000260 ee 04 6a 3c 93 6b 14 3b 8b 6e a0 bb b3 c3 1f 3c
       0.014283402 0.0022647127 -0.0048959902 0.009751248
000270 fa c4 67 bc 6e 1f 2f bb bc cc 9d 3c 78 08 86 3c
       -0.014146084 -0.0026721614 0.019262664 0.01636146
000280 6a 3c 69 3c 09 3d 68 bb b5 f8 26 3b a4 4a 86 3c
       0.014235595 -0.003543677 0.002547783 0.016393013
000290 03 15 90 3b 26 d9 63 3c 37 a5 51 3c e1 77 35 3c
       0.004397036 0.013906753 0.012795738 0.011075945
0002a0 8d a5 42 3c 07 99 8a bc bf d3 b5 bc d5 fe cc bc
       0.011880291 -0.016918672 -0.022195695 -0.025023857
0002b0 ac 1f a2 3c b7 26 66 bc 56 a9 a2 bc 04 98 53 3b
       0.019790493 -0.014047316 -0.019856136 0.0032286653
0002c0 7a 5c 9f bb 51 5d 03 3c f6 1b d8 bb 35 4a a0 3c
       -0.004863319 0.008017854 -0.00659513 0.019566635
0002d0 91 25 c4 bc 8d df cb bc 26 30 b2 3c bf 8b 33 bc
       -0.023943694 -0.02488687 0.021751475 -0.010958611
0002e0 bf ca ca 3b c2 c8 16 3c eb e0 81 3b de ac 82 bc
       0.00618872 0.009203138 0.00396358 -0.01595157
0002f0 5d 78 33 3b a1 72 87 bc 44 83 ae 3c b6 82 7f 3b
       0.0027384975 -0.016534152 0.021302827 0.0038987822
000300 a6 6e 95 3c ea ec 42 3c e2 1f 30 3c 20 24 12 3c
       0.018241238 0.011897305 0.010749789 0.008919746
000310 a3 10 69 3c 7a d1 87 bc 55 57 97 3c 5c 30 20 bc
       0.014225158 -0.016579378 0.01847426 -0.009777155
000320 f0 65 64 3c 52 8c 1c bb ea bc 3f 3c 42 6d 90 3c
       0.013940319 -0.0023887348 0.0117027555 0.017630223
000330 6a c0 86 bb f8 07 3f bc 76 34 e7 ba 7f 44 fc bc
       -0.004112293 -0.011659615 -0.0017639536 -0.03079438
000340 a6 01 a1 bb a0 79 a8 bb a2 fc a4 bc d3 ad 9c ba
       -0.0049135266 -0.005141452 -0.020139996 -0.0011953659
000350 a5 5a 13 bc f3 f8 f7 bc e9 e8 67 3c 07 3e 28 bc
       -0.008993779 -0.030270075 0.014154651 -0.010268695
000360 74 37 9c 3c dd c6 3e bc 84 ca c2 bc 57 fc e5 bb
       0.01906941 -0.011644092 -0.023778208 -0.0070186066
000370 25 4b 91 3c 16 70 a9 bc f4 ec 3a bd b6 82 00 bc
       0.017736027 -0.02068333 -0.045636132 -0.007843664
000380 7f 2d a8 3c 6f ed 7f bb 20 26 c6 bc 36 2e 2b bc
       0.020529507 -0.0039051434 -0.024188101 -0.010448029
000390 18 c9 6c bc 7b 2f 48 bc 10 61 c8 bc 80 4f 92 3c
       -0.014452241 -0.0122183515 -0.024460346 0.017860174
0003a0 aa 93 1a 3c 38 9d 13 bc a1 b8 cf bb 8e c0 02 3c
       0.00943462 -0.009009652 -0.006339148 0.007980479
0003b0 5c 66 25 bd 8b d5 1f bc fd 8a b6 3c e6 fc 1f bc
       -0.04038082 -0.009755502 0.022283072 -0.0097648855
0003c0 99 09 28 3b aa 09 6e 3c 8d 85 66 bc 3a ef 93 bc
       0.0025640486 0.014528671 -0.014069927 -0.018058408
0003d0 3a 9d 37 3a 7e 5b ee bb 1b e5 6b 3c d5 a0 3a 3c
       0.00070043246 -0.0072740903 0.014397885 0.011390884
0003e0 59 a1 fa bb d4 cf 0e bc ba 79 1f 3c de e4 08 bc
       -0.0076486287 -0.008716542 0.009733612 -0.008355347
0003f0 30 61 09 3c c8 21 bb bc 6b 21 db bc 9c e5 31 3c
       0.008384988 -0.022843257 -0.026749333 0.010857966

5.bias f4 [100]
000000 14 49 70 3a d5 b9 04 bd f4 e4 03 bc 23 d4 9c bc
       0.0009166163 -0.032403786 -0.008050192 -0.019144123
000010 3e c3 57 3e a6 30 14 ba 71 3d a9 bc 30 14 82 3e
       0.21070573 -0.0005653001 -0.02065918 0.25406027
000020 21 87 18 bd 63 b0 96 3c 69 9c 52 3e ce e9 12 bd
       -0.037238244 0.018394655 0.20567478 -0.035867505
000030 98 62 7f 3e 5b 34 6f bc 4d 9f bb 3a aa 0e ff bc
       0.24939954 -0.014599885 0.0014314443 -0.031134922
000040 1a a8 67 3b 72 c8 83 3c 31 be 93 3d 0d d4 72 3d
       0.0035348 0.01608679 0.072140105 0.05928426
000050 68 7e 14 3d 63 d7 8e 3b d2 64 df bc 1b a4 97 3e
       0.036253363 0.004359172 -0.027269755 0.2961739
000060 30 51 17 3c c2 64 97 bc 21 ce 98 3d 12 70 ca bc
       0.009235665 -0.018480662 0.07461191 -0.024711642
000070 70 f0 fb bd 0b c1 c4 bd 13 7c 9e bc b0 49 2e 3e
       -0.12301719 -0.096071325 -0.019346273 0.17020297
000080 81 7c 98 3e 9c 37 39 bc 27 60 a3 bc 6e 53 93 bd
       0.2978249 -0.011304762 -0.01994331 -0.07193647
000090 02 e5 64 3e c5 c7 44 3c 3d 34 83 bc 69 6d d6 3e
       0.22352985 0.012010519 -0.01601612 0.41880348
0000a0 5c 3b ad bb 36 63 02 bc 36 c9 82 3d 7e 44 cf bc
       -0.005286617 -0.007958224 0.06386034 -0.025301214
0000b0 0b 02 6b bc 0c f2 4c 3c 6c e2 de 3b 20 6d ef bc
       -0.014343749 0.01250888 0.006801894 -0.02922684
0000c0 1d 81 c6 bc 04 13 0d bb a2 e6 2c bc bf 06 6f bc
       -0.024231488 -0.0021526227 -0.010553034 -0.014589011
0000d0 74 65 b0 3d b4 de c5 bc d1 60 0a bd 2f a8 9e bc
       0.08613101 -0.024154045 -0.033783738 -0.019367306
0000e0 e8 6a bf bc 46 6d a8 bc cf 44 fe bc c6 47 ce bc
       -0.023366407 -0.020559918 -0.03103867 -0.025180709
0000f0 51 58 f4 bb 79 b9 b3 3e 96 64 e6 bc 34 bc 47 3d
       -0.007456817 0.35102442 -0.028124135 0.04876347
000100 db 25 89 3c 3c 0d a1 ba 9e b6 23 3c 4f 2f 13 be
       0.016741684 -0.0012287269 0.00999227 -0.14373516
000110 cf 3a 95 bc 28 57 d7 bb bd e3 0f bc 0d 75 5c be
       -0.018216519 -0.006571669 -0.008782324 -0.21529026
000120 3e fb 56 3c 4b 19 95 bd a1 1f 9f bc 86 28 d5 3e
       0.013121424 -0.07280215 -0.019424262 0.4163248
000130 af a1 c3 bd 0c 96 ba 3e 46 b2 a9 bc da d4 ca 3e
       -0.09552323 0.36442602 -0.02071489 0.39615518
000140 8e 8e b7 bd a6 87 01 bd fe 5f e9 bb 7b b9 91 3d
       -0.08962737 -0.031623505 -0.007122039 0.07115456
000150 c3 a2 4a 3e 3e 22 b9 3a e9 53 db bc 41 60 25 3e
       0.19788651 0.0014124585 -0.02677341 0.16149999
000160 13 0b 03 3e 9e 35 96 3c 69 c8 ed ba 6f dc 0a bc
       0.12797193 0.018336114 -0.0018141392 -0.008475407
000170 dd 7e 6c 3e e7 30 b6 bd 56 b9 13 3c 3e ae cf 3e
       0.2309527 -0.08896046 0.0090163555 0.40562624
000180 76 e9 95 bc 52 fb 0a 3c c9 e5 51 bd f1 55 ef bb
       -0.0182998 0.008482771 -0.05124453 -0.007303946

7.weight f4 [10, 100]
000000 fd 86 2a 3b 3a fb b9 3d 5e 3c e5 3c 9e 1e 40 bd
       0.00260204 0.09081121 0.027982887 -0.0469042
000010 a9 4b 2c be ee 4a 48 bd dc 14 de 3c de da 91 3d
       -0.16825737 -0.048899584 0.027109556 0.07121824
000020 79 d5 0c bc 85 e7 ad bd 23 82 d9 3c c3 85 6c 3c
       -0.008595818 -0.084914245 0.026551312 0.014436188
000030 c7 95 80 3d c0 41 3d 3d fd f1 34 3d 07 55 ac bd
       0.06278568 0.046205282 0.04417609 -0.08414655
000040 9c e0 3f bd 54 12 0c bf c2 b6 a7 be da 03 67 3e
       -0.046845064 -0.54715466 -0.3275662 0.22560063
000050 23 26 82 be 3d ae dd bc be 91 b6 3d 88 24 10 be
       -0.2541972 -0.027060622 0.08914517 -0.14076436
000060 da 4b ea be f0 88 02 3c 50 35 ec be 2b 87 78 bd
       -0.45760995 0.007967219 -0.46134424 -0.06067578
000070 c0 6b 6f 3e d5 d3 e7 bd 56 cb 24 3d f3 d7 2d be
       0.23380947 -0.11319701 0.04023298 -0.1697691
000080 ea 25 a8 3d ce 21 e1 3c 6d b7 9f 3c aa 99 11 3f
       0.082103565 0.02748194 0.019496644 0.568751
000090 a1 d4 51 3d 94 2d 15 bd ae ad 77 3d 97 1a 8a 3d
       0.05122817 -0.03642042 0.06046837 0.06743353
0000a0 87 65 02 bd e2 21 70 bd 14 ce a4 be 4e 34 90 3d
       -0.031835105 -0.058626063 -0.32188475 0.07041226
0000b0 4d d4 a4 bc 3e 0e 8f 3e 8d d6 a1 bd 0e 88 0b ba
       -0.020120764 0.27940553 -0.079022504 -0.0005322703
0000c0 3f 6f 4a bd f8 a8 03 bd 27 9c bc bd 02 5f 92 bd
       -0.0494225 -0.032143563 -0.09209471 -0.071470276
0000d0 8d 15 de 3c df 13 a7 be 33 c0 77 3d f5 51 bb bd
       0.027109886 -0.32632348 0.06048603 -0.091464914
0000e0 1e 05 99 3c b5 b6 f8 3c ba c3 e7 bc 0c 9e 87 3c
       0.018679198 0.030360559 -0.028291572 0.016554855
0000f0 d8 6f 40 bd 38 c9 0d 3e e4 6c 86 bc 9d 1a 94 be
       -0.046981663 0.1384629 -0.016409345 -0.28926554
000100 56 98 42 bc 53 36 c4 bd cf ba 95 bd 01 25 0d be
       -0.01187714 -0.09580674 -0.073110215 -0.13783647
000110 c4 82 6a bd e1 91 f0 bd 13 6a b1 bd 9f c5 7d be
       -0.057253614 -0.11746574 -0.0866281 -0.24782418
000120 bb e0 a7 3d c8 2c a4 be 83 63 c0 3c b2 ae 33 3e
       0.08197161 -0.32065415 0.02348495 0.1754711
000130 11 87 e3 bd 55 00 a5 3e 54 94 22 3d a6 05 28 be
       -0.11109746 0.32226816 0.039692238 -0.16408405
000140 a8 a0 cf 3e f2 ec c3 bc 31 60 a1 3d a6 19 21 3d
       0.40552258 -0.023916695 0.07879675 0.0393311
000150 3b 78 83 3e d3 47 42 3d c2 ec e6 b9 41 4f 12 be
       0.25677666 0.04743178 -0.00044045417 -0.14288045
000160 f3 4f c6 3d 0a 63 52 bd c9 16 93 bd 29 e4 29 3d
       0.09683218 -0.051363982 -0.0718208 0.041477356
000170 e2 e0 91 be 0e 09 31 3d 31 19 28 3d 3e 8b f6 be
       -0.28491884 0.043221526 0.04103965 -0.48153108
000180 21 f4 ce bc 4b 31 58 3e 39 03 07 be 06 95 87 bd
       -0.025262894 0.21112554 -0.13184823 -0.06620221
000190 c1 43 aa 3d 5f 90 8d bd 05 f3 a9 3d ef cc e0 3b
       0.08313704 -0.06912302 0.082983054 0.0068603675
0001a0 33 71 e7 bd 44 bc 84 3e cd e7 07 3d 60 da 97 be
       -0.11300888 0.25924885 0.033180047 -0.29658794
0001b0 83 1d 6c 3c 52 52 76 bd 1a 27 8c be ff a2 26 bc
       0.014411333 -0.0601371 -0.27373582 -0.010170697
0001c0 b2 ba e5 bd 44 99 6d bc ff b9 89 3c e7 94 13 bc
       -0.1121725 -0.014501873 0.016812323 -0.009007669
0001d0 0c 1f a7 bd 9a 56 04 3e cc 6b 42 3e 2b ed 00 be
       -0.081602186 0.12923661 0.18986434 -0.12590472
0001e0 54 11 bc bd 09 d8 fb bb d3 34 93 3c f9 f4 11 be
       -0.091829926 -0.0076856655 0.017969524 -0.14253606
0001f0 c6 c1 44 3e 03 f4 85 3d 44 a8 ac 3d c5 4e 3a 3d
       0.19214544 0.06540682 0.084305316 0.045485277
000200 5a de 93 3e a4 65 ec bd e4 29 aa 3c b9 96 2d 3e
       0.28880578 -0.11542824 0.020771928 0.16952027
000210 47 3e a7 3d 0c e5 8a 3d 44 44 2f 3c 59 cc 7e bd
       0.08166175 0.067819685 0.010697428 -0.0622066
000220 ed b5 52 be 0f dd bf bd 3e 6b 80 bd 95 3c 9b bd
       -0.20577212 -0.093683355 -0.06270455 -0.075799145
000230 ea a9 80 bd ac 94 69 3d 9f 2d 74 3e 20 a5 05 3d
       -0.062824085 0.05702655 0.23845528 0.03262818
000240 fa b3 b7 bc 29 70 86 3e 30 a4 82 be 01 df 4d 3d
       -0.022424687 0.26257446 -0.2551589 0.0502615
000250 78 fc ba 3b d2 75 87 3d 59 da 5f 3c 65 c9 11 bc
       0.005706366 0.06614269 0.013662898 -0.008898114
000260 25 2b 46 3e 7d 29 37 be 3e 10 98 39 3b 15 09 bb
       0.19352396 -0.1788692 0.000290038 -0.0020917195
000270 75 96 81 3c 7a f0 5f bb 11 6a e6 3c 64 c1 50 3d
       0.015818814 -0.0034170435 0.028126748 0.05096568
000280 52 7b 22 bf b2 5f 73 be 80 b3 09 bd 97 af 32 be
       -0.6346942 -0.23766974 -0.03361845 -0.17449795
000290 5e 5b 35 be ab 0e 8d 3d 76 ed d6 3b 6f e7 f7 bd
       -0.17710635 0.06887563 0.0065590693 -0.12104689
0002a0 ec 08 15 bc 95 f6 49 bf a9 24 6a 3c d7 a4 cb 3e
       -0.009096365 -0.7889188 0.014290967 0.397742
0002b0 e1 9b 19 3d f1 7a 06 3f d4 e4 f4 ba 54 10 b3 be
       0.037502173 0.52531344 -0.0018683919 -0.34973395
0002c0 00 0a ce 3d 5d 1d 5e be f0 9f 1d 3b 82 22 28 be
       0.10060501 -0.21690889 0.002405163 -0.16419414
0002d0 bc 83 ee 3e aa 33 89 bc ba cf ae 3d b2 62 67 3d
       0.4658488 -0.016748268 0.085357144 0.056490608
0002e0 7d 9c 33 3e bc aa 85 bd f6 02 82 bd 49 9b 57 3e
       0.17540164 -0.065267056 -0.06348221 0.2105533
0002f0 e3 31 d3 be 5d a6 02 3d b4 82 9c 3d 9e 3d 25 3c
       -0.41248998 0.031896938 0.07642117 0.010085491
000300 94 e9 99 bd 82 29 88 ba a7 89 32 bd 2b c8 49 be
       -0.075152546 -0.0010388347 -0.043588307 -0.19705264
000310 9f a7 fd 3a 4f 1b e6 3e da 13 d4 3d e8 02 a5 3c
       0.0019352323 0.4494271 0.10355349 0.020142987
000320 51 61 a3 bd d3 32 92 bc 9f 1b 74 3b c3 e7 06 3d
       -0.07977546 -0.0178465 0.0037247909 0.03293587
000330 0d 6b 37 3e 90 6b 5d bd 8d 22 59 3d ec 7b 98 be
       0.1791193 -0.054057658 0.053011466 -0.29782045
000340 da d7 1a bd b1 ed b1 3d ac 7f c5 3c 5b 46 a4 bd
       -0.03780351 0.08687914 0.02410873 -0.08021232
000350 bf b3 e4 bd 08 d8 ca bc 16 4a 06 bd 0e 27 8c 3d
       -0.11167096 -0.024761215 -0.032785498 0.068433866
000360 ab b5 db 3c c4 f6 25 3e 48 ce a6 be 52 61 a8 3e
       0.026820024 0.16207415 -0.32579255 0.3288675
000370 0f c1 8d be 77 7d a0 3d ff 43 2f 3c 54 28 d1 bd
       -0.27686355 0.078364305 0.010697364 -0.1021277
000380 d5 75 e9 be 81 4c ae 3c 77 a1 90 3e 7c 42 8e bd
       -0.4559771 0.021276714 0.28248188 -0.06946275
000390 25 bd 8d be 99 94 e7 bd 05 0a e2 bc 54 d7 61 bd
       -0.27683368 -0.1130764 -0.027592668 -0.055136994
0003a0 6b 77 43 3e ea eb e9 bc 9e 07 d5 3c b9 1a 74 3e
       0.19088523 -0.028554875 0.026004609 0.23838319
0003b0 6e 3f 19 3d 86 32 0e 3d 20 73 1b 3c 45 45 ba 3d
       0.037414007 0.03471615 0.009487897 0.09095243
0003c0 84 91 8c 3d 5e 14 64 3c 1b 01 49 bd ee 29 96 3d
       0.068636924 0.013920872 -0.04907332 0.07332216
0003d0 bb 81 d3 3c c5 56 d7 3d 58 0b 7e 3e 04 c7 88 bd
       0.025818696 0.10514597 0.24809015 -0.06678584
0003e0 ab 69 83 bd 13 a1 b0 3d 6c 78 93 bb 4b 84 43 bd
       -0.06416639 0.086244725 -0.0045004394 -0.047733586
0003f0 2b 76 c2 be 8b da a3 be 7d 6c ca bc 0b 76 15 bd
       -0.3798078 -0.32002673 -0.024709934 -0.036489528

7.bias f4 [10]
000000 29 47 87 bc 32 b8 91 be df c6 1c 3d 4b a0 71 3d
       -0.016513424 -0.28460842 0.038275596 0.058990758
000010 2b 3d 0c 3d a3 08 e9 bc a3 38 13 be a4 d3 09 be
       0.03423802 -0.028446501 -0.14377074 -0.1345964
000020 a2 27 bf 3e a5 61 43 bd
       0.37334925 -0.047700543
