models/non_seq_trained/l_inf/more_small2_2.pth (torch, 862159 bytes, 8 tensors)

0.weight f4 [16, 3, 4, 4]
0	0xbd7fa154	-0.062409714
1	0xbb835efa	-0.004009125
2	0x3d9df5d7	0.07712906
3	0xba1241cf	-0.0005579264
4	0xbe2000a4	-0.15625244
5	0x3c9406a3	0.01806957
6	0x3e4c4dc0	0.19951534
7	0x3b65168e	0.003495607
8	0xbed81458	-0.4220302
9	0xbbe2e053	-0.006923714
10	0x3ead0114	0.33789885
11	0x3d8ceec4	0.068814784
12	0xbdbdf609	-0.09275443
13	0x3b015dc5	0.001973973
14	0x3d1c5cc2	0.0381744
15	0x3b66cbcc	0.0035216687
16	0xbd8a2737	-0.06745761
17	0x3bf2b249	0.007406507
18	0x3d2d5601	0.042318348
19	0xb8ac2927	-8.209264e-05
20	0xbe43ab8a	-0.19108406
21	0x3c393c95	0.011305948
22	0x3e372782	0.17886165
23	0x3b6191c7	0.0034419165
24	0xbea7d9df	-0.3278341
25	0xbb056a33	-0.002035749
26	0x3e77677d	0.24160571
27	0x3d2ff22a	0.042955555
28	0xbdd00770	-0.101576686
29	0xbbe25d99	-0.0069081304
30	0x3d45426f	0.04815906
31	0x3c12202a	0.008918801
32	0xbcca402b	-0.0246888
33	0x3d1763bb	0.036960345
34	0x3cc92e24	0.024558134
35	0x3bf098b3	0.007342422
36	0xbe501d71	-0.20323731
37	0xbb268040	-0.0025406033
38	0x3e820971	0.25397828
39	0x3c936514	0.017992534
40	0xbe76cbe9	-0.24101223
41	0x3b970509	0.0046087545
42	0x3e7c0516	0.24611315
43	0x3d30cd42	0.0431645
44	0xbdb8f63c	-0.090313405
45	0x3aa8a909	0.0012867759
46	0x3d99c310	0.07507908
47	0x3c107eef	0.008819326
48	0x3de4c890	0.11171067
49	0x3eb27f3e	0.34862703
50	0x3e7a8a4a	0.24466816
51	0x3e10cdce	0.14141008
52	0x3dcac20c	0.09900293
53	0x3e900cec	0.2813486
54	0x3e552af7	0.20817171
55	0x3de7a5cc	0.1131092
56	0x3dc95e56	0.09832446
57	0x3eb49c2c	0.352754
58	0x3e6c45f1	0.23073556
59	0x3def4000	0.11682129
60	0x3c9f4b38	0.019445047
61	0x3c6b7d11	0.01437308
62	0x3d060e86	0.032728694
63	0x3b51438c	0.003193113
64	0xbd3fbe42	-0.046812303
65	0xbe4931f7	-0.19647966
66	0xbdf93d89	-0.1216994
67	0xbdc35fa6	-0.09539728
68	0xbdaf10b8	-0.08548111
69	0xbe2325fb	-0.15932457
70	0xbe06e29b	-0.1317238
71	0xbda41836	-0.0801243
72	0xbdd0650f	-0.101755254
73	0xbe8f74c9	-0.28018788
74	0xbe31e412	-0.17372158
75	0xbe1f6318	-0.15565145
76	0xbcb4b9a6	-0.02206118
77	0xbd2ea298	-0.04263553
78	0xbd59f6fc	-0.05321406
79	0xbc77ecb2	-0.015132116
80	0xba88cc48	-0.0010436857
81	0xbc9cbc29	-0.01913269
82	0xbd804ee0	-0.06265044
83	0xbd2dd0c7	-0.042435434
84	0xbc390c38	-0.011294417
85	0xbe09d643	-0.1346064
86	0xbda1c7d6	-0.07899444
87	0x3b54de32	0.0032481072
88	0xbcadaddc	-0.021201067
89	0xbe12f46b	-0.1435105
90	0xbd813015	-0.06307999
91	0xbc8b3dcc	-0.01699724
92	0xbd427344	-0.047473207
93	0xbb11c984	-0.0022245357
94	0xbd0d5390	-0.03450352
95	0xbc804258	-0.015656635
96	0x3e153528	0.14571059
97	0x3ebd1cd5	0.3693606
98	0x3e18eff9	0.14935292
99	0xba9e0b93	-0.0012057893
100	0x3dd00d7d	0.10158823
101	0x3ddbcf52	0.107329026
102	0xb9f1edf8	-0.00046144403
103	0xbdcbde1e	-0.09954475
104	0x3c984c1c	0.01859098
105	0xbc303ccb	-0.010756682
106	0xbe80e89c	-0.25177467
107	0xbee1f48d	-0.4413189
108	0xbc280478	-0.010254972
109	0xbd4d4adc	-0.05012022
110	0xbdbf4c54	-0.0934073
111	0xbd0531a2	-0.032518037
112	0x3daaebee	0.08345781
113	0x3e9571c3	0.29188356
114	0x3dbccc07	0.09218603
115	0xb8c662bd	-9.459767e-05
116	0x3db8a02f	0.090149276
117	0x3dd052c4	0.10172036
118	0xbc2240ff	-0.009903192
119	0xbe011f64	-0.12609631
120	0x3c0aea03	0.008478644
121	0x3ac68453	0.0015145637
122	0xbe402c46	-0.18766889
123	0xbed43d4a	-0.4145301
124	0xbb8ae256	-0.004238407
125	0xbd203e36	-0.03912183
126	0xbdaec3ea	-0.085334614
127	0xbd19c61a	-0.03754244
128	0x3db603eb	0.08887466
129	0x3e9f46bd	0.31108657
130	0x3dabebe5	0.08394603
131	0xb9ba1ae8	-0.0003549673
132	0x3e1cfa77	0.1532992
133	0x3e3fd35c	0.18732971
134	0x3ac9be4a	0.0015391794
135	0xbe053cb0	-0.13011432
136	0x3cde726d	0.027154172
137	0xb903a927	-0.00012556148
138	0xbdf977e9	-0.12181074
139	0xbe67794b	-0.22604863
140	0xbc168e53	-0.009189206
141	0xbcfb45ce	-0.030672934
142	0xbd897042	-0.067108646
143	0xbbd1e036	-0.006404902
144	0xbbdd6bf4	-0.006757254
145	0xba87817b	-0.0010338271
146	0xbabcae4c	-0.0014395206
147	0x3bb5b865	0.005545663
148	0xbbb77b0d	-0.0055993856
149	0x3a7ef965	0.0009726494
150	0x3c4d3e16	0.0125270095
151	0xba68ad3e	-0.0008875913
152	0xbb9ddb78	-0.0048174225
153	0x3cb0e1dc	0.021592073
154	0x3c430bfa	0.011904711
155	0x3c129c03	0.008948329
156	0xbb996fe8	-0.0046825297
157	0xbc055f8a	-0.008140454
158	0x3b4c3a59	0.0031162708
159	0x3c526f20	0.012843877
160	0x3bdcbf38	0.0067366622
161	0x3c3f154c	0.011662792
162	0x3c5c24ea	0.013436535
163	0x3c0fddeb	0.008780937
164	0x3c8ee179	0.017441498
165	0x3d115b0c	0.03548722
166	0x3cd6c3a2	0.026216332
167	0x3cee0b4c	0.029058121
168	0x3d14fc98	0.036373705
169	0x3dae9463	0.08524396
170	0x3d3fe1dc	0.046846256
171	0x3d42f651	0.047598187
172	0xb94217d1	-0.00018510154
173	0x3b164f32	0.0022935388
174	0x3cf8f603	0.030390745
175	0x3c96be32	0.018401239
176	0x3c18b951	0.009321527
177	0x3e2fd2a5	0.17170198
178	0x3de4c094	0.11169544
179	0x3de38e09	0.111110754
180	0x3e15e57b	0.14638321
181	0x3eb914e5	0.36148754
182	0x3eac755e	0.33683294
183	0x3e9a30d9	0.30115393
184	0x3df1dc6e	0.11809622
185	0x3ebc984b	0.3683494
186	0x3e84f87a	0.25970823
187	0x3e9f24ce	0.31082767
188	0x3d15d589	0.036580596
189	0x3dfb626c	0.12274632
190	0x3df0ede0	0.11764121
191	0x3da4d9f3	0.08049383
192	0xbd5282f6	-0.051394425
193	0xbe08c432	-0.13356093
194	0xbda72ff9	-0.08163447
195	0xbd37c1c6	-0.04486253
196	0xbd8e551c	-0.06949827
197	0xbdc104b3	-0.094247244
198	0xbd996330	-0.07489622
199	0xbd76eeb3	-0.060286235
200	0xbe0ad79c	-0.13558811
201	0xbe91abce	-0.2845139
202	0xbe3e5972	-0.18588808
203	0xbe4e5384	-0.20149046
204	0xbd04d530	-0.032429874
205	0xbd869462	-0.065712705
206	0xbd5c2dff	-0.053754803
207	0xbd0d8338	-0.034548968
208	0xbce0e4ed	-0.02745291
209	0xbde75708	-0.11295897
210	0xbd869617	-0.06571596
211	0xbd678181	-0.05651999
212	0xbd1d6cdf	-0.038433906
213	0xbd7f754a	-0.062367715
214	0xbd80ccc9	-0.0628906
215	0xbd376e11	-0.044782702
216	0xbda09232	-0.078403845
217	0xbe2e392f	-0.17014001
218	0xbddca5ff	-0.10773849
219	0xbdf410e1	-0.11917282
220	0xbcb470e5	-0.022026489
221	0xbd044933	-0.03229637
222	0xbceb12bd	-0.028695459
223	0xbcac2df3	-0.021018004
224	0xbc94f93f	-0.018185256
225	0xbd33d897	-0.043907728
226	0xbcbefa98	-0.023312852
227	0xbcb3afb4	-0.021934368
228	0xbcb1052f	-0.021608917
229	0xbd27be29	-0.040952835
230	0xbd27ba54	-0.04094918
231	0xbd36f920	-0.044671178
232	0xbd05bc23	-0.032650124
233	0xbd847f05	-0.064695396
234	0xbd065fc1	-0.03280616
235	0xbd27c01c	-0.040954694
236	0xbc75e00b	-0.015007029
237	0xbce9ff97	-0.028564258
238	0xbc33fe2d	-0.010985893
239	0xbc912452	-0.017717514
240	0x3d8db2c2	0.06918861
241	0x3e325409	0.1741487
242	0x3df9a14f	0.1218897
243	0x3dd65021	0.10464502
244	0x3d9a1698	0.07523841
245	0x3de98f9f	0.11404347
246	0x3dc1284f	0.094315164
247	0x3dad5742	0.08463909
248	0x3e0ff93b	0.14059918
249	0x3e8cb039	0.27478197
250	0x3e426772	0.18984774
251	0x3e62a44f	0.22132991
252	0x3c96bbff	0.01840019
253	0x3d7f7c99	0.062374685
254	0x3d5815b3	0.05275507
255	0x3d44a0de	0.048004977

0.bias f4 [16]
0	0xbf100faa	-0.562739
1	0xbf1966bb	-0.5992238
2	0xbf5dbef7	-0.86619514
3	0xbf9567c8	-1.1672297
4	0x3d01706d	0.03160136
5	0x3eeafef1	0.4589763
6	0xbf4d795e	-0.80263317
7	0xbf54df8a	-0.83153594
8	0xbf1ea0b0	-0.6196394
9	0xbf3e240a	-0.7427374
10	0xbf52bc6a	-0.8231875
11	0xbf4747b5	-0.7784379
12	0x3f1855c3	0.5950586
13	0xbe82f6fd	-0.25579062
14	0xbf0fadf5	-0.5612481
15	0xbf3b1c10	-0.73089695

2.weight f4 [32, 16, 4, 4]
0	0xbd3bfb34	-0.045893863
1	0xbd59e2a7	-0.05319467
2	0x3de99744	0.11405805
3	0x3d3ed404	0.046588913
4	0xbbb4fc0b	-0.00552321
5	0x3d6b8858	0.057503074
6	0x3d8500de	0.06494306
7	0xbdb043a5	-0.08606652
8	0x3d657dcf	0.056028184
9	0x3cac2711	0.021014722
10	0xbe151e68	-0.1456238
11	0xbd301f4d	-0.0429986
12	0x3ca179f6	0.019711476
13	0xbd502c25	-0.05082335
14	0xbd918d19	-0.0710699
15	0xbd135a39	-0.035974715
16	0xbb6a0656	-0.0035709343
17	0xbcf38fce	-0.029731657
18	0xbcb7c39b	-0.02243214
19	0xbc56b55c	-0.013104763
20	0xbcf1c26f	-0.029511658
21	0xbc8e504f	-0.017372278
22	0xbb1d08ab	-0.0023961465
23	0xbb8dd948	-0.0043288805
24	0xbc3f77b8	-0.011686258
25	0xbab91338	-0.0014120108
26	0xbb27488b	-0.0025525417
27	0x3cd7bd6e	0.026335444
28	0xba1f1306	-0.00060682034
29	0x3a4a0de7	0.000770776
30	0xbbf30adc	-0.007417066
31	0x3c77ea38	0.015131526
32	0x3df13cfd	0.11779211
33	0x3d779d5c	0.060452804
34	0x3bca85be	0.006180494
35	0x3c48ae9b	0.01224866
36	0x3ca53705	0.020167837
37	0xbafba9c8	-0.0019200379
38	0x3d79f4d9	0.06102452
39	0x3d90e057	0.070740394
40	0xbd26077a	-0.040534474
41	0x3d4d5383	0.05012847
42	0x3ddf3fce	0.10900842
43	0x3d09e681	0.03366709
44	0x3c94ca50	0.018162876
45	0x3d789546	0.060689233
46	0x3d4754e6	0.04866495
47	0x3d26b37c	0.040698513
48	0x3d2d1949	0.042260442
49	0xbe42ddfe	-0.19029996
50	0xbd3e6f5b	-0.046492916
51	0x3d84e17b	0.064883195
52	0xbe6f4d2f	-0.23369287
53	0xbe00834b	-0.12550084
54	0x3db83947	0.089953
55	0x3de58c53	0.11208405
56	0x3babf612	0.0052478397
57	0x3dfcffa2	0.123534456
58	0x3e110565	0.14162214
59	0x3bb3271e	0.0054673096
60	0x3d9b5e39	0.07586331
61	0x3d99017b	0.074709855
62	0x3d54c53a	0.051945902
63	0x3ba3674e	0.00498668
64	0x3ba120ba	0.0049172314
65	0x3a33941e	0.0006850379
66	0xbdb72478	-0.08942503
67	0xbe280451	-0.16407897
68	0x3d79a5df	0.060949203
69	0xbe116e39	-0.14202203
70	0xbe52010d	-0.20508213
71	0xbe052f76	-0.13006386
72	0xbdf52fe1	-0.11972023
73	0xbe29a66f	-0.16567396
74	0xbd658d9e	-0.05604326
75	0xbcb7e880	-0.022449732
76	0xbe199e7d	-0.15001865
77	0xbd973ff4	-0.07385245
78	0x3c07fbad	0.00829975
79	0x3c97d1bf	0.018532632
80	0x3bd7f2b5	0.006590212
81	0xbe54fc6d	-0.20799418
82	0xbdb416d5	-0.08793417
83	0x3cb833af	0.022485582
84	0xbe886f98	-0.2664764
85	0xbe61d1c0	-0.2205267
86	0xbc1d9c0a	-0.009619722
87	0x3d49ddf7	0.049283948
88	0xbdc21985	-0.09477524
89	0xbb981f18	-0.0046423785
90	0x3d954b63	0.072897695
91	0xbb877e55	-0.004134933
92	0x3951c1bf	0.00020003969
93	0xbba7ea03	-0.005124332
94	0xbc9e1a40	-0.019299626
95	0xbe0b55f5	-0.13607009
96	0xbd797cd6	-0.06091007
97	0xbdb2d0ef	-0.08731257
98	0x3c8002fe	0.015626427
99	0x3d5d0d2e	0.053967647
100	0xbd67ca83	-0.056589615
101	0x3e041ecc	0.12902373
102	0x3d73969b	0.0594698
103	0xbcf96716	-0.030444663
104	0x3e3b7382	0.18305781
105	0x3d9a9285	0.07547478
106	0xbe11c7b1	-0.14236332
107	0xbdca9fe9	-0.09893782
108	0x3d0f84eb	0.03503887
109	0xbd88fb67	-0.06688576
110	0xbd093251	-0.03349525
111	0xbc758d51	-0.014987306
112	0x3c3ae7d7	0.011407814
113	0x3cf03d66	0.029326152
114	0xbc8747c6	-0.016513716
115	0xbc87ba1c	-0.016568236
116	0x3caea840	0.021320462
117	0xbaaefdef	-0.0013350825
118	0xbc515f71	-0.012779103
119	0xbd0a81bb	-0.033815127
120	0xbce109ea	-0.027470548
121	0x3a5886fd	0.0008259861
122	0xbad465c7	-0.0016204648
123	0xbcb693b9	-0.022287237
124	0x3bbdce26	0.005792397
125	0x3c333c09	0.010939606
126	0xbbb038ee	-0.0053778803
127	0x3cd3011d	0.025757367
128	0x3d15f257	0.036608066
129	0xbba1c41f	-0.0049367095
130	0x3c91624b	0.017747065
131	0x3cdb0022	0.026733462
132	0xbcd5b521	-0.026087346
133	0xbd2eaae3	-0.04264344
134	0x3d630912	0.055428572
135	0x3d0b7362	0.034045584
136	0xbd925fc6	-0.071471736
137	0xbc87b03b	-0.016563525
138	0x3d0bd1e5	0.034135718
139	0x3b6260d8	0.0034542587
140	0xbcc2f8ce	-0.02380028
141	0xbc029c19	-0.007971787
142	0x3c1a2b19	0.009409689
143	0x3bb89c47	0.005633864
144	0x3d110369	0.035403643
145	0x3d0f61cc	0.035005376
146	0x3c3a8a5f	0.011385529
147	0xbca5b30f	-0.020226983
148	0xbd0c7b0d	-0.034297038
149	0xbc49b0ea	-0.012310246
150	0xbb4beb2e	-0.003111552
151	0x3c07bceb	0.008284788
152	0x3c13fd78	0.0090326
153	0x3ce1ec5d	0.027578527
154	0x3cbf8d7e	0.023382898
155	0x3ba69da9	0.0050847125
156	0xbc15fa72	-0.009153949
157	0x3c88eec0	0.016715407
158	0xbb25cf58	-0.0025300588
159	0x3bfaa23c	0.0076487344
160	0xbdc43358	-0.095801055
161	0x3dbd1a44	0.092335254
162	0x3eab12f2	0.33412892
163	0x3e91e203	0.28492746
164	0x3e32fdbb	0.17479603
165	0x3eecabd0	0.46224833
166	0x3e77276d	0.24136133
167	0xba7da24d	-0.0009675369
168	0x3ebc9889	0.36835125
169	0x3e287c08	0.16453564
170	0xbda51e3c	-0.080624074
171	0xbdb3716a	-0.087618664
172	0x3da60596	0.08106534
173	0xbccdedd0	-0.025137812
174	0xbd36988a	-0.044579066
175	0xbd2bc1b9	-0.041932795
176	0xbcaf73a5	-0.021417448
177	0xbd9f1ad0	-0.07768786
178	0xbdb49214	-0.08816925
179	0xbd1c96f8	-0.038229913
180	0xbd36cf35	-0.0446312
181	0xbe008010	-0.12548852
182	0xbdaa1798	-0.083052814
183	0xbda32e34	-0.07967797
184	0xbd1c1a60	-0.03811109
185	0xbe22da9b	-0.15903704
186	0xbd8c7332	-0.06857909
187	0xbd0326f8	-0.032019585
188	0xbd3a00a9	-0.045410786
189	0xbdaa4c3e	-0.08315323
190	0xbb662fba	-0.0035123662
191	0xbb8491a8	-0.004045684
192	0x3ca8c2c7	0.02060069
193	0xbdfc0390	-0.12305367
194	0xbd402e55	-0.046919186
195	0x3cd99f64	0.026565261
196	0xbe3bb80c	-0.18331927
197	0xbde1bf59	-0.11022825
198	0x3d23a5fe	0.039953224
199	0x3c5fc7bc	0.01365846
200	0x3babd200	0.00524354
201	0x3d350a72	0.044199415
202	0xbb85fd0a	-0.0040890025
203	0xbd87e25d	-0.06634972
204	0x3c13e701	0.009027244
205	0xbceced38	-0.028921708
206	0xbd863773	-0.06553545
207	0xbd52aa90	-0.051432192
208	0xbbeb234a	-0.0071758376
209	0xbbc6267d	-0.0060470686
210	0xbc5e2311	-0.013558165
211	0xbc16a3de	-0.009194342
212	0xbc4ada08	-0.012381084
213	0xbcd1dfe4	-0.025619455
214	0xbca5bbd4	-0.020231165
215	0xbbf0bb8c	-0.007346576
216	0xbc222fd6	-0.0098991
217	0xbc655feb	-0.013999919
218	0xbc56f3f7	-0.013119689
219	0xbc9fce7c	-0.01950764
220	0xbb3ab617	-0.0028489882
221	0xbc974eba	-0.018470157
222	0xbc2f7a11	-0.010710255
223	0xbc829374	-0.015939452
224	0x3d07e0a6	0.033173226
225	0x3ccfeb9c	0.025380902
226	0xbcd6f71f	-0.026240883
227	0xbc5a2326	-0.013314044
228	0x3b453390	0.0030090548
229	0xbc8c0698	-0.017092988
230	0xbc922eb8	-0.017844543
231	0x3c4f2b71	0.012644635
232	0xbd7fb5ca	-0.062429227
233	0xbcbc931f	-0.023019372
234	0x3924ef41	0.00015729388
235	0x3bf5c7bb	0.0075006164
236	0xbcb8d9b8	-0.022564754
237	0xbb3e29d2	-0.0029016626
238	0x3bfbda6e	0.007685951
239	0xbc7ab679	-0.015302294
240	0xbd8db822	-0.06919886
241	0x3d9c3fe6	0.07629375
242	0x3d3b3b44	0.045710817
243	0xbc424c46	-0.011859005
244	0x3da22124	0.07916477
245	0x3d915115	0.07095543
246	0xbdaf595c	-0.08561966
247	0xbd80b0f9	-0.06283755
248	0x3d881d1a	0.06646176
249	0xbddffb46	-0.109365985
250	0xbdd6eb80	-0.10494137
251	0xbcc8506a	-0.024452407
252	0x3b82880c	0.003983503
253	0xbdc00b72	-0.09377183
254	0xbd27b656	-0.040945373
255	0xbd0c451b	-0.03424559

2.bias f4 [32]
0	0xbeda22f1	-0.42604783
1	0xbec01e9e	-0.3752336
2	0xbf00366a	-0.5008303
3	0xbee3aceb	-0.44467863
4	0xbed79a40	-0.4210987
5	0xbeb57862	-0.35443407
6	0x3f8937d3	1.0720161
7	0xbed46a2c	-0.41487253
8	0xbe4e6aed	-0.20157976
9	0xbe9cccfb	-0.30625138
10	0xbedb8554	-0.4287516
11	0x3f2f7961	0.68544585
12	0xbec14094	-0.37744582
13	0xbead3daa	-0.33836108
14	0x3fd03a5d	1.6267811
15	0x3fd799cb	1.6843809
16	0xbcb4eb11	-0.022084745
17	0x3eac52a2	0.33656794
18	0xbe482ca6	-0.19548282
19	0x3e7dd01b	0.24786417
20	0x3cb6ce9c	0.022315316
21	0xbec2d704	-0.3805467
22	0xbe81e1d0	-0.25367594
23	0xb75b0c67	-1.3056305e-05
24	0xbe9e965d	-0.30974093
25	0xbed75516	-0.42057103
26	0xbe893326	-0.26796836
27	0xbc948817	-0.018131299
28	0xbee894c2	-0.45425993
29	0xbf013190	-0.5046625
30	0xbec4b0f9	-0.3841627
31	0xbeda3237	-0.42616436

5.weight f4 [100, 2048]
0	0xbbb6b723	-0.005576031
1	0x3c4da11d	0.012550619
2	0x3cd90fb4	0.026496746
3	0x3cb1ec5c	0.02171915
4	0x3d03913b	0.032120924
5	0x3b3b3a03	0.0028568513
6	0x3b160be8	0.002289528
7	0xbc079a0a	-0.008276472
8	0x3cb3f8ba	0.021969188
9	0xbc2664d7	-0.010155878
10	0xbbaed0fd	-0.005334972
11	0x3caed672	0.02134249
12	0xbce45a28	-0.027875021
13	0xbc45c301	-0.012070418
14	0xbc6da439	-0.014504486
15	0xbca04232	-0.019562814
16	0xbbe8d611	-0.007105597
17	0xbbd58aa2	-0.0065167705
18	0x3b9766c4	0.004620405
19	0xbb99f18e	-0.004697985
20	0xbb7377fc	-0.0037150374
21	0x3c646b10	0.013941541
22	0xbbacd20e	-0.005274064
23	0xbd0af085	-0.033920784
24	0xbca2202c	-0.019790731
25	0xbc29c0f3	-0.010360944
26	0x3cb2500f	0.02176669
27	0xbd193a23	-0.03740896
28	0xbc88471f	-0.016635476
29	0xbc2f3123	-0.010692867
30	0xbd822189	-0.063540526
31	0x3cdb3bf3	0.026761984
32	0xbc3a0394	-0.011353392
33	0xbd061308	-0.032732993
34	0xbc089f01	-0.008338691
35	0xbc86b497	-0.016443534
36	0x3c8837ae	0.016628113
37	0x3b7d991b	0.0038695994
38	0xbc2f0a52	-0.010683613
39	0x3c053e23	0.00813249
40	0xbb05af0a	-0.002039852
41	0x3dbcdfcc	0.09222373
42	0x3dac4f04	0.084135085
43	0x3d054919	0.032540414
44	0x3cb0c0cf	0.021576313
45	0x3c5b2543	0.013375583
46	0x3cee2d85	0.02907444
47	0xbcb64a54	-0.02225224
48	0x3cf553cd	0.029947186
49	0x3d8f82e1	0.07007385
50	0x3c1898bc	0.009313758
51	0xbce2a2c4	-0.027665503
52	0xbcb3fcd4	-0.021971144
53	0xbc9957ec	-0.018718682
54	0x3cc03384	0.023462065
55	0xbafd7600	-0.0019337535
56	0xbbf315c5	-0.0074183666
57	0x3c966bbc	0.018361919
58	0xbce35058	-0.027748272
59	0x3ab9fbc2	0.001418941
60	0x3b059386	0.002038212
61	0xbd133153	-0.03593571
62	0xbbbab4f2	-0.00569784
63	0x3bb33db6	0.005470003
64	0x3c593afa	0.01325869
65	0x3d073d33	0.03301735
66	0xbcb8c4d4	-0.022554792
67	0xbc4214e4	-0.011845801
68	0xbcd28148	-0.025696412
69	0x3c87e6d7	0.016589565
70	0x3c956b8a	0.018239755
71	0x3cae5a7e	0.021283384
72	0x3c80347d	0.015650028
73	0x3b700aa7	0.0036627443
74	0x3c2de33a	0.010613257
75	0xbd099eab	-0.033598583
76	0xbc327a87	-0.010893471
77	0x3c701bbd	0.014655051
78	0x3d3b61c7	0.045747545
79	0xbb1553ea	-0.0022785612
80	0x3bd061dc	0.006359322
81	0xbb35a778	-0.0027718227
82	0x3c738b35	0.0148647325
83	0xbbb9525b	-0.0056555695
84	0xbc81e00d	-0.015853906
85	0x3d475c56	0.048672043
86	0x3c5aa773	0.013345587
87	0xbc2ba647	-0.010476655
88	0xbbcabe93	-0.006187269
89	0x3b29f176	0.0025931275
90	0x3c61a3de	0.013771979
91	0x3c36bb4c	0.0111530535
92	0xbd078c41	-0.03309274
93	0x3c99889e	0.018741902
94	0x3d18c124	0.03729357
95	0x3c75c5ce	0.015000774
96	0xbca96fb0	-0.02068314
97	0x3b23d890	0.0025000907
98	0xbb9d005f	-0.004791304
99	0x3aed96ad	0.001812657
100	0xbc5a822c	-0.013336699
101	0xbc571b38	-0.013129048
102	0x3c35dc88	0.011099942
103	0xbba000d6	-0.004882912
104	0x3c10bf55	0.00883468
105	0x3a14d749	0.0005677832
106	0xbce45248	-0.027871266
107	0x3c88854b	0.016665122
108	0x3bccdbc5	0.0062517845
109	0xbc579a27	-0.013159311
110	0xbb5d0920	-0.0033727363
111	0xbc852263	-0.016251748
112	0xbbc6f1a1	-0.006071285
113	0xbd3465d0	-0.04404241
114	0x3b453a16	0.0030094436
115	0xbb9a5d9e	-0.004710867
116	0xbd07455e	-0.033025138
117	0x3cc3c8bd	0.02389943
118	0x3be1e5a2	0.0068938294
119	0xbc40b249	-0.0117612565
120	0x3c261548	0.01013691
121	0xbd337731	-0.04381484
122	0xbc4c36b8	-0.012464218
123	0xbc94a3b8	-0.018144473
124	0xbc814c17	-0.015783353
125	0xbbeba327	-0.00719108
126	0xbc647139	-0.01394301
127	0xb9d2f2e5	-0.00040235292
128	0xbc04b9e8	-0.008100964
129	0xbcbfc2c5	-0.023408303
130	0xbd1a70a4	-0.03770508
131	0xbc1ab3a2	-0.009442242
132	0x3ce8ccf7	0.028418047
133	0x3d2375fd	0.039907444
134	0x3d05d261	0.032671336
135	0x3bf49943	0.0074645593
136	0xbcb45720	-0.0220142
137	0x3ca0ead5	0.019643227
138	0xbcecb825	-0.0288964
139	0xbc6b748f	-0.014371051
140	0x3d3a9b42	0.04555822
141	0x3d6fbdb7	0.058530536
142	0x3ac94f36	0.001535869
143	0x3d0d1043	0.034439337
144	0xbcc9bd95	-0.024626533
145	0x3c8e1faf	0.017349092
146	0xbbab57f1	-0.0052289893
147	0xbb23b1c2	-0.0024977778
148	0x3c8dea74	0.01732371
149	0xbb670083	-0.0035248108
150	0xbcb09d21	-0.0215593
151	0x3c4275d1	0.01186891
152	0xbc6807f0	-0.014162049
153	0xbd02b0fc	-0.031907067
154	0xbc81dfb0	-0.015853733
155	0x3c8ea488	0.017412439
156	0x3d26a842	0.040687807
157	0x3d74b6d0	0.059744656
158	0x3c42d050	0.011890486
159	0x3c0ad8ad	0.008474511
160	0xbad45097	-0.0016198334
161	0xbd5c050e	-0.053715758
162	0xbd0b18bc	-0.033959135
163	0x3c99d475	0.018778065
164	0x3c8068a0	0.01567489
165	0xba307d2f	-0.0006732521
166	0x3bd487cd	0.0064859153
167	0x3c297f5c	0.010345306
168	0x3cb5ca68	0.022191241
169	0xbd1f0dd9	-0.038831566
170	0xbc8140e7	-0.015778018
171	0x3c827c97	0.01592855
172	0xbd47e209	-0.04879955
173	0xbd01791b	-0.031609636
174	0xbd40d3da	-0.047077037
175	0x3cdf17ba	0.027232993
176	0x3bc3033a	0.0059513124
177	0xbca4605e	-0.020065483
178	0xbd4a5303	-0.049395572
179	0x3c94aef8	0.018149838
180	0x3c833aae	0.016019192
181	0xbd1ea249	-0.038728986
182	0xbc1b292c	-0.009470265
183	0x3bb63ad2	0.005561211
184	0xbcc16678	-0.023608431
185	0xbcb97848	-0.022640362
186	0xbd5d3434	-0.054004863
187	0xbcefcb55	-0.029271761
188	0xbc873d9e	-0.016508874
189	0x3bfc13fa	0.007692811
190	0x3c816e23	0.015799588
191	0xbb8ec205	-0.004356625
192	0x3c7b1364	0.015324447
193	0xbbd34834	-0.0064478163
194	0x3c4fc6d6	0.0126816835
195	0x3bfccd99	0.007714939
196	0xbb888b1a	-0.004166973
197	0x3afb4b9b	0.0019172312
198	0xbb942829	-0.004521389
199	0xbd425232	-0.04744167
200	0xbb94a91e	-0.004536762
201	0xbc398dc0	-0.0113253
202	0x3b947523	0.0045305653
203	0xbc816270	-0.015794009
204	0x3d2affed	0.041747976
205	0xbce2521c	-0.027627043
206	0x3c0848c1	0.008318127
207	0x3af0718c	0.0018344386
208	0xbc10fde9	-0.008849599
209	0x3d1d7401	0.038440708
210	0x3b84ad11	0.0040489514
211	0x3a6d60a6	0.0009055234
212	0x3ce99d67	0.028517438
213	0xbc89e13e	-0.016831037
214	0xbd717b33	-0.058955383
215	0xbc5d1db6	-0.013495853
216	0xba9c0af4	-0.001190512
217	0x3aa7c964	0.0012801108
218	0x3c54040e	0.01294042
219	0x3b96808f	0.004592962
220	0xbc914f2d	-0.01773795
221	0x3ca640cb	0.020294568
222	0x3c7813b9	0.015141421
223	0xbd1fdf53	-0.039031338
224	0x3cb30062	0.021850768
225	0xbd9762e1	-0.073919065
226	0xbaf4bcb9	-0.0018671966
227	0x3c4fed79	0.012690895
228	0xbc98d486	-0.018656027
229	0x3aadc4cb	0.0013257501
230	0x3cce41d1	0.025177868
231	0xbade4c79	-0.0016960046
232	0xbbc04e02	-0.0058686743
233	0x3c130c16	0.0089750495
234	0x3beedc50	0.007289447
235	0xbb7469d9	-0.0037294535
236	0xbc7d94b2	-0.015477346
237	0xbd39e065	-0.045380015
238	0x3b2fa2b1	0.0026799852
239	0x3c3908b1	0.011293576
240	0xbb95e9d6	-0.0045749946
241	0xbcc4d74d	-0.024028445
242	0xbbef2f13	-0.007299313
243	0xbd098fe9	-0.03358451
244	0xbc2b6350	-0.01046069
245	0xbcf67bdc	-0.030088358
246	0xbd2fa001	-0.0428772
247	0xbc8e7581	-0.017390015
248	0xbbe3ba38	-0.0069496892
249	0xbcd4afe8	-0.025962785
250	0xbc9908ff	-0.018681047
251	0xbc53ddce	-0.0129313
252	0xbd233461	-0.039844874
253	0xbd6bad14	-0.057538107
254	0x3c28159c	0.010259058
255	0xbca12750	-0.019672066

5.bias f4 [100]
0	0xbd5705b2	-0.052495666
1	0x3d43a9dc	0.047769412
2	0xbcff8f2e	-0.031196203
3	0xbc743394	-0.014904875
4	0x3c4cf5f1	0.012509809
5	0xbcbeac1a	-0.023275424
6	0xbd5545d3	-0.052068543
7	0xbd5d70cd	-0.054062653
8	0xbcc05eff	-0.023482798
9	0x3cc7a9e6	0.024373006
10	0x3c9f7de1	0.019469203
11	0x3cfac919	0.030613469
12	0xbc7a9536	-0.015294364
13	0x3d13b63d	0.036062468
14	0x3e479435	0.1949013
15	0xbd1b9945	-0.037987966
16	0x3d69a2ae	0.05703991
17	0xbd462302	-0.04837323
18	0x3d496a41	0.049173597
19	0xbd639cdd	-0.05556952
20	0xbd9d54a2	-0.07682158
21	0xbcea1ca6	-0.028578114
22	0xbd069f14	-0.032866552
23	0x3c2c55e6	0.010518527
24	0xbd840659	-0.06446523
25	0x3bcde7d1	0.006283738
26	0xbd31e76a	-0.043433584
27	0xbd45c122	-0.04827989
28	0xbd5d29dc	-0.053995
29	0x3dde51ee	0.108554706
30	0xbcbc0a51	-0.022954138
31	0xbd2516b7	-0.040304866
32	0xb966e624	-0.00022020243
33	0xbcaee155	-0.021347681
34	0xbcdccd86	-0.02695347
35	0xbcad9af7	-0.021192057
36	0x3da1dcec	0.07903466
37	0xbd2b4ef5	-0.041823346
38	0x3d20da14	0.039270476
39	0xbc13dd0e	-0.0090248715
40	0x3d190247	0.037355687
41	0x3cbb73e2	0.022882406
42	0x3d54c359	0.05194411
43	0xbdb5d14a	-0.08877809
44	0xbb06d037	-0.0020570883
45	0x3d75cc77	0.060009446
46	0x3c568960	0.013094276
47	0x3c8df10b	0.017326852
48	0x3d383c31	0.044979278
49	0x3c8c55b7	0.017130716
50	0xbccf4944	-0.02530349
51	0xbd61260d	-0.05496793
52	0x3c969d59	0.018385576
53	0xbc7c9b33	-0.015417862
54	0x3e03c628	0.1286856
55	0x3d94cc4a	0.072655275
56	0xbcbd7936	-0.023129087
57	0xbcfbd860	-0.030742824
58	0xbd0799e1	-0.033105735
59	0x3e010370	0.12598968
60	0xbcfaf447	-0.030634059
61	0x3d2e9082	0.042618282
62	0xbcd81e2a	-0.02638157
63	0x3b832ace	0.0040029055
64	0xbce7f968	-0.028317168
65	0x3c339571	0.010960923
66	0x3e096141	0.13416006
67	0xbd4e261a	-0.050329305
68	0x3d52dcf4	0.05148025
69	0xbd26ddd6	-0.040738903
70	0xbd61c439	-0.055118773
71	0x3b98fb2f	0.0046686153
72	0xbd1d098e	-0.03833919
73	0x3e148eda	0.14507619
74	0xbda19430	-0.07889593
75	0x3c852c2d	0.016256416
76	0x3cbf9fc0	0.023391604
77	0xbdaa27a9	-0.08308346
78	0xbce6de0a	-0.028182048
79	0x3b0532e4	0.0020324523
80	0xbd3d6670	-0.04624027
81	0xba4c50b9	-0.0007794011
82	0x3d77c737	0.06049272
83	0xbd405c63	-0.046963107
84	0xbdaa7726	-0.08323507
85	0x3c929cd8	0.017897055
86	0xbce12b0a	-0.027486343
87	0x3d5dbabb	0.05413316
88	0x3cd6f593	0.026240146
89	0xbd53a17a	-0.051667668
90	0x3b7b674c	0.003836113
91	0xbd4b6666	-0.0496582
92	0xbc8354c1	-0.016031625
93	0xbd41665a	-0.04721675
94	0xbd413c09	-0.047176395
95	0xbd60668d	-0.0547853
96	0x3dac4545	0.084116496
97	0xbd0c4485	-0.034245033
98	0xbc2081dc	-0.009796586
99	0x3db24183	0.087039016

7.weight f4 [10, 100]
0	0xbdcea388	-0.10089785
1	0xbd67fe55	-0.056639034
2	0xbdec3319	-0.115331836
3	0x3e45f300	0.19330978
4	0x3df10fce	0.11770593
5	0xbd655798	-0.05599174
6	0x3e105912	0.14096478
7	0x3dcdbb44	0.10045484
8	0xbd6c0361	-0.05762041
9	0x3e009c19	0.12559547
10	0x3d0382fc	0.03210734
11	0xbcf5f6c0	-0.030024886
12	0xbdcad33e	-0.099035725
13	0xbd5d9785	-0.05409958
14	0xbd28217b	-0.041047554
15	0xbd977347	-0.07395034
16	0x3d31ebde	0.04343783
17	0xbdaffb9b	-0.08592912
18	0xbce3bf23	-0.027801102
19	0xbda09935	-0.07841722
20	0xbdab9e58	-0.08379811
21	0xbd51b7d8	-0.051200718
22	0xbdf18f71	-0.117949374
23	0xbdac1f32	-0.084043875
24	0x3f2e08d9	0.6798225
25	0xbe962150	-0.2932229
26	0xbe07ba7d	-0.13254733
27	0xbd8f8389	-0.0700751
28	0xbe007731	-0.12545468
29	0x3e2e0999	0.16995849
30	0x3f2bf565	0.6717132
31	0x3da1e9ab	0.07905897
32	0x3ca74ea6	0.020423245
33	0xbd2b3081	-0.041794304
34	0xbe05fb5b	-0.13084166
35	0xbd13d9fd	-0.03609656
36	0x3e092f07	0.13396846
37	0xbdd95ac3	-0.106130145
38	0xbe9812f1	-0.2970195
39	0x3f0f1cdf	0.5590343
40	0x3f0750d7	0.52857727
41	0x3e24309d	0.1603417
42	0xbd8abed9	-0.067746826
43	0x3ee39710	0.4445119
44	0xbd697ec2	-0.05700565
45	0x3de1c544	0.110239536
46	0x3ef02291	0.46901372
47	0xbe43d8e6	-0.19125709
48	0xbd393e6d	-0.04522555
49	0x3e785c24	0.24253899
50	0xbda7e0f3	-0.081972025
51	0xbd8204b3	-0.063485526
52	0x3e6603bc	0.22462362
53	0xbda042c5	-0.07825235
54	0xbe45ccca	-0.19316402
55	0xbd460380	-0.04834318
56	0x3e114137	0.14185034
57	0xbd7db09a	-0.061936
58	0xbd985718	-0.07438487
59	0xbcd6ae7e	-0.026206251
60	0xbdf5e040	-0.12005663
61	0xbd6fcc33	-0.05854435
62	0xbde79f6d	-0.11309705
63	0xbd0e54b1	-0.034748737
64	0xbd90c2a7	-0.07068377
65	0xbd34b412	-0.04411704
66	0x3e73e8c3	0.2381926
67	0xbda944a3	-0.082650445
68	0xbd9bb6a1	-0.07603193
69	0xbdce30cc	-0.10067901
70	0x3e486f52	0.19573715
71	0x3ec9fcc8	0.3945067
72	0xbd70aadf	-0.058756705
73	0x3ebf71eb	0.373916
74	0x3d926be9	0.071494885
75	0xbc888457	-0.016664667
76	0xbd934dfd	-0.071926095
77	0xbd928aca	-0.07155378
78	0xbd1c32b9	-0.03813431
79	0xbdbfc2df	-0.093633406
80	0xbe020bcb	-0.12699811
81	0xbccc21a5	-0.024918387
82	0x3def990d	0.11699114
83	0xbd8024b0	-0.062569976
84	0xbde249f8	-0.11049265
85	0x3ea7db28	0.3278439
86	0xbe26d68b	-0.16292779
87	0xbe359d9a	-0.17735901
88	0xbd7ed050	-0.06221038
89	0x3e9a2934	0.3010956
90	0xbda97527	-0.08274298
91	0xbdc33bec	-0.095329136
92	0xbd81f8a5	-0.06346253
93	0xbd827dac	-0.06371626
94	0xbd1d258e	-0.038365893
95	0xbd244672	-0.040106244
96	0x3ebcddf7	0.36888096
97	0xbd43a928	-0.04776874
98	0xbd095efd	-0.033537854
99	0xbd5254df	-0.05135047
100	0xbdc8d263	-0.09805753
101	0xbe176e83	-0.1478825
102	0xbd830d16	-0.0639898
103	0xbd67de04	-0.056608215
104	0x3da53068	0.080658734
105	0x3ef4c2e4	0.4780494
106	0x3c99299a	0.018696595
107	0xbd81ca42	-0.06337406
108	0xbd87a99f	-0.066241495
109	0xbdcf29bb	-0.10115381
110	0xbdbbc93a	-0.0916924
111	0xbd0a256a	-0.033727087
112	0xbde69b5d	-0.11260102
113	0xbd809f68	-0.06280404
114	0xbd4f62ff	-0.05063152
115	0xbd91aa82	-0.071126
116	0xbe421ed2	-0.1895707
117	0xbdb33f7a	-0.087523416
118	0xbd92a1cf	-0.07159769
119	0xbdabc972	-0.08388032
120	0x3f39e15a	0.72609484
121	0xbd33fdc3	-0.043943178
122	0xbde02372	-0.10944261
123	0xbdaaf078	-0.08346647
124	0xbd9aaade	-0.075521216
125	0x3e9dbcff	0.30808255
126	0x3dcadb13	0.09905066
127	0xbe28a510	-0.16469216
128	0xbdc53323	-0.09628894
129	0xbd3e76e6	-0.04650011
130	0xbd90ce68	-0.07070619
131	0xbe174aac	-0.14774579
132	0xbd45333e	-0.04814457
133	0xbd40c465	-0.047062296
134	0xbde5c736	-0.11219637
135	0xbd2caf08	-0.04215911
136	0xbe27f456	-0.164018
137	0xbdddaf97	-0.10824507
138	0x3d54d10b	0.05195717
139	0xbd92f80a	-0.07176216
140	0xbd96eaef	-0.07369029
141	0x3e832d17	0.25620338
142	0xbd820d55	-0.06350199
143	0xbdc1e432	-0.09467353
144	0xbd789111	-0.06068522
145	0x3e98e21e	0.29860014
146	0xbd46adf2	-0.04850573
147	0x3c87eb8f	0.016591815
148	0xbd485006	-0.04890444
149	0xbd9cdac2	-0.07658912
150	0x3e8d82a2	0.27638727
151	0xbd74449f	-0.059635755
152	0xbe6cee98	-0.23137891
153	0x3f279db9	0.6547504
154	0xbe40f996	-0.1884521
155	0xbd4f3a36	-0.050592624
156	0x3ef4d386	0.4781763
157	0xbd4ee54f	-0.050511654
158	0x3f270d65	0.65254813
159	0xbd232182	-0.039826877
160	0xbdcdb518	-0.100443065
161	0xbd61fed6	-0.05517467
162	0xbe0331d3	-0.12811975
163	0xbd6d63d0	-0.057956517
164	0xbd8e385a	-0.06944342
165	0xbd5767ac	-0.052589104
166	0xbdf26383	-0.118353866
167	0x3eaf75ba	0.34269506
168	0xbd868afa	-0.065694764
169	0x3f175a23	0.5912191
170	0xbdae3cb7	-0.08507674
171	0xbde14d5f	-0.110010855
172	0x3efcdcca	0.493872
173	0xbd7d202b	-0.061798256
174	0xbe91917a	-0.28431302
175	0xbdc9e332	-0.09857787
176	0xbd641ead	-0.055693317
177	0xbe8a8982	-0.27058035
178	0xbd383de6	-0.044980906
179	0x3e8d1ddb	0.2756184
180	0x3e63d437	0.22248922
181	0x3e6de486	0.23231706
182	0xbe1a46ec	-0.15066117
183	0xbe346e4d	-0.17620201
184	0x3ef5c168	0.4799912
185	0xbdf90811	-0.12159742
186	0x3de1fa69	0.1103409
187	0xbe37acf3	-0.17937069
188	0xbd8ba0fc	-0.06817815
189	0xbe71742c	-0.23579472
190	0xbda85780	-0.08219814
191	0xbd519697	-0.051169004
192	0xbd805e79	-0.06268019
193	0xbd81b697	-0.063336544
194	0xbda29b98	-0.079398334
195	0x3ee70aac	0.4512533
196	0xbdfb72b9	-0.12277741
197	0xbd74acc4	-0.059735075
198	0xbcc92203	-0.02455235
199	0xbd40fa59	-0.04711375
200	0x3e809c6a	0.25119334
201	0x3d077f59	0.033080433
202	0xbd82fb0c	-0.0639554
203	0xbce9e2f0	-0.028550595
204	0xbb8ebe6d	-0.0043561966
205	0xbd507559	-0.05089316
206	0xbde3f897	-0.11131399
207	0xbda07f8f	-0.0783683
208	0xbd63924c	-0.05555944
209	0x3dbe32ce	0.09287034
210	0x3e1d789e	0.15378043
211	0xbd09e4bf	-0.033665415
212	0xbdc95d32	-0.09832229
213	0xbd302ad8	-0.04300961
214	0xbd2a1f04	-0.041533485
215	0xbd81d3fb	-0.0633926
216	0x3e3f116f	0.18658994
217	0xbdacc06e	-0.084351406
218	0xbdabd11f	-0.08389496
219	0xbdb0a346	-0.08624892
220	0xbd9b8918	-0.07594508
221	0xbd4d0369	-0.05005208
222	0xbcd6edb0	-0.026236385
223	0xbdabf1dc	-0.083957404
224	0xbd936d01	-0.07198525
225	0xbcaaee49	-0.020865576
226	0xbdcd2816	-0.100174114
227	0xbd889e31	-0.066707976
228	0xbd2dffd8	-0.04248032
229	0xbc1e0ac9	-0.009646126
230	0xbda2122d	-0.07913623
231	0x3dfdc1a4	0.1239045
232	0x3eb9a27b	0.36256775
233	0xbd1bc06b	-0.0380253
234	0xbb7a0464	-0.003814959
235	0xbd255b9f	-0.04037058
236	0x3e146760	0.1449256
237	0xbdb39520	-0.08768678
238	0x3d826ab2	0.06368007
239	0xbd8c979e	-0.06864856
240	0xbd738abb	-0.059458476
241	0xbdf46251	-0.11932815
242	0xbd776016	-0.06039437
243	0x3d25a595	0.040441114
244	0xbd60c787	-0.054877784
245	0xbda79510	-0.08182728
246	0xbd4cd51a	-0.050007917
247	0xbc9ec194	-0.019379415
248	0xbd58a374	-0.052890256
249	0x3eabf7b2	0.33587414
250	0xbdb1f8c2	-0.08690025
251	0xbd8711c1	-0.06595183
252	0x3dfb64ea	0.12275107
253	0xbd9021fa	-0.070377305
254	0x3d87fa8b	0.06639584
255	0xbd2c19bb	-0.042016726

7.bias f4 [10]
0	0xbde49591	-0.1116134
1	0xbee80bdc	-0.45321548
2	0xbe27b5a8	-0.1637789
3	0x3edebc69	0.4350312
4	0x3d8d20d3	0.06891026
5	0x3e1b380e	0.15158102
6	0xbdb37b7d	-0.08763788
7	0xbbf01d28	-0.0073276944
8	0xbb467ecd	-0.0030287981
9	0x3e2f302f	0.17108224
