models/non_seq_trained/l_inf/more_mnist_small_0_3_2.pth (torch, 668111 bytes, 8 tensors)

0.weight f4 [16, 1, 4, 4]
-0.03398692 -0.03676587 -0.010982679 0.029678602 -0.05597913 -0.0086803995 -0.02062768 -0.017825406
0.035913948 0.002836941 -0.16958381 -0.015703877 -0.062919654 -0.06575822 0.04629674 0.0055331644
-0.011754359 -0.00058446376 -0.054424558 0.10538174 -0.010746503 -0.019163385 -0.027812066 -0.059732735
0.009404226 -0.054978915 0.0019007509 -0.049087565 -0.022816755 -0.01825679 0.0106436005 -0.010438299
-0.055532437 -0.20640218 -0.14223152 0.016756807 -0.03357977 -0.02015407 -0.036052316 -0.062159974
-0.03604291 -0.09888319 -0.22528802 -0.044805516 0.044734225 0.032013975 -0.01843271 -0.01685486
-0.009365046 -0.03027008 0.00075460714 -0.018383123 -0.018271098 -0.002632529 -0.00671663 -0.0116057275
-0.01519734 -0.008336712 0.006599762 0.030365812 -0.015593156 0.011096554 0.0033681695 -0.0013222382
-0.015248056 -0.013438292 -0.011612793 0.015001426 -0.020499106 -0.00011732907 -0.0071636434 -0.012376472
-0.008250563 -0.038002677 -0.03004934 -0.0037294228 -0.005916541 -0.029981801 0.0033098422 -0.055479754
-0.0047848783 -0.0028527146 -0.004958373 0.00017755873 0.0003464585 -2.6326754e-05 -4.803022e-05 -2.8247403e-05
0.00055925304 -0.0036799475 0.0012759671 -0.0001279785 -2.784663e-05 -0.00010281964 -0.00025265932 9.543178e-05
-0.02782412 -8.5455744e-05 -0.0038665542 -0.0089544635 -0.030481683 -0.0062881014 -0.040501975 -0.046157043
0.006056232 -0.0047090743 0.0106505165 -0.01993441 -0.03840618 -0.038267285 -0.030249177 0.010839841
-0.089109145 -0.24659431 -0.083453104 -0.021550398 -0.02683347 -0.22267668 -0.069834776 -0.05738257
-0.12234093 -0.07442824 -0.15770876 -0.1374291 0.018763823 -0.027162503 -0.043186154 -0.05427542
-0.002506065 -0.0015389009 0.0011369456 0.0011178014 0.00025748217 -0.0023030345 0.002706451 -0.00029405812
-0.0016911398 2.6240292 0.0034753988 0.0009948538 -0.0006662078 0.0033148373 -0.000541242 -0.006125638
-0.022009829 0.0022305406 -0.0016350147 -0.0028346588 -0.028863063 -0.023546357 -0.025511196 -0.0166825
0.006450725 -0.050469182 -0.027298115 -0.011262902 -0.01727571 -0.020834493 -0.0100143785 -0.022285284
0.0012006663 -0.0029363413 0.0033649085 -0.0006462364 -0.0005282717 7.017581e-05 -0.0016088799 0.00027500273
-0.0063182157 -0.0041169175 0.00046864885 0.00043328994 -0.0003968007 0.00027767927 0.00081412576 0.00017909928
-0.025507454 -0.05811794 -0.024186904 -0.015834786 -0.04210899 -0.00066353194 -0.021645311 -0.0066459035
-0.008524053 -0.01412201 -0.0052740998 -0.03213954 -0.043583922 -0.05658023 0.0062886016 -0.017962247
-0.013557488 -0.051639635 0.0076708193 -0.014782207 -0.039204035 0.000287695 -0.057711948 -0.014167418
-0.029501515 0.021746302 -0.019395977 0.1105696 -0.0025169787 -0.04476074 -0.036155317 -0.0020473166
0.0112801995 -0.01562757 -0.0035377196 -0.041506924 -0.020794956 -0.04323841 0.0036205405 -0.00094331126
0.034160387 0.022065856 -0.027426999 0.0042313994 -0.023180256 0.010836264 -0.013497227 -0.016134618
0.0017346311 -3.4720774e-06 -0.00096229714 -0.00028766782 -0.0012834856 0.0021975485 0.007035599 0.0008200915
-9.067319e-05 0.0010661036 2.3619568 0.0008542545 0.00063937955 8.282002e-05 0.003275715 0.0032077902
0.0025577436 -0.012935424 0.00016142332 -0.0076999445 -0.009056629 -0.040310327 -0.0072520827 -0.054022815
-0.044001702 -0.007646185 -0.0057460223 -0.018886235 -0.036203865 -0.052479085 -0.015287338 -0.0018061905
00000000: de35 0bbd cf97 16bd b2f0 33bc 8a20 f33c
00000010: 5f4a 65bd 3c38 0ebc 61fb a8bc 9606 92bc
00000020: 811a 133d f9eb 393b 61a7 2dbe 6ba5 80bc
00000030: 05dc 80bd 3fac 86bd a7a1 3d3d 8c4f b53b
00000040: 5b95 40bc b336 19ba 49ec 5ebd 62d2 d73d
00000050: 1a12 30bc 88fc 9cbc 21d6 e3bc 50aa 74bd
00000060: 2f14 1a3c 9231 61bd 9e22 f93a 0b10 49bd
00000070: 34ea babc 438f 95bc 7f62 2e3c 6605 2bbc
00000080: fb75 63bd 185b 53be 24a5 11be 9245 893c
00000090: f18a 09bd 261a a5bc 98ab 13bd 759b 7ebd
000000a0: bba1 13bd 4583 cabd e7b1 66be fd85 37bd
000000b0: 3c3b 373d 1621 033d 3200 97bc 3413 8abc
000000c0: da6f 19bc f5f8 f7bc d4d0 453a 3498 96bc
000000d0: 45ad 95bc 8286 2cbb 2d17 dcbb f325 3ebc
000000e0: 44fe 78bc b496 08bc d142 d83b b9c1 f83c
000000f0: 707a 7fbc 52ce 353c 82bc 5c3b f44e adba
00000100: fbd2 79bc 482c 5cbc 9643 3ebc 8bc8 753c
00000110: beed a7bc 910e f6b8 ffbc eabb b0c6 4abc
00000120: 5f2d 07bc b2a8 1bbd 092a f6bc 5569 74bb
00000130: 8bdf c1bb 659c f5bc f0e9 583b bd3e 63bd
00000140: 78ca 9cbb 9cf4 3abb d979 a2bb 0f2f 3a39
00000150: dfa4 b539 46d8 dcb7 0e74 49b8 d6f4 ecb7
00000160: d69a 123a 462b 71bb 5a3e a73a f831 06b9
00000170: 2f98 e9b7 e0a0 d7b8 5c77 84b9 8c22 c838
00000180: 69ef e3bc b436 b3b8 0466 7dbb beb5 12bc
00000190: b9b4 f9bc 6b0c cebb 66e5 25bd 2b0f 3dbd
000001a0: 5b73 c63b 944e 9abb 817f 2e3c 7d4d a3bc
000001b0: cc4f 1dbd 28be 1cbd 1fcd f7bc 9799 313c
000001c0: db7e b6bd 3883 7cbe 76e9 aabd 768a b0bc
000001d0: ded1 dbbc 5b05 64be 8905 8fbd fc09 6bbd
000001e0: e28d fabd d56d 98bd 687e 21be 37ba 0cbe
000001f0: 97b6 993c e683 debc f7e3 30bd e74f 5ebd
00000200: cb3c 24bb f2b4 c9ba 9005 953a 3183 923a
00000210: acfe 8639 82ee 16bb b75e 313b d02b 9ab9
00000220: 3ca9 ddba 18f0 2740 84c3 633b c165 823a
00000230: 73a4 2eba be3d 593b 23e2 0dba 93b9 c8bb
00000240: f54d b4bc 432e 123b fd4d d6ba afc5 39bb
00000250: 3b72 ecbc 4ae4 c0bc dbfc d0bc bda9 88bc
00000260: 9a60 d33b c6b8 4ebd 4ca0 dfbc 0988 38bc
00000270: ca85 8dbc 19ad aabc 5913 24bc a18f b6bc
00000280: ad5f 9d3a a26f 40bb cc85 5c3b 3168 29ba
00000290: b77b 0aba 5a2b 9338 0de1 d2ba 3e2e 9039
000002a0: 0909 cfbb 35e7 86bb fcb4 f539 312b e339
000002b0: b009 d0b9 7b95 9139 0e6b 553a 99cc 3b39
000002c0: 02f5 d0bc 140d 6ebd 9d23 c6bc f4b7 81bc
000002d0: 7a7a 2cbd e0f0 2dba 8251 b1bc e1c5 d9bb
000002e0: 78a8 0bbc 0160 67bc 5bd2 acbb c0a4 03bd
000002f0: 0e85 32bd acc0 67bd 9d10 ce3b 9025 93bc
00000300: 3a20 5ebc 1584 53bd 7f5b fb3b 1231 72bc
00000310: 6994 20bd c5d5 9639 5d63 6cbd 751e 68bc
00000320: 29ad f1bc 4d25 b23c 50e4 9ebc 5072 e23d
00000330: e5f3 24bb 0a57 37bd 9917 14bd 462c 06bb
00000340: 96d0 383c 6405 80bc 16d9 67bb 2a03 2abd
00000350: 2f5a aabc c21a 31bd 9746 6d3b 8c48 77ba
00000360: c3eb 0b3d 74c3 b43c 96ae e0bc 8da7 8a3b
00000370: 85e4 bdbc 968a 313c 7923 5dbc bf2c 84bc
00000380: 905c e33a d601 69b6 ab42 7cba 1fd2 96b9
00000390: a13a a8ba bf04 103b e28a e63b 69fb 563a
000003a0: cc27 beb8 80bc 8b3a 4d2a 1740 0df0 5f3a
000003b0: 099c 273a a9af ad38 61ad 563b ca39 523b
000003c0: d19f 273b 1aef 53bc be43 2939 d14f fcbb
000003d0: 4162 14bc 711c 25bd e1a2 edbb 0747 5dbd
000003e0: 213b 34bd d98c fabb 2149 bcbb 4eb7 9abc
000003f0: 814a 14bd 4ff4 56bd be77 7abc b2bd ecba

0.bias f4 [16]
-0.39492914 -0.36452544 -0.5830047 -0.10991835 -0.12925462 0.86665577 -0.15983798 -0.5588729
-0.9608349 -0.10723677 0.016331432 -0.14602752 -0.41213155 -0.1875796 -0.8747719 -0.1298778
00000000: 2734 cabe 14a3 babe cc3f 15bf df1c e1bd
00000010: 535b 04be 27dd 5d3f 91ac 23be 4b12 0fbf
00000020: 47f9 75bf f49e dbbd 7fc9 853c 3d88 15be
00000030: e802 d3be de14 40be 0df1 5fbf b0fe 04be

2.weight f4 [32, 16, 4, 4]
0.103749186 0.036943484 -0.0760288 -0.014972877 0.03427377 0.055996187 0.031998105 0.018196672
0.019291654 -0.053486228 0.033983897 0.03858272 -0.044459756 0.045755494 -0.050804786 -0.005692899
-0.007489679 -0.013841678 -0.049646627 0.035992794 -0.06902369 -0.14206709 0.012708829 0.00035323238
-0.0037249508 -0.1607014 -0.06253797 0.00030231554 0.086551644 -0.07723078 -0.021928085 -0.01942213
-0.009285905 0.16898037 0.045521278 0.012284 -0.0015429178 0.07366443 0.16593634 0.10452111
0.0739613 0.051016677 0.0057306592 0.088750005 0.04184893 -0.036053106 0.044128023 0.0023787227
0.010219572 -0.0040182136 -0.015370542 -0.009884641 0.0011743089 -0.008020049 0.019704314 0.009027157
-0.007895462 -0.006770651 -0.0014813576 -0.0037280677 0.005757701 0.027100148 -0.0006969874 -0.009509813
3.01974e-05 -0.010008687 -0.001148279 0.017466031 0.0014523863 0.020287517 0.029701926 -0.017115153
0.021283457 0.0027598531 0.008945857 0.010960811 0.014430738 0.011218594 7.820618e-06 -0.003498363
0.04937919 -0.004395482 -0.012708969 0.028377824 0.03403634 -0.053278465 -0.044721894 0.008220037
-0.05784537 -0.14100172 -0.008047741 0.047433194 -0.024250316 -0.13630126 0.07496198 0.14363053
0.0129510285 0.020648053 -0.004360308 -0.02034405 -0.015690824 -0.03536897 -0.035310347 0.013194392
-0.020262254 -0.0028614532 -0.025217291 0.04676826 0.015731314 -0.007137804 -0.011303008 5.5955225e-05
0.11888841 0.0004442682 0.0788621 0.03611222 0.02791432 0.10262008 -0.022365302 0.060954213
-0.13568325 -0.054985885 0.053781476 0.10900932 -0.029670307 -0.054557797 0.033759065 -0.044096928
-0.0011926753 0.06799029 0.002688598 -0.0062496304 0.00020377204 0.012355288 0.011502818 0.0029274102
0.0021044607 -0.007894567 8.239595e-05 -0.011776376 0.0012599122 0.003091839 0.004994212 0.0005446353
-0.034802914 -0.011747683 0.012769098 -0.0014652682 -0.0027012464 -0.002128974 -0.02065482 -0.009574332
-0.021421572 -0.005897946 0.00042983447 0.009792317 0.015487025 0.00017734742 -0.020039797 0.0018071061
-0.004268125 0.0018310009 0.0011992324 -0.0011639252 -0.004617473 0.00037121764 -0.0013472285 -0.0013110478
-0.007489632 -0.0022165866 -0.00018104183 0.0059458422 0.0040334035 0.0030066862 -0.003417057 -0.0072073457
-0.031597253 -0.024203891 0.0018750419 -0.013018041 -0.0058265007 0.030245911 -0.015410307 -0.03231203
-0.014424194 -0.040423978 0.0075778477 -0.027386462 0.014010215 -0.005595682 0.00929386 -0.02962108
-0.033102844 -0.11412253 -0.036055177 -0.024847215 -0.013228768 -0.05558917 -0.0666194 -0.020108791
0.13471839 -0.015170669 0.0040013073 -0.002569197 0.06061275 0.121765375 0.011147537 0.003985741
0.047996625 0.025470244 -0.030803708 -0.028235283 -0.01272326 0.021117441 0.006277098 -0.01950755
0.032972127 0.0060332944 -0.013672304 -0.017968142 0.004611686 -0.02443994 -0.004714848 0.0018663275
0.006962993 -0.0007307631 0.0045779417 -0.005356123 0.01477833 0.014134273 0.044567756 -0.0032171132
0.0030896016 0.0011307077 -0.00868814 0.00461195 0.0011012761 0.02203756 -0.0028151113 0.0005661577
0.031423405 -0.0017660315 -0.012979097 0.022723438 -0.030893318 -0.006882573 -0.0034354765 0.0012954826
0.006388443 -0.009353406 0.00097501755 0.0053111487 0.010843856 0.024635661 0.015757456 0.0049343323
00000000: 747a d43d 0d52 173d fdb4 9bbd cc50 75bc
00000010: a762 0c3d 425c 653d 7210 033d 3011 953c
00000020: 8809 9e3c 6014 5bbd b332 0b3d ea08 1e3d
00000030: 6f1b 36bd 1d6a 3b3d ae18 50bd 808b babb
00000040: fb6b f5bb 35c8 62bc 435a 4bbd 2e6d 133d
00000050: 4b5c 8dbd 097a 11be b138 503c 0c32 b939
00000060: 4e1e 74bb e88e 24be e813 80bd 1b80 9e39
00000070: fd41 b13d 2c2b 9ebd 87a2 b3bc 291b 9fbc
00000080: e923 18bc 3109 2d3e 8574 3a3d d542 493c
00000090: bb3b caba 60dd 963d 37eb 293e 2a0f d63d
000000a0: 0679 973d ddf6 503d 41c8 bb3b 90c2 b53d
000000b0: c969 2b3d 6cac 13bd 96bf 343d 58e4 1b3b
000000c0: fe6f 273c 38ab 83bb bad4 7bbc 30f3 21bc
000000d0: 45eb 993a 8666 03bc f16a a13c a4e6 133c
000000e0: f85b 01bc 56dc ddbb 1d2a c2ba 9952 74bb
000000f0: 19ab bc3b 2101 de3c 08b6 36ba 0ccf 1bbc
00000100: 6c50 fd37 7afb 23bc da81 96ba ec14 8f3c
00000110: ff5d be3a 0232 a63c 7451 f33c 1435 8cbc
00000120: a55a ae3c a7de 343b a591 123c f994 333c
00000130: e76e 6c3c 32ce 373c 4c35 0337 cb44 65bb
00000140: d541 4a3d fa07 90bb 4839 50bc 9c78 e83c
00000150: b069 0b3d 853a 5abd 4e2e 37bd 56ad 063c
00000160: 44ef 6cbd c162 10be acda 03bc 4f49 423d
00000170: 99a8 c6bc 8f92 0bbe ab85 993d e213 133e
00000180: 8d30 543c 1b26 a93c eae0 8ebb 91a8 a6bc
00000190: 0b8a 80bc 0edf 10bd 95a1 10bd 4b2d 583c
000001a0: 07fd a5bc 3887 3bbb 7e94 cebc 1390 3f3d
000001b0: f5de 803c 3de4 e9bb 4030 39bc 77b1 6a38
000001c0: c47b f33d abec e839 7482 a13d 68ea 133d
000001d0: 92ac e43c 7a2a d23d 7037 b7bc 20ab 793d
000001e0: 8df0 0abe e138 61bd f749 5c3d 4740 df3d
000001f0: 250f f3bc ff77 5fbd f246 0a3d fb9e 34bd
00000200: 8b53 9cba 7e3e 8b3d 3033 303b b3c9 ccbb
00000210: a4ab 5539 d56d 4a3c 5176 3c3c cbd9 3f3b
00000220: feea 093b 3758 01bc fdcb ac38 b3f1 40bc
00000230: a323 a53a 73a0 4a3b 7da6 a33b dbc5 0e3a
00000240: 808d 0ebd 5b79 40bc 7b35 513c 3e0e c0ba
00000250: 6507 31bb 4286 0bbb 4c34 a9bc a9dd 1cbc
00000260: 4b7c afbc 8f43 c1bb 685b e139 f46f 203c
00000270: 4abd 7d3c 56f6 3939 802a a4bc 6bdc ec3a
00000280: a1db 8bbb 32fe ef3a 902f 9d3a d98e 98ba
00000290: 2c4e 97bb fd9f c239 7d95 b0ba 77d7 abba
000002a0: 966b f5bb 2744 11bb 0cd6 3db9 57d5 c23b
000002b0: a42a 843b d30b 453b b4f0 5fbb 992b ecbb
000002c0: 1f6c 01bd 3d47 c6bc f7c3 f53a 9f49 55bc
000002d0: 3bec bebb 46c6 f73c 837b 7cbc 9f59 04bd
000002e0: 7453 6cbc 9d93 25bd 984f f83b 9359 e0bc
000002f0: 1a8b 653c fc5b b7bb 4645 183c e8a7 f2bc
00000300: d996 07bd 13b9 e9bd 98ae 13bd 638c cbbc
00000310: 79bd 58bc 78b1 63bd c16f 88bd 31bb a4bc
00000320: 9ef3 093e 668e 78bc 661d 833b f95f 28bb
00000330: 1345 783d 2060 f93d 29a4 363c d29a 823b
00000340: 1c98 443d f9a6 d03c 0f58 fcbc ae4d e7bc
00000350: 3875 50bc 7cfe ac3c 1db0 cd3b 4cce 9fbc
00000360: c80d 073d f1b2 c53b cd01 60bc ed31 93bc
00000370: a01d 973b 4536 c8bc 037f 9abb 8f9f f43a
00000380: d229 e43b ae90 3fba 8f02 963b 6b82 afbb
00000390: cf20 723c 7093 673c ae8c 363d 34d6 52bb
000003a0: ea7a 4a3b 4134 943a b358 0ebc d71f 973b
000003b0: b258 903a 1d88 b43c bb7d 38bb 336a 143a
000003c0: d4b5 003d 2f7a e7ba 47a6 54bc 8126 ba3c
000003d0: fc13 fdbc 3587 e1bb bb25 61bb 2fcd a93a
000003e0: 2556 d13b 073f 19bc 5298 7f3a 2509 ae3b
000003f0: 6eaa 313c bad0 c93c c815 813c 2eb0 a13b

2.bias f4 [32]
0.18712251 -0.30148318 -0.19527362 -0.105338864 -0.28141877 -0.79484266 -0.25791162 -0.033358283
0.011564848 -0.06857974 0.08195874 0.8803663 0.7057945 -0.36102733 0.42002308 -0.009066473
-0.6925217 0.582602 0.44780922 -0.19309886 -0.36017436 0.97759074 0.10745424 0.032016523
-0.12334083 -0.27170905 -0.19452369 0.5975239 -0.23483752 -0.17540179 -0.013280221 0.6964009
00000000: 0b9d 3f3e 015c 9abe cff5 47be e7bb d7bd
00000010: 1f16 90be cf7a 4bbf fe0c 84be b2a2 08bd
00000020: 7d7a 3d3c 8973 8cbd fcd9 a73d b05f 613f
00000030: f3ae 343f 93d8 b8be 440d d73e 8b8b 14bc
00000040: 1a49 31bf 6825 153f 4047 e53e b5bb 45be
00000050: c668 b8be 6343 7a3f f810 dc3d c223 033d
00000060: 1e9a fcbd 731d 8bbe 3831 47be 54f7 183f
00000070: 3f79 70be 879c 33be 4995 59bc 5447 323f

5.weight f4 [100, 1568]
-0.049389753 0.060039993 0.08073569 0.0016876336 0.16100036 0.15394688 0.12266874 0.30098307
-0.0011367376 0.08941646 0.029431868 0.03434475 0.065545365 0.08228767 0.04676573 -0.1015928
0.3041205 -0.0037737763 -0.008620353 0.07909662 0.053626675 0.44943407 0.04415144 0.03251721
-0.10335317 0.00033243143 -0.010325492 0.28828487 -0.11927294 0.10888184 0.020009803 -0.07193345
0.06618425 0.12512751 0.13658336 -0.146389 0.19818985 0.020122068 0.0006069316 0.066728935
-0.019884774 0.11386102 0.15160774 0.06892785 0.04996865 -0.05800268 0.09708106 0.093350545
-0.015115622 -0.053150494 -0.030875588 -0.08023985 0.02574934 -0.018147212 0.09419761 -0.031133316
-0.1261641 -0.1005105 -0.03317117 0.025755808 -0.03741553 0.055128686 0.04395825 -0.06873824
-0.025746034 -0.09355395 0.02571758 -0.09465002 0.0017362771 -0.0507141 -0.007930073 0.06987965
0.1277262 0.048055675 -0.038908027 -0.071210995 0.008005369 -0.24371606 -0.10144329 0.119736694
0.016877832 0.03478851 -0.08507333 0.078269675 -0.045608826 -0.09093888 -0.03795414 0.099492446
0.045272715 -0.043305025 0.04786256 -0.05277982 0.017754469 0.002208609 0.056738704 -0.009623988
0.06346781 -0.038416434 0.025078366 0.0012916848 -0.07722069 0.016142756 -0.009210668 0.017980782
0.014681324 -0.065212 -0.06074439 0.004103313 0.0030077924 -0.012174245 -0.007899768 0.032990348
0.091009766 0.0023206554 0.01258221 0.004899693 -0.005340775 -0.00047524314 0.1931224 0.1647605
0.026189944 0.017503224 -0.025878292 -0.18639855 0.057893842 0.16629484 -0.05583988 0.042415757
0.012911592 -0.006016718 0.0031012248 0.074760765 0.029510405 -0.019590855 -0.008420064 -0.0014546365
-0.014685135 -0.0022468977 0.07985017 0.06789974 0.18267612 0.0012248902 0.13989592 0.071807176
0.18437843 0.25150192 -0.07304096 -0.009960327 -0.0069977916 -0.010733237 -0.006235936 0.0061182356
0.006401084 -0.010949072 0.014283402 0.0022647127 0.0009994854 0.009751248 -0.014146084 -0.0026721614
0.008470411 0.01636146 0.014235595 -0.003543677 0.03184654 -0.005130807 0.004397036 0.023709387
0.007262057 0.011075945 0.011880291 -0.026820088 0.0049240305 -0.019725367 0.0029373553 -0.014047316
-0.019856136 0.0032286653 -0.018509082 -0.030651713 -0.00659513 0.033456236 -0.023943694 -0.02488687
0.02172189 -0.010958611 0.00618872 0.009203138 0.00396358 -0.02130178 0.0027384975 -0.016534152
0.017890727 0.0038987822 0.018241238 0.017839698 0.022014214 0.06465138 -0.069490954 -0.011608964
0.024898645 0.010703929 0.069696285 -0.024999002 -0.01625244 0.009108124 -0.078469396 -0.01887524
-0.019011931 -0.022545524 0.021142874 -0.09221525 0.024770586 -0.013287776 -0.057221986 0.047052953
-0.022402462 0.0014312151 -0.022713728 0.019646656 -0.031579655 -0.095732644 -0.00024371814 -0.002459744
-0.07907898 -0.053334907 -0.032389693 -0.03649519 -0.043170534 0.031971775 -0.0751645 -0.006967766
0.095295206 0.08072019 -0.00764837 -0.0101440735 -0.06594469 0.04101523 -0.045799147 0.031240586
-0.011073014 -0.04701518 0.08800868 0.08182638 -0.09305165 -0.027431777 -0.066003434 -0.0058079786
0.14359911 0.15410814 0.06288938 0.15561755 0.4505885 -0.34622237 -0.20893213 0.007857102
00000000: e94c 4abd 7fec 753d c158 a53d 9633 dd3a
00000010: 47dd 243e 40a4 1d3e c039 fb3d 741a 9a3e
00000020: 96fe 94ba fa1f b73d 1a1b f13c 15ad 0c3d
00000030: a63c 863d 7086 a83d 6c8d 3f3d e30f d0bd
00000040: afb5 9b3e 7651 77bb 623c 0dbc 69fd a13d
00000050: a5a7 5b3d 391c e63e 24d8 343d c430 053d
00000060: d4aa d3bd 314a ae39 412c 29bc 139a 933e
00000070: 5f45 f4bd 71fd de3d 99eb a33c d851 93bd
00000080: 9c8b 873d 6d21 003e 82dc 0b3e ffe6 15be
00000090: 48f2 4a3e 09d7 a43c 7d1a 1f3a 2ea9 883d
000000a0: 65e5 a2bc f72f e93d 0f3f 1b3e 0b2a 8d3d
000000b0: edab 4c3d 3894 6dbd 6fd2 c63d 922e bf3d
000000c0: 84a7 77bc 55b4 59bd cdee fcbc ca54 a4bd
000000d0: 48f0 d23c 76a9 94bc adea c03d 4c0b ffbc
000000e0: 2931 01be 73d8 cdbd 7ede 07bd d8fd d23c
000000f0: 0741 19bd 9ece 613d 910d 343d a2c6 8cbd
00000100: 59e9 d2bc 3799 bfbd adad d23c dfd7 c1bd
00000110: cb93 e33a 97b9 4fbd 23ed 01bc 101d 8f3d
00000120: a8ca 023e 07d6 443d 065e 1fbd 12d7 91bd
00000130: f428 033c b490 79be 80c1 cfbd 8338 f53d
00000140: 6143 8a3c 667e 0e3d ed3a aebd da4b a03d
00000150: 52d0 3abd 2a3e babd cd75 1bbd b2c2 cb3d
00000160: e26f 393d 9c60 31bd 880b 443d a72f 58bd
00000170: d271 913c 4fbe 103b d866 683d eead 1dbc
00000180: 69fb 813d 8d5a 1dbd 2571 cd3c c04d a93a
00000190: e225 9ebd d03d 843c 57e8 16bc 6f4c 933c
000001a0: f089 703c de8d 85bd 1ccf 78bd 1675 863b
000001b0: 621e 453b 7c76 47bc 076e 01bc e320 073d
000001c0: 5463 ba3d 2316 183b 9d25 4e3c 9b8d a03b
000001d0: ab01 afbb 0e2a f9b9 e1c1 453e fab6 283e
000001e0: 4b8c d63c ec62 8f3c b6fe d3bc 43df 3ebe
000001f0: 1822 6d3d 3249 2a3e 5cb8 64bd 25bc 2d3d
00000200: 248b 533c e427 c5bb eb3d 4b3b 2c1c 993d
00000210: cebf f13c 007d a0bc 4ff4 09bc 80a9 beba
00000220: ec99 70bc b040 13bb 7c88 a33d 050f 8b3d
00000230: 730f 3b3e 7f8c a03a e040 0f3e a40f 933d
00000240: b3cd 3c3e dcc4 803e 8096 95bd a430 23bc
00000250: bb4d e5bb 75da 2fbc d356 ccbb 7b7b c83b
00000260: 2fc0 d13b bd63 33bc ee04 6a3c 936b 143b
00000270: 2a01 833a b3c3 1f3c fac4 67bc 6e1f 2fbb
00000280: 7bc7 0a3c 7808 863c 6a3c 693c 093d 68bb
00000290: 8471 023d 5420 a8bb 0315 903b 303a c23c
000002a0: 8df6 ed3b e177 353c 8da5 423c cdb5 dbbc
000002b0: c359 a13b 1897 a1bc a580 403b b726 66bc
000002c0: 56a9 a2bc 0498 533b 5ca0 97bc 4d19 fbbc
000002d0: f61b d8bb 6809 093d 9125 c4bc 8ddf cbbc
000002e0: 1bf2 b13c bf8b 33bc bfca ca3b c2c8 163c
000002f0: ebe0 813b 1281 aebc 5d78 333b a172 87bc
00000300: 938f 923c b682 7f3b a66e 953c 8f24 923c
00000310: 2757 b43c f167 843d 4651 8ebd 8633 3ebc
00000320: 3ef8 cb3c 885f 2f3c edbc 8e3d b5ca ccbc
00000330: d623 85bc 3e3a 153c 90b4 a0bd 3fa0 9abc
00000340: e9be 9bbc 64b1 b8bc d233 ad3c 59db bcbd
00000350: afeb ca3c f9b4 59bc 9a61 6abd 99ba 403d
00000360: 5e85 b7bc 9c97 bb3a 2412 babc 06f2 a03c
00000370: ab59 01bd 7a0f c4bd 978e 7fb9 a833 21bb
00000380: 29f4 a1bd b475 5abd 0eab 04bd fb7b 15bd
00000390: 96d3 30bd d6f4 023d d8ef 99bd dc51 e4bb
000003a0: 222a c33d a150 a53d 2e9f fabb 5433 26bc
000003b0: 020e 87bd 96ff 273d e397 3bbd 42ec ff3c
000003c0: 966b 35bc fd92 40bd e53d b43d 9794 a73d
000003d0: dd91 bebd 9bb8 e0bc cf2c 87bd db50 bebb
000003e0: a50b 133e 86ce 1d3e 26cc 803d 355a 1f3e
000003f0: 89b3 e63e 0f44 b1be 4ef2 55be 13bb 003c

5.bias f4 [100]
-0.13115184 -0.026246224 -0.30690113 -0.21466784 -0.0484825 -0.034603275 0.10921193 -0.30744436
0.049017034 0.18652381 -0.032925017 -0.024126567 0.02658443 -0.29118294 -0.029821755 0.17485945
-0.319557 -0.035642657 -0.016378772 0.08583159 -0.07183143 -0.04523885 -0.028531453 0.24696183
0.17132096 0.09886479 -0.18951456 -0.058064148 0.15942757 -0.06273427 -0.053347416 -0.04408385
0.1531841 -0.06341033 -0.041404147 -0.045169383 -0.06682517 0.027195783 -0.048634984 0.0011334873
0.19508275 0.34376654 -0.045026436 -0.021260628 -0.025639415 -0.06358036 0.39322433 -0.09805468
-0.020999363 0.11578161 -0.058693916 -0.028105771 -0.044251442 0.011451915 -0.06112381 -0.04115422
-0.027754448 -0.08310285 -0.25402182 -0.07113877 -0.048274945 -0.03947781 -0.075622335 -0.06336254
0.27756345 0.24191004 -0.029183798 0.04848213 -0.04218339 -0.025394103 -0.069319695 -0.22952336
-0.038250122 -0.3115669 0.16389152 0.08074527 -0.0592097 0.58086616 -0.18589675 -0.036135085
-0.06421717 -0.053551793 -0.07146974 0.38724864 -0.4656416 -0.024878474 -0.033449113 -0.039586365
-0.06305265 -0.07478827 0.10716192 -0.19364358 -0.033220805 -0.018290311 0.4468985 0.57321966
-0.04314262 0.7284851 0.12700242 -0.017306855
00000000: ab4c 06be 5202 d7bc 2522 9dbe e3d1 5bbe
00000010: 9695 46bd 2abc 0dbd 81aa df3d 5969 9dbe
00000020: 16c6 483d 1900 3f3e 62dc 06bd 14a5 c5bc
00000030: 97c7 d93c ee15 95be c14c f4bc 5b0e 333e
00000040: fa9c a3be 09fe 11bd c62c 86bc 79c8 af3d
00000050: 5b1c 93bd 5f4c 39bd cbba e9bc 90e3 7c3e
00000060: c36e 2f3e 9f79 ca3d 1b10 42be acd4 6dbd
00000070: fb40 233e d37a 80bd d282 5abd 4491 34bd
00000080: 4bdc 1c3e 46dd 81bd 6597 29bd 8803 39bd
00000090: a2db 88bd b1c9 de3c 7a35 47bd 8691 943a
000000a0: c6c3 473e 2b02 b03e a46d 38bd c52a aebc
000000b0: c009 d2bc 6b36 82bd b354 c93e e4d0 c8bd
000000c0: db06 acbc e91e ed3d 0869 70bd 133e e6bc
000000d0: 0041 35bd d0a0 3b3c f65c 7abd 5491 28bd
000000e0: 4c5d e3bc d431 aabd 260f 82be 34b1 91bd
000000f0: f3bb 45bd 7cb3 21bd e2df 9abd 38c4 81bd
00000100: cc1c 8e3e 44b7 773e dc12 efbc 3395 463d
00000110: 7ec8 2cbd 4b07 d0bc 7cf7 8dbd 2c08 6bbe
00000120: 29ac 1cbd b285 9fbe 2ed3 273e c75d a53d
00000130: df85 72bd a5b3 143f b85b 3ebe 6202 14bd
00000140: 4b84 83bd 2059 5bbd ba5e 92bd 7445 c63e
00000150: 9368 eebe f1cd cbbc f001 09bd 5025 22bd
00000160: bf21 81bd 982a 99bd b577 db3d 814a 46be
00000170: 8a12 08bd 90d5 95bc e1cf e43e 86be 123f
00000180: 51b6 30bd 007e 3a3f ec0c 023e 1bc7 8dbc

7.weight f4 [10, 100]
0.058654927 0.016971415 0.030209022 0.0071058576 -0.030031785 -0.023508381 -0.00016132485 -0.016206788
0.0018940966 0.03453758 0.014096252 -0.05017379 0.027923673 0.04845527 0.11612011 0.038480215
-0.013640937 -0.057391312 -0.04166774 -0.15337612 0.0046126335 0.03380428 -0.026404468 -0.06851694
0.23547709 0.021347161 0.026691636 -0.021033684 0.024369976 -0.020502359 0.06515653 0.008484968
-0.020248579 -0.0012291899 -0.025858289 0.044763073 -0.010786637 0.057345174 0.021973608 0.011491424
0.016558351 -0.026213232 -0.016083388 -0.053701382 -0.03255787 0.03641949 -0.04783244 0.11378962
-0.0716917 -0.007299089 -0.021628605 -0.047266733 -0.040024336 -0.011956173 0.044853926 0.074833795
0.08414002 -0.05184966 0.041476987 0.059719365 0.009155883 0.010954065 -0.012947004 0.045914568
0.02157071 0.044028677 0.035950486 -0.13008966 -0.11048602 -0.0055647474 -0.057631057 0.04191492
-0.08098091 0.042947855 0.07297604 -0.017971793 -0.010939334 0.034216907 0.021660393 0.08601773
0.07923789 -0.0025656489 0.018508235 -0.01014229 0.022770584 0.028943498 0.054079693 0.07779454
0.028540717 -0.091991104 -0.041906964 -0.14256147 -0.025399407 0.041336004 -0.022050014 0.085312605
-0.035478335 0.025066761 -0.022908483 0.034839645 0.08775204 -0.026177796 0.015652878 0.0071005533
0.050214972 0.07435186 0.012250638 0.20868574 0.002480846 -0.020285934 -0.00017748219 -0.08611028
0.031280678 0.049779877 -0.0057107424 0.013953154 -0.011693372 -0.0014512804 -0.069821715 0.08063345
-0.04356839 -0.041642345 0.01987829 -0.059389174 -0.033727594 0.020855429 0.016489014 0.029768808
0.024920516 0.029089177 0.030244518 -0.048304573 -0.1558007 -0.0036668852 0.06053767 0.08411867
0.0010754509 -0.09185373 -0.0121140415 0.010935015 0.0021849046 -0.09800767 -0.0076918514 0.06804326
0.08949734 0.009888761 -0.054127026 0.14496127 -0.04560397 0.049164645 0.068947665 0.030755306
-0.006261995 -0.010711972 0.0665621 0.045178376 0.0077015907 -0.03277915 0.0405426 0.025656044
0.035238113 0.055331208 -0.032957304 -0.050356925 0.023091054 -0.106587686 0.044196848 0.015575226
-0.07587837 -0.10158148 -0.040533476 0.020013737 -0.009930983 0.022594897 -0.0032269058 0.12328205
-0.040000543 -0.018940357 0.02420359 -0.06431917 0.03631525 0.010771282 0.0076676803 -0.016597599
0.1743597 -0.03915047 -0.01984788 -0.027803207 -0.01589263 0.0799562 -0.0788913 0.06329112
0.050390515 0.035270624 -0.02577455 -0.068462305 -0.04385861 -0.19615097 0.011863997 0.00036940628
0.058644693 0.03759466 0.0125406515 0.0065050744 -0.035432436 -0.021171516 0.00899308 -0.016043762
0.04202227 -0.054708637 -0.01776011 0.030752517 0.028363233 0.020789273 0.015820445 0.021282632
0.00019282782 0.040110495 -0.00043731363 0.08997241 -0.05393158 0.004893792 -0.06355941 0.12782252
0.05626131 0.02128482 0.02902629 -0.01617481 0.01925367 -0.036574952 -0.052730814 -0.023601566
0.021694016 -0.025035549 0.0524495 -0.020529283 -0.010878597 -0.09495396 -0.0068280906 0.011152311
0.0023861758 -0.05769419 0.0019335434 0.026463686 -0.058283843 0.031479243 -0.01301583 -0.009008434
0.05165247 -0.013166153 -0.02101993 0.03872284 0.0053579016 -0.011409356 -0.024216924 0.068008125
00000000: 2640 703d a307 8b3c e978 f73c 41d8 e83b
00000010: 3805 f6bc a694 c0bc 4f29 29b9 19c4 84bc
00000020: 5643 f83a 4777 0d3d f7f3 663c 0883 4dbd
00000030: 30c0 e43c 0879 463d 61d0 ed3d 6e9d 1d3d
00000040: 3d7e 5fbc 2713 6bbd cbab 2abd a10e 1dbe
00000050: 9325 973b 5b76 0a3d 2f4e d8bc 9c52 8cbd
00000060: e820 713e 3ee0 ae3c 6ba8 da3c d54e acbc
00000070: 8ba3 c73c 90f4 a7bc c970 853d 8904 0b3c
00000080: 59e0 a5bc c51c a1ba c3d4 d3bc 7c59 373d
00000090: 6fba 30bc c6e2 6a3d ff01 b43c 8746 3c3c
000000a0: 61a5 873c 22bd d6bc 4fc1 83bc fbf5 5bbd
000000b0: 675b 05bd 9a2c 153d f3eb 43bd 880a e93d
000000c0: 19d3 92bd 322d efbb 792e b1bc c39a 41bd
000000d0: 8ff0 23bd d3e3 43bc c0b8 373d 7642 993d
000000e0: 9a51 ac3d 4f60 54bd c6e3 293d 4b9c 743d
000000f0: 8f02 163c ae78 333c ac1f 54bc ea10 3c3d
00000100: 0fb5 b03c 6a57 343d d140 133d 3936 05be
00000110: 7f46 e2bd 7c58 b6bb 8b0e 6cbd fbae 2b3d
00000120: 52d9 a5bd 17ea 2f3d 7674 953d 9539 93bc
00000130: e43a 33bc 0727 0c3d 2371 b13c 102a b03d
00000140: 7a47 a23d 7224 28bb 959e 973c d92b 26bc
00000150: 6089 ba3c ea1a ed3c ab82 5d3d be52 9f3d
00000160: 39ce e93c d565 bcbd a3a6 2bbd a2fb 11be
00000170: 6b12 d0bc f14f 293d 3ba2 b4bc 60b8 ae3d
00000180: bb51 11bd cf58 cd3c 92aa bbbc 04b4 0e3d
00000190: 57b7 b33d d172 d6bc 773a 803c c2ab e83b
000001a0: 37ae 4d3d ca45 983d e6b6 483c b7b1 553e
000001b0: b095 223b b02e a6bc 831a 3ab9 965a b0bd
000001c0: 2b20 003d fce5 4b3d 2e21 bbbb c59b 643c
000001d0: 8f95 3fbc e438 beba b0fe 8ebd 2623 a53d
000001e0: c574 32bd 2a91 2abd ccd7 a23c 1042 73bd
000001f0: f225 0abd 01d9 aa3c f813 873c b7dd f33c
00000200: 1c26 cc3c 6d4c ee3c 5ac3 f73c 04db 45bd
00000210: 388a 1fbe 2050 70bb 59f6 773d 6946 ac3d
00000220: 25f6 8c3a cf1d bcbd f979 46bc c728 333c
00000230: 9e30 0f3b 3fb8 c8bd ed0b fcbb 445a 8b3d
00000240: 624a b73d 7804 223c 4db4 5dbd ba70 143e
00000250: 3acb 3abd de60 493d 6f34 8d3d 8df2 fb3c
00000260: 6c31 cdbb 4481 2fbc b651 883d f60c 393d
00000270: a05d fc3b 6e43 06bd ff0f 263d a02c d23c
00000280: d755 103d faa2 623d 3dfe 06bd 1043 4ebd
00000290: 7329 bd3c a54a dabd c107 353d 3c2f 7f3c
000002a0: 1e66 9bbd f309 d0bd 6e06 26bd d9f3 a33c
000002b0: 90b5 22bc ef18 b93c 7f7a 53bb 4d7b fc3d
000002c0: 9cd7 23bd cf28 9bbc 9b46 c63c c5b9 83bd
000002d0: 4dbf 143d 087a 303c 2a41 fb3b b0f7 87bc
000002e0: 598b 323e 3e5c 20bd 0598 a2bc 8dc3 e3bc
000002f0: 4331 82bc 14c0 a33d c391 a1bd c69e 813d
00000300: 4966 4e3d ee77 103d 2625 d3bc f735 8cbd
00000310: 16a5 33bd cddb 48be 3661 423c dfac c139
00000320: 6b35 703d dcfc 193d 4e77 4d3c 8528 d53b
00000330: 9a21 11bd e36f adbc b657 133c 356e 83bc
00000340: 8b1f 2c3d 2a16 60bd a67d 91bc b4ec fb3c
00000350: 035a e83c 444e aa3c e199 813c ea58 ae3c
00000360: d331 4a39 e74a 243d 3e47 e5b9 7443 b83d
00000370: 5ce7 5cbd 1a5c a03b 702b 82bd e8e3 023e
00000380: 4272 663d 815d ae3c 8bc8 ed3c 0981 84bc
00000390: dfb9 9d3c 9ecf 15bd 44fc 57bd 1258 c1bc
000003a0: a6b7 b13c 5a17 cdbc 49d5 563d 072d a8bc
000003b0: 253c 32bc 3977 c2bd 2dbe dfbb 2fb8 363c
000003c0: 6361 1c3b be50 6cbd f36e fd3a 5fca d83c
000003d0: 0abb 6ebd 61f0 003d 5940 55bc 1c98 13bc
000003e0: 8a91 533d d9b6 57bc fd31 acbc d79b 1e3d
000003f0: 5691 af3b 4fee 3abc 9262 c6bc d847 8b3d

7.bias f4 [10]
0.03946124 -0.6062108 0.07849805 0.087263875 0.1400114 0.23282342 -0.23519011 -0.2936377
0.41614428 -0.026724173
00000000: 1ca2 213d a230 1bbf 96c3 a03d 67b7 b23d
00000010: 265f 0f3e 4369 6e3e add5 70be ae57 96be
00000020: dd10 d53e a7ec dabc
