models/more_models/MNIST/more_small_exact158_2.pth (torch, 668111 bytes, 8 tensors)

0.weight f4 [16, 1, 4, 4]
0	0xbbb30d86	-0.0054642586
1	0xbc1e174a	-0.009649107
2	0xbc2d8c58	-0.010592543
3	0xbbf834d0	-0.007574655
4	0xbb92e8a5	-0.0044833
5	0xbc007507	-0.0078404015
6	0xbc115503	-0.008870366
7	0xbbd668f1	-0.0065432717
8	0xbbd10ee5	-0.0063799494
9	0xbc1314af	-0.008977099
10	0xbb7436d1	-0.0037264118
11	0xbb8f9940	-0.0043822825
12	0xbb786806	-0.00379038
13	0xbbaaa11f	-0.0052071954
14	0xbaec5c76	-0.0018032927
15	0xbbce97e2	-0.006304727
16	0x37cc95a2	2.4388373e-05
17	0xb93a88c5	-0.00017789293
18	0x39fbb26d	0.00048007388
19	0xb7d316cf	-2.5163781e-05
20	0xbadf9e13	-0.001706066
21	0xba44eb52	-0.0007511872
22	0xb9bd16cf	-0.00036065883
23	0xbaf93bd4	-0.0019015023
24	0xbad91c85	-0.0016564286
25	0xbb0a5b8e	-0.00211117
26	0xbb3b7b2f	-0.0028607359
27	0xbb496d1d	-0.0030735203
28	0xba689953	-0.0008872945
29	0xbb07a31e	-0.002069659
30	0xbb29a954	-0.002588828
31	0xbb1771ec	-0.0023108674
32	0xbb43b5b8	-0.0029862951
33	0xbacbaa57	-0.0015538436
34	0xbaaddc5e	-0.0013264527
35	0xbaf49030	-0.0018658694
36	0xbb52b33f	-0.0032150296
37	0xba84c744	-0.0010130187
38	0xbb018f0c	-0.00197691
39	0xbb446e1f	-0.0029972864
40	0xba9cb507	-0.0011955806
41	0x3a9118f6	0.0011070061
42	0xbad7d654	-0.0016467073
43	0xbb459a2d	-0.003015171
44	0xbafc8f84	-0.0019268845
45	0xbab79454	-0.0014005997
46	0xbab89198	-0.0014081476
47	0xbb0f482d	-0.0021863088
48	0x3bacab31	0.005269431
49	0x3cc47b0b	0.023984453
50	0x3caf3708	0.021388546
51	0xba74a4d7	-0.00093324244
52	0xba95cbfd	-0.0011428591
53	0x3b860eae	0.0040911054
54	0x3b91ed52	0.0044533396
55	0xbbc1b4dd	-0.005911453
56	0xbb6bc176	-0.0035973466
57	0xbbf07b2d	-0.0073389024
58	0xbc59b9d6	-0.013288936
59	0xbc738441	-0.014863075
60	0x3c0901a9	0.008362212
61	0x3beb8de6	0.0071885465
62	0xbad4a796	-0.0016224261
63	0xbb1dea35	-0.0024095897
64	0x3bd7ce7f	0.0065858955
65	0x3d1a310e	0.03764444
66	0x3d3ff6c9	0.046866212
67	0x3d0e52e6	0.034747027
68	0x3c6c3837	0.0144177
69	0x3d8c4fa8	0.06851131
70	0x3d9c6b31	0.07637633
71	0x3d769fba	0.06021092
72	0x3c47fbd6	0.012206038
73	0x3d66bbd7	0.05633148
74	0x3d661297	0.056170072
75	0x3d0efcb3	0.03490896
76	0x3997fe7f	0.0002899058
77	0x3c87fe10	0.016600639
78	0x3c37f61a	0.011228109
79	0xba4c1e15	-0.0007786465
80	0xbc452b74	-0.012034286
81	0xbc9e1f49	-0.019302027
82	0xbbc17acf	-0.0059045325
83	0xbba53b79	-0.00504249
84	0xbb893883	-0.004187645
85	0x3ba7b3e2	0.0051178792
86	0x3c8d282b	0.017231068
87	0x3b726f2a	0.0036992528
88	0x3bfbbe8a	0.007682626
89	0x3cfb36b7	0.030665739
90	0x3d0f92db	0.03505216
91	0x3c8640ec	0.016388379
92	0x3c286ce0	0.010279864
93	0x3cfc3337	0.03078614
94	0x3cf29b3f	0.029615043
95	0x3c16a46d	0.009194476
96	0x3b2ecb1d	0.0026671358
97	0x3b2c0966	0.002625072
98	0x39bd201c	0.00036072813
99	0x3c4634be	0.012097536
100	0xbacdd27b	-0.0015702987
101	0xbbcce868	-0.006253291
102	0xbbee55f9	-0.0072734323
103	0x3bc9bd4b	0.0061565987
104	0x3b40b219	0.002940303
105	0xbbea8640	-0.007157117
106	0x3b7c57a0	0.0038504377
107	0x3c022f9f	0.007945924
108	0x3c0ca261	0.008583636
109	0xbb27726e	-0.0025550383
110	0x3be5a027	0.007007617
111	0x3bac6095	0.005260537
112	0xbb712adf	-0.0036799235
113	0xbb8da851	-0.0043230434
114	0xbbc4c73b	-0.0060051954
115	0xbbc8e624	-0.0061309505
116	0xbc39db4f	-0.011343791
117	0xbc327e20	-0.010894328
118	0xbc1278ec	-0.008939963
119	0xbbc06c7e	-0.0058723083
120	0xbc4c7e5b	-0.012481297
121	0xbbe6877b	-0.0070351935
122	0xbbd82c97	-0.0065971124
123	0xbc4c3550	-0.012463883
124	0xbbb9fb6f	-0.005675725
125	0xbb7364cd	-0.003713894
126	0xbb28ef39	-0.0025777353
127	0xbc053575	-0.008130421
128	0x3b2afe67	0.0026091577
129	0x3b2f7412	0.0026772064
130	0x3b3e1456	0.002900382
131	0xb81d4373	-3.7494534e-05
132	0xb967f94e	-0.0002212275
133	0x3adc3fa4	0.0016803634
134	0x3b14a248	0.0022679735
135	0x3b4f46ad	0.003162782
136	0x3b54a9f3	0.003244993
137	0x3abcca24	0.0014403504
138	0xba6d61a6	-0.0009055383
139	0x3a248dcb	0.00062772323
140	0x3a48a70d	0.0007654287
141	0x3b569bf1	0.0032746757
142	0x3b256fba	0.0025243596
143	0x3b3fcc9a	0.002926624
144	0xbaf0243d	-0.0018321347
145	0xbc027804	-0.007963184
146	0x3a203dd2	0.00061127276
147	0x3b8fb8f7	0.004386063
148	0xbc3c1eff	-0.011481999
149	0xbd01f284	-0.03172542
150	0xbc8e9961	-0.017407121
151	0xbc08a0e5	-0.0083391415
152	0xbc93a1f6	-0.018021565
153	0xbd00ff71	-0.031493608
154	0xbca9c109	-0.02072193
155	0xbb1926be	-0.002336904
156	0xbca5ac06	-0.020223629
157	0xbd002e51	-0.03129417
158	0xbc8223c8	-0.015886202
159	0x3bc8a6c5	0.006123396
160	0xba63fb9b	-0.0008696855
161	0x3bbdddc3	0.0057942583
162	0x3c0d9c20	0.00864318
163	0x3c31043b	0.010804231
164	0xbb506087	-0.0031795816
165	0x3af4e03d	0.0018682551
166	0xbb1afd9b	-0.0023649696
167	0xbb7a043b	-0.0038149494
168	0x3b52fc4e	0.0032193842
169	0x3c6a8f77	0.014316431
170	0x3b8111bc	0.0039388817
171	0xbbce0aa5	-0.00628789
172	0x3b6905f4	0.0035556527
173	0x3c20f613	0.009824294
174	0xbb9b8dd1	-0.0047471304
175	0xbad6266e	-0.0016338357
176	0x3c69f434	0.014279414
177	0x3caa467a	0.020785559
178	0x3c51dce0	0.012809008
179	0xbb13dade	-0.0022560875
180	0x3d4f6105	0.050629634
181	0x3d49cd11	0.049267832
182	0x3d011d69	0.03152219
183	0xb9e6424e	-0.0004391842
184	0x3d6fed5e	0.05857598
185	0x3d5af7d6	0.05345901
186	0x3d0d6ad6	0.034525715
187	0x3b8763d5	0.004131774
188	0x3d025d99	0.031827543
189	0x3cadfab5	0.02123771
190	0x3c452693	0.012033123
191	0x3bcf23ae	0.006321392
192	0xbc0e3248	-0.00867898
193	0xbb0f520d	-0.0021868974
194	0xbc0d0252	-0.00860651
195	0xbc1d600d	-0.00960542
196	0xba9b2c9f	-0.001183886
197	0x3bbe5b34	0.005809212
198	0xbc2d6634	-0.010583449
199	0xbb1520d3	-0.002275516
200	0x3b2738db	0.0025516066
201	0x3a778b30	0.0009443043
202	0xbc48463f	-0.012223779
203	0x3af18764	0.001842719
204	0xbb59c849	-0.0033230952
205	0xbc05b083	-0.008159759
206	0xbbe7d4e9	-0.0070749414
207	0x3aac0c9f	0.001312632
208	0x3c486436	0.012230923
209	0xbc828ad6	-0.015935343
210	0x3ba032ca	0.004888867
211	0x3c1086b1	0.008821175
212	0xbb97c7aa	-0.004631956
213	0xbc81cac8	-0.015843764
214	0xbbe7ecf8	-0.0070778094
215	0x3ba2e8c3	0.004971595
216	0xbc3804bd	-0.011231598
217	0x3b128746	0.0022358461
218	0xbc12451a	-0.008927608
219	0x3aa00de1	0.0012211167
220	0xb8f80916	-0.00011827254
221	0xbc874245	-0.016511092
222	0xbc7f335e	-0.015576212
223	0x39a7dc20	0.00032016728
224	0x38c1176f	9.207322e-05
225	0x3b94c00f	0.0045394967
226	0x3bb2b6b6	0.0054539097
227	0x3b103330	0.0022003166
228	0x3b55aa23	0.003260263
229	0xbb29b979	-0.0025897904
230	0x3bbb7e56	0.0057218475
231	0x3ab0a0e4	0.0013475684
232	0x3aa5c858	0.0012648208
233	0x3b1d5c9e	0.0024011503
234	0x3bc2f239	0.0059492853
235	0x3b35a0d9	0.002771428
236	0x3bb8a789	0.005635206
237	0x3b821d25	0.0039707595
238	0x3ba48ff2	0.0050220424
239	0x3b6e7bf7	0.0036389807
240	0xbbe6a5c1	-0.0070388024
241	0xbc840d9b	-0.016119769
242	0xbcd5b802	-0.026088718
243	0xbc6e6ff3	-0.014553058
244	0xbc819eef	-0.015822856
245	0xbc31dcf3	-0.010855901
246	0xbcba0adf	-0.022710262
247	0xbc0018b5	-0.007818391
248	0xbc23a2df	-0.009987562
249	0xbbcda371	-0.0062755872
250	0xbc23513e	-0.0099681
251	0xbb95c7b9	-0.004570928
252	0x3bbdb2c7	0.005789134
253	0x3c885ed8	0.016646788
254	0x3c1cc61a	0.0095687155
255	0xbbaab033	-0.005208993

0.bias f4 [16]
0	0xbd4316d9	-0.04762921
1	0xbd115470	-0.035480917
2	0xbd0a7d74	-0.033811048
3	0x3ddc2306	0.10748868
4	0x3e88a3be	0.26687425
5	0x3e1f04ee	0.15529224
6	0x3d7b7b8a	0.061397113
7	0xbd86db20	-0.065847635
8	0xbdc04356	-0.09387843
9	0x3ea32460	0.3186369
10	0x3d55b5b8	0.052175254
11	0x3e4e36ca	0.20138088
12	0xbd75881f	-0.05994427
13	0xbdc44c2b	-0.095848404
14	0xbdb6886d	-0.0891274
15	0x3e69d5ac	0.22835416

2.weight f4 [32, 16, 4, 4]
0	0x39f2d4db	0.00046316427
1	0x3d04cb4d	0.032420445
2	0x3a2ca506	0.00065858697
3	0xbc1a43f9	-0.00941562
4	0x3b4e4af2	0.0031477776
5	0x3d8b784f	0.068100564
6	0x3c839495	0.01606206
7	0xbd1cf4a7	-0.038319256
8	0xbbcd7284	-0.006269755
9	0x391e290e	0.00015083348
10	0xbb893a5e	-0.004187866
11	0x3a9bb821	0.0011880436
12	0x3a9dfe10	0.0012053866
13	0x38fbea6b	0.000120122764
14	0x3a9e4c44	0.0012077172
15	0x3b47c332	0.0030481336
16	0xba9b4359	-0.0011845633
17	0x3aa319b9	0.0012443579
18	0x3a754547	0.00093563314
19	0xba022ddd	-0.00049659406
20	0xba093932	-0.0005234658
21	0x3cd141ad	0.025544012
22	0xbab4cfc7	-0.0013794833
23	0xbb603bf2	-0.0034215418
24	0xb93c6a61	-0.00017968706
25	0xb944facb	-0.00018785444
26	0xb9d51a4e	-0.00040646124
27	0xb8c05727	-9.171507e-05
28	0xb8b83df1	-8.785341e-05
29	0x39f9276e	0.00047522358
30	0x391dd912	0.00015053552
31	0xba1335d3	-0.00056156254
32	0xba9b46d4	-0.001184667
33	0xba87120e	-0.0010305063
34	0x3b6cd625	0.0036138382
35	0xb985a711	-0.0002549221
36	0xba71f3d3	-0.0009229753
37	0x3aaa202c	0.0012979559
38	0x3cf169e7	0.029469443
39	0x382f6bfe	4.1823827e-05
40	0x38b56685	8.649848e-05
41	0x3a88b318	0.0010429351
42	0x3a432d4c	0.00074454094
43	0x3a151368	0.00056867907
44	0xb83545df	-4.3218835e-05
45	0x394ff5a1	0.00019832562
46	0x39a959ba	0.00032301043
47	0x3a7c4916	0.0009623928
48	0x3c1965fc	0.009362694
49	0xbd84d5af	-0.064860694
50	0x3b8ad3aa	0.004236658
51	0xbd01e6db	-0.0317143
52	0xbd250516	-0.040288053
53	0xbde71b52	-0.11284508
54	0xbc354857	-0.01106461
55	0xbd20bbce	-0.039241605
56	0xbd173bc9	-0.03692225
57	0xbd8f17ea	-0.06986983
58	0x3cd09bfa	0.025465
59	0x3bbcf639	0.0057666567
60	0xbc5e615d	-0.013573018
61	0xbdc4fc1a	-0.09618397
62	0xbc1f5a53	-0.009726125
63	0xbd0b479e	-0.034003846
64	0xbc67838c	-0.014130484
65	0xbca32526	-0.019915175
66	0xbd831f85	-0.06402496
67	0xb9e7314b	-0.0004409648
68	0x3c673f47	0.014114208
69	0x3c9d9545	0.019236216
70	0xbcac45d5	-0.021029392
71	0xbcd6b146	-0.026207577
72	0x3b997716	0.0046833856
73	0x3ca57a3f	0.020199893
74	0xbd4b4516	-0.049626432
75	0xbcee5f4c	-0.029098175
76	0xbd3bae38	-0.045820445
77	0xbb3ce210	-0.0028821267
78	0xbd3b4b06	-0.045725845
79	0xbcd72619	-0.026263284
80	0xbd9b3518	-0.07578486
81	0xbd292215	-0.04129227
82	0xbcbc87e9	-0.023014026
83	0xbdd96d96	-0.10616605
84	0xbdaa8ed5	-0.08328024
85	0xbbb5fdd6	-0.0055539412
86	0xbd234781	-0.039863113
87	0xbdc86b50	-0.09786093
88	0xbca765b8	-0.020434245
89	0xbda4e299	-0.080510326
90	0xbcb22cba	-0.021749843
91	0xbce7dcc6	-0.028303515
92	0x3d3a6d35	0.045514304
93	0xbd713785	-0.05889084
94	0xbd4ca26a	-0.049959578
95	0xbc4bb3b4	-0.012432981
96	0x3c9265b5	0.017870763
97	0xb89bc291	-7.427217e-05
98	0xbdd2338c	-0.10263738
99	0xbc37f1a5	-0.011227046
100	0x3cc0fb50	0.023557335
101	0xbd88f3db	-0.06687137
102	0xbe03126a	-0.12799993
103	0xbd0eb8f1	-0.034844343
104	0x3d3f6afe	0.046732895
105	0x3db8cc10	0.09023297
106	0x3c876620	0.01652819
107	0x3b4ea8e3	0.003153377
108	0x3cd0011c	0.025391154
109	0x3c7caef4	0.015422571
110	0x3cc40ba5	0.023931334
111	0xbcccc821	-0.024997773
112	0xbca52124	-0.020157404
113	0xbb8ba984	-0.004262151
114	0xbca30cb6	-0.019903522
115	0xbd02b049	-0.0319064
116	0xbbb6690c	-0.005566722
117	0x3de25606	0.11051564
118	0x3d35ba8b	0.044367354
119	0xb987c9fa	-0.0002589969
120	0xbb4ee92b	-0.0031572084
121	0x3dacce99	0.08437843
122	0x3d762d5a	0.060101844
123	0xb997a503	-0.00028923908
124	0xbc8686e5	-0.016421745
125	0xbc2f27d8	-0.010690652
126	0xb99b9c22	-0.00029680232
127	0xb5e89d09	-1.733105e-06
128	0xbc580f6c	-0.013187271
129	0x3d12ba38	0.035822123
130	0x3c66cc2a	0.014086762
131	0xbaff4a33	-0.0019477069
132	0xbb1a76cf	-0.002356935
133	0x3e3dbbe4	0.18528706
134	0x3dcc8548	0.09986359
135	0xbb173a79	-0.0023075624
136	0xbba71c3b	-0.005099801
137	0xbae40544	-0.0017396589
138	0x3d31aada	0.043375827
139	0xbb084c55	-0.002079745
140	0xbb1f6813	-0.0024323508
141	0xbb29cfe7	-0.0025911273
142	0xbb1ca6b2	-0.002390307
143	0xba881eee	-0.0010385194
144	0x3cb3a2ca	0.02192821
145	0xbd13367d	-0.035940636
146	0xbdbc9640	-0.092083454
147	0x3d513561	0.051076297
148	0xbd2327c4	-0.039832845
149	0xbe5ae7be	-0.21377465
150	0xbe4ebcad	-0.20189162
151	0xbd771896	-0.06032618
152	0xbad84bb8	-0.0016502058
153	0xbe178dfa	-0.14800254
154	0xbe412b27	-0.18864118
155	0x3d3cdbd2	0.046108074
156	0x3d7641ff	0.060121533
157	0x3ca29ad3	0.019849217
158	0xbd30110a	-0.042985
159	0x3da8c4ec	0.08240685
160	0x3cdb586a	0.026775558
161	0xbd5172e8	-0.051134974
162	0xbcecc665	-0.028903196
163	0x3d3b27b9	0.04569218
164	0x3d16a0d2	0.036774464
165	0xbe4708b2	-0.19436911
166	0xbe3d4d59	-0.18486537
167	0x3b1b82f9	0.0023729189
168	0x3caae1e5	0.020859668
169	0xbd1801c2	-0.03711105
170	0xbe6952fd	-0.22785564
171	0x3d936ef3	0.07198896
172	0xbabfc804	-0.0014631753
173	0x3d2285bf	0.03967833
174	0x3ca979c8	0.020687953
175	0x3da8cd4a	0.08242281
176	0x3be05062	0.00684552
177	0xbcf15c32	-0.029462907
178	0x3c33d21c	0.010975387
179	0x3cc4f50f	0.024042634
180	0xba586c92	-0.00082559243
181	0xbd4df7e3	-0.05028523
182	0xbd051bee	-0.03249734
183	0x3db7465c	0.08948967
184	0xbd118915	-0.035531122
185	0xbd8d653f	-0.06904077
186	0xbd09e8ef	-0.03366941
187	0x3d0991ca	0.0335863
188	0x3b7d51cf	0.0038653498
189	0xbcc0971b	-0.023509553
190	0x3c28bc01	0.01029873
191	0x3d763f34	0.06011887
192	0xb906550b	-0.00012810917
193	0x3d8eb4e5	0.06968097
194	0x3c22e5be	0.00994247
195	0xbce9ca31	-0.028538795
196	0x3cf0403c	0.029327504
197	0x3e260ee9	0.16216625
198	0x3d620988	0.05518487
199	0xbd9269a5	-0.07149056
200	0xbbc1ee7e	-0.005918323
201	0x3be86d81	0.007093132
202	0xbab74399	-0.0013981938
203	0xbbbd6eeb	-0.0057810447
204	0x398d0f68	0.00026905094
205	0x398def9e	0.00027072144
206	0xb9279989	-0.00015983557
207	0x39df2bd2	0.00042566523
208	0xbcab8d42	-0.02094138
209	0x3da3a01d	0.079895236
210	0x3ddf687e	0.10908602
211	0x3c342767	0.010995722
212	0xbbb8829d	-0.0056308047
213	0x3e026fb5	0.12737925
214	0x3e55f7e2	0.20895341
215	0x3d8645e6	0.06556301
216	0xbdaa3ddb	-0.08312579
217	0xbdc0f441	-0.09421588
218	0x3c85098d	0.016239906
219	0xba7b55d8	-0.0009587682
220	0xbc973c67	-0.01846142
221	0xbc8bda38	-0.017071828
222	0xbd6be053	-0.05758698
223	0xbb33ca3f	-0.002743378
224	0x3835ecb2	4.3374203e-05
225	0x3d8d4423	0.06897762
226	0x3a74c751	0.0009337562
227	0xbbb5a85e	-0.0055437526
228	0xb9019ca8	-0.00012360758
229	0x3e1c5cbe	0.15269753
230	0x3d21f194	0.039537027
231	0xbc36be5b	-0.011153783
232	0xb8b8365a	-8.7839275e-05
233	0x3a8758f0	0.0010326188
234	0x3ade4c2a	0.0016959955
235	0xb9cd27a6	-0.00039130187
236	0xb7140d35	-8.824562e-06
237	0x39377c29	0.00017498493
238	0x3a2d4e8d	0.0006611131
239	0xb9aa8fcb	-0.0003253206
240	0x3c88b381	0.016687157
241	0xbdc74673	-0.09730234
242	0xbdc2bbfa	-0.0950851
243	0x3d07d830	0.033165157
244	0xbb91ad5d	-0.0044457153
245	0xbe7331f5	-0.23749526
246	0xbe377be9	-0.17918362
247	0xbd898c09	-0.06716163
248	0xbbc81c41	-0.0061068838
249	0xbe10c682	-0.14138225
250	0xbe2ac726	-0.16677532
251	0xbd42067d	-0.04736947
252	0x3dae58f5	0.08513061
253	0x3cd1b415	0.025598565
254	0xbca5509f	-0.020180045
255	0x3dc3373d	0.0953202

2.bias f4 [32]
0	0x3c58bfe6	0.013229346
1	0xbdc47cb3	-0.09594097
2	0xbd93aebd	-0.07211063
3	0x3973b807	0.00023242841
4	0xbd83c402	-0.0643387
5	0xbdee82cd	-0.11646042
6	0xbdeb5189	-0.11490161
7	0xbdbe0798	-0.09278792
8	0xbdb30991	-0.08742059
9	0xbdcb065e	-0.09913324
10	0xbde23e01	-0.110469826
11	0x3e53e178	0.20691478
12	0x3dda570c	0.10661134
13	0xbd5e1f94	-0.054229334
14	0xbd4cc819	-0.049995515
15	0xbd30ba9f	-0.043146726
16	0xbd9eb20d	-0.07748804
17	0xbd91f88d	-0.071274854
18	0x3e2d05f9	0.1689681
19	0xbd813442	-0.063087955
20	0xbd92384a	-0.071396425
21	0xbd955c42	-0.072929874
22	0xbe08917e	-0.13336751
23	0xbe33f5d7	-0.17574249
24	0x3a281a1c	0.0006412582
25	0xbe194014	-0.1496585
26	0xbd30923b	-0.043108206
27	0xbddb3297	-0.107030086
28	0xbcc383eb	-0.023866614
29	0xbd8e22b9	-0.069402166
30	0xbdb44340	-0.088018894
31	0xbdca51e0	-0.09878898

5.weight f4 [100, 1568]
0	0xbc15ab06	-0.009135013
1	0x3b9d25db	0.0047957725
2	0x3b656510	0.0035002865
3	0xba86efe5	-0.0010294883
4	0x3b098507	0.0020983831
5	0x3d2e2247	0.04251316
6	0x3b3ce62b	0.0028823714
7	0xbab549ad	-0.0013831161
8	0x3aa6e7c0	0.0012733862
9	0x3c01a4a9	0.007912793
10	0xbc3f13c5	-0.011662428
11	0x3c34cdb1	0.011035369
12	0x3b2cac91	0.0026347975
13	0x3b086378	0.002081124
14	0x3c1559e0	0.009115666
15	0x3c9fb63e	0.01949608
16	0xbc72e013	-0.014823931
17	0x3d45be15	0.04827698
18	0x3d9159d5	0.07097212
19	0x3caec933	0.021336174
20	0x39e08a02	0.00042827433
21	0x3c217b75	0.009856095
22	0xbb708739	-0.0036701693
23	0x3dc96c42	0.09835102
24	0x3e5ed565	0.21761091
25	0x3cbdf7cd	0.02318945
26	0xbd94d8ef	-0.07267939
27	0xb9011265	-0.00012309251
28	0x3b05870b	0.0020374681
29	0xbe979bcf	-0.2961106
30	0xbc8a7352	-0.016900692
31	0x3d84b992	0.06480707
32	0x3cb944b4	0.022615768
33	0xbda16c2c	-0.0788196
34	0x3b87f3dd	0.004148944
35	0x3b1bd515	0.002377813
36	0xbd5306ea	-0.051520266
37	0x3d0ded2c	0.034650013
38	0x3d888639	0.06666226
39	0x3cb26bd1	0.021779926
40	0x3d17fd79	0.037106965
41	0x39cb9561	0.00038830473
42	0x3bff12e7	0.0077842358
43	0x3c069b43	0.008215728
44	0xba1c03b2	-0.00059514784
45	0x3b44deea	0.0030040094
46	0x3ceb7463	0.028742021
47	0xb9448612	-0.00018741962
48	0x3b364a84	0.002781541
49	0xbb33565e	-0.0027364711
50	0x3cd25811	0.025676759
51	0x3a81982b	0.0009887269
52	0xbad9ea49	-0.0016625609
53	0xba20c647	-0.0006133061
54	0xbb8a6b14	-0.0042241905
55	0x3c17a6c5	0.00925607
56	0xbdb54563	-0.08851125
57	0xbcafc45a	-0.021455932
58	0xbab36903	-0.0013687912
59	0x3b7db3ea	0.0038711973
60	0x3a872d97	0.001031327
61	0x3a206589	0.00061186455
62	0xbb392f74	-0.0028257044
63	0xbd915c92	-0.070977345
64	0xbd476066	-0.048675917
65	0xbaa30fb4	-0.0012440593
66	0xbb21f491	-0.0024712423
67	0x3cb7fc70	0.022459239
68	0xbc81dccf	-0.01585236
69	0xb981bdca	-0.000247462
70	0xba89a32c	-0.00105009
71	0xbbec339d	-0.007208301
72	0x3e412f59	0.18865718
73	0x3cac355d	0.02102154
74	0xbd112503	-0.035435688
75	0x3c8eff4d	0.017455721
76	0x39445df2	0.00018727014
77	0xbdc93190	-0.098239064
78	0xb99a171d	-0.0002939039
79	0x3caed7bc	0.021343105
80	0x3c55cb26	0.013048923
81	0xbcc19657	-0.023631258
82	0x3d7a3af3	0.061091375
83	0xba08dd4a	-0.0005220963
84	0xbd5e1ca3	-0.05422653
85	0xba84bcaa	-0.0010127027
86	0x3c2141cd	0.009842348
87	0x3b877a77	0.004134472
88	0xbc9783ba	-0.01849543
89	0x390e1729	0.00013550803
90	0xbd071b14	-0.032984808
91	0xbcdcf2f8	-0.026971325
92	0xbbcd6fdc	-0.006269438
93	0x39ea7702	0.00044720626
94	0x3c0edb36	0.008719256
95	0xbb99cd7b	-0.0046936846
96	0x3c0252a7	0.007954276
97	0x3c359f08	0.011085279
98	0x3cccebef	0.025014846
99	0x3b6d32a3	0.0036193512
100	0x3b787311	0.0037910382
101	0xbbc051d0	-0.005869128
102	0xba17bf66	-0.00057887135
103	0xba5e8a25	-0.0008489213
104	0x3cdb9fe6	0.026809644
105	0xbd6394ca	-0.05556182
106	0x3b81ee56	0.0039651794
107	0x3a852a01	0.0010159613
108	0xbcd5038e	-0.026002672
109	0xb9d798fb	-0.00041121975
110	0x3a8a5751	0.0010554587
111	0x3c69dbe5	0.014273618
112	0xbd633aa4	-0.055475846
113	0x3bc183e0	0.0059056133
114	0x3d87e12a	0.066347435
115	0xbd82a26e	-0.06378637
116	0x3ce24e30	0.027625173
117	0xb8f6955e	-0.00011758016
118	0x3a5fc165	0.0008535593
119	0x3c07f8f0	0.008299097
120	0x3c38910f	0.011265053
121	0x3b4486e4	0.0029987628
122	0x3c82e287	0.015977157
123	0xbaf86417	-0.0018950728
124	0x3c4e72ec	0.012600642
125	0xbccd70f3	-0.025078272
126	0xbd7d248b	-0.06180243
127	0x3c22b0fa	0.00992989
128	0xb9e802e4	-0.00044252642
129	0xbe6c4f4b	-0.23077123
130	0x3cf824a1	0.030290904
131	0x3b6c2c46	0.0036037131
132	0xb68912eb	-4.0851205e-06
133	0xbd40c899	-0.047066305
134	0xbbe0f8e9	-0.00686561
135	0xbad7037b	-0.0016404236
136	0x3a1c73f9	0.0005968209
137	0x3c10e5a0	0.008843809
138	0xba54724f	-0.00081041915
139	0xbc14bc34	-0.009078074
140	0xba9a1c94	-0.0011757785
141	0x3c4c74b8	0.012479
142	0x3d178f6a	0.037002005
143	0x3ba75051	0.00510601
144	0xbb1f22cd	-0.0024282217
145	0xbb634091	-0.0034675936
146	0x3b988885	0.0046549463
147	0xbc2330a4	-0.009960327
148	0xbbe54dbb	-0.0069977916
149	0xbc2fda75	-0.010733237
150	0xbbcc56d3	-0.006235936
151	0x3c71d384	0.014759902
152	0x3bf8621f	0.0075800563
153	0xbc9da575	-0.019243935
154	0x3c6a04ee	0.014283402
155	0x3b146b93	0.0022647127
156	0x3a83012a	0.0009994854
157	0x3c1fc3b3	0.009751248
158	0xbc67c4fa	-0.014146084
159	0xbb2f1f6e	-0.0026721614
160	0x3c66bbdb	0.014082874
161	0x3c860878	0.01636146
162	0x3c693c6a	0.014235595
163	0xbb683d09	-0.003543677
164	0x3b26f8b5	0.002547783
165	0x3c864aa4	0.016393013
166	0x3b901503	0.004397036
167	0x3c63d926	0.013906753
168	0x3c51a537	0.012795738
169	0x3c3577e1	0.011075945
170	0x3c42a58d	0.011880291
171	0xbc8a9907	-0.016918672
172	0xbcb5d3bf	-0.022195695
173	0xbcccfed5	-0.025023857
174	0x3ca21fac	0.019790493
175	0xbaef19f1	-0.0018241984
176	0xbca2a956	-0.019856136
177	0x3b539804	0.0032286653
178	0xbb9f5c7a	-0.004863319
179	0x3c035d51	0.008017854
180	0xbbd81bf6	-0.00659513
181	0x3ca04a35	0.019566635
182	0xbcc42591	-0.023943694
183	0xbccbdf8d	-0.02488687
184	0x3cb23026	0.021751475
185	0xbc338bbf	-0.010958611
186	0x3bcacabf	0.00618872
187	0x3c16c8c2	0.009203138
188	0x3b81e0eb	0.00396358
189	0xbcedd7d7	-0.029033585
190	0x3b33785d	0.0027384975
191	0xbc8772a1	-0.016534152
192	0x3cae8344	0.021302827
193	0x3b7f82b6	0.0038987822
194	0x3c956ea6	0.018241238
195	0x3c92248f	0.017839698
196	0x3c3c7b6c	0.011504035
197	0x3c1bca25	0.009508644
198	0x3cb2f0a9	0.021843271
199	0xbc80d03a	-0.01572429
200	0x3c48e7a5	0.01226226
201	0x3bd58bdc	0.0065169167
202	0x3c43c105	0.011947875
203	0x3c09cdbd	0.008410868
204	0x3a3d2f95	0.0007216868
205	0x3d475377	0.048663583
206	0x3dbd164e	0.0923277
207	0xbb6c4ea1	-0.0036057609
208	0xbb9bb722	-0.0047520557
209	0xbafdb0c9	-0.0019355054
210	0x3b9e0114	0.004821906
211	0xb97d3323	-0.0002414701
212	0x3b3a2a6c	0.0028406633
213	0x3a8a1cc7	0.0010537141
214	0xbd769952	-0.06020481
215	0xbd80856e	-0.0627545
216	0x3bc5a2e9	0.0060313833
217	0xbbd0acce	-0.006368256
218	0xb91569ea	-0.00014249203
219	0x3aedc42d	0.001814013
220	0x3ca77c1b	0.02044492
221	0x39a897b3	0.00032156482
222	0x39ad6f28	0.0003307995
223	0x3c3afd4d	0.011412931
224	0x3b81edae	0.003965101
225	0xb91d2090	-0.00014984817
226	0x3a9f51cf	0.0012155118
227	0x3c44cb89	0.012011417
228	0x3bac9a72	0.0052674348
229	0x3b6265de	0.003454558
230	0x3cc0a168	0.023514464
231	0xbbdba6ab	-0.006703218
232	0xba08d150	-0.0005219178
233	0x3a60f58d	0.0008581512
234	0x3a88b9bf	0.0010431333
235	0x3c939574	0.0180156
236	0x3ad3e92c	0.0016167513
237	0x39fa4748	0.00047736824
238	0x3c3b09e3	0.011415931
239	0xbad65849	-0.0016353215
240	0x3a40eb52	0.0007359284
241	0x3a681b7e	0.00088541943
242	0xba375a36	-0.00069943385
243	0xbb910701	-0.0044258838
244	0x3aef112f	0.0018239374
245	0xbc3887db	-0.011262859
246	0x3b8068a6	0.003918725
247	0x3c074fdb	0.008258785
248	0x3b16395b	0.002292237
249	0xbb2444a1	-0.002506532
250	0x3bb73e8f	0.0055921744
251	0x3c7729b2	0.0150856245
252	0x3b78d7ba	0.003797038
253	0xbbcc431e	-0.006233587
254	0x3a14b7df	0.0005673151
255	0xbd7911e7	-0.06080809

5.bias f4 [100]
0	0x3e886295	0.26637712
1	0x3d87dca4	0.06633881
2	0xbd0b5b8c	-0.034022853
3	0xbdf44cc6	-0.11928706
4	0x3df9b868	0.12193376
5	0xbba15dc8	-0.0049245097
6	0x3e873822	0.26410013
7	0x3e2deff5	0.16986068
8	0x3af2d716	0.0018527235
9	0x3dc265c2	0.09492065
10	0xbc1fa867	-0.00974474
11	0x3e4d18fc	0.20029062
12	0x3e3142f8	0.17310703
13	0x3e69df50	0.22839093
14	0xbd26747d	-0.040638436
15	0x3deda4ec	0.11603722
16	0x3b97e471	0.0046353866
17	0xbd5eb817	-0.05437478
18	0xbda2807d	-0.079346634
19	0x3e2380de	0.15967128
20	0xbb8c811f	-0.0042878534
21	0x3cefd89c	0.029278092
22	0x3db1313c	0.08651969
23	0x3e09dffb	0.13464348
24	0xbe3fa49e	-0.1871514
25	0x3d465228	0.048418194
26	0x3d15b3f7	0.03654858
27	0xbe455070	-0.19268966
28	0x3de1531b	0.11002179
29	0xbcebdf39	-0.028792964
30	0xbd238f7d	-0.039931763
31	0xbd06c5be	-0.032903425
32	0x3c841b04	0.016126163
33	0x3e3a986c	0.18222207
34	0xbd01bfbf	-0.031677004
35	0xbcdf19eb	-0.027234038
36	0x3d8e708a	0.06955059
37	0xbddb296d	-0.10701261
38	0xbcb9d12b	-0.022682747
39	0xbd90b822	-0.070663705
40	0xbd8524ad	-0.06501136
41	0x3d847bfd	0.064689614
42	0xbc5b77b7	-0.013395241
43	0x3c5168b0	0.012781307
44	0x3e2d98ac	0.16952771
45	0x3d6145c8	0.05499819
46	0xbc8f717a	-0.017510165
47	0x3e840590	0.25785494
48	0xbba53ec3	-0.005042882
49	0x3d98e302	0.07465173
50	0xbcc1b25c	-0.023644619
51	0xbbd8f82a	-0.0066213803
52	0xbbe2462a	-0.006905337
53	0x3dc891e6	0.09793453
54	0x3e3edb41	0.18638326
55	0x3e11ec46	0.14250287
56	0x3ce31ee2	0.027724687
57	0xbcd10eb1	-0.0255197
58	0x3d8196d5	0.06327597
59	0x3d935635	0.07194177
60	0xbd05877d	-0.032599915
61	0xbd85ea20	-0.065387964
62	0xbcf07959	-0.029354738
63	0x3d1b832a	0.037966885
64	0x3d99d7b8	0.07511848
65	0x3e3895e2	0.18025926
66	0xbda4306c	-0.08017048
67	0x3db6b4d6	0.089212105
68	0xbc9992db	-0.018746784
69	0x3e2d2524	0.169087
70	0xbc9c07db	-0.019046715
71	0x3d875049	0.0660711
72	0x3e5dbb46	0.2165347
73	0xbcf98981	-0.030461075
74	0xbd120811	-0.035652224
75	0xbd4b2b72	-0.04960198
76	0xbd097eab	-0.033568066
77	0xbbe47991	-0.0069724997
78	0xbe547ff6	-0.20751938
79	0xbd26d236	-0.040727817
80	0x3d2c6786	0.042090915
81	0xbcf15f5c	-0.029464416
82	0x3c5c2a4c	0.013437819
83	0x3d22f06a	0.039780058
84	0x3d2ccafc	0.04218577
85	0xbcff4748	-0.03116192
86	0xbb1c3eee	-0.002384122
87	0x3c4fa773	0.0126742
88	0xbd1537c0	-0.03643012
89	0x3e49b26e	0.19696972
90	0xbbdf20b2	-0.0068093175
91	0x3ded082c	0.11573824
92	0x3d259511	0.040425364
93	0x3dba079c	0.090834826
94	0x3e573a22	0.2101827
95	0xbd29c767	-0.04144993
96	0xbd9e7c45	-0.07738546
97	0x3df9c5b9	0.12195916
98	0x3e866556	0.26249188
99	0xbbc76f87	-0.006086293

7.weight f4 [10, 100]
0	0x3d2fc0e6	0.04290857
1	0xbc802ca6	-0.01564629
2	0xbe63898c	-0.22220439
3	0x3f805dbc	1.0028605
4	0xbd46bbe3	-0.048519026
5	0xbd097b6c	-0.03356497
6	0xbd6b22cc	-0.05740623
7	0xbd905da6	-0.07049112
8	0xbdc84402	-0.097785965
9	0x3df16ed3	0.11788716
10	0xbcae5524	-0.021280833
11	0xbe14d569	-0.14534535
12	0xbdb76dbe	-0.089564785
13	0xbe7da9c7	-0.24771796
14	0xbd9d0c0e	-0.07668315
15	0x3d57ff94	0.052733973
16	0xbda88367	-0.08228188
17	0xbd0e60b9	-0.03476021
18	0xbe6d4b7b	-0.23173325
19	0xbea216fa	-0.31658155
20	0x3d2a6093	0.041596007
21	0x3e0c7d38	0.13719642
22	0xbdbf852a	-0.09351571
23	0xbde60f73	-0.112334155
24	0x3dd461a3	0.10370185
25	0x3cb1c35d	0.021699602
26	0xbdf37445	-0.11887411
27	0xbe87478a	-0.26421767
28	0xbe011dfa	-0.12609091
29	0xbd786c72	-0.060650297
30	0x3d6e2b1d	0.058146585
31	0x3d088e67	0.03333893
32	0x3d09b180	0.033616543
33	0xbd82350e	-0.06357776
34	0x3c655b47	0.013998813
35	0xbc8346d6	-0.016024988
36	0xbdb0a9b0	-0.08626115
37	0xbe38df4f	-0.18053935
38	0x3d9f8d14	0.077905804
39	0xbddeaab0	-0.108724
40	0x3e773c4c	0.24144095
41	0x3d2135ac	0.039357826
42	0xbd026273	-0.03183217
43	0xbda089ab	-0.07838758
44	0xbe66aeee	-0.22527668
45	0xbd8bead2	-0.06831898
46	0xbcf2519a	-0.029579926
47	0xbdcbf6bf	-0.099591725
48	0xbda9fb4a	-0.08299883
49	0x3cbb3624	0.022852965
50	0xbd78c006	-0.060730003
51	0xbcf6dd23	-0.030134743
52	0xbda3abeb	-0.07991775
53	0xbdc0b8ef	-0.09410273
54	0xbd6269f5	-0.05527683
55	0xbdeb0a5f	-0.114765875
56	0x3e0a6867	0.13516389
57	0xbdaf3695	-0.085553326
58	0xbd919ba9	-0.07109768
59	0x3ddf3d6a	0.10900386
60	0xbd251ad6	-0.040308796
61	0xbddfbc9d	-0.10924647
62	0xbd1da940	-0.038491488
63	0x3e298bf9	0.16557302
64	0xbe4fb73b	-0.2028474
65	0xbd74bacb	-0.059748452
66	0x3e597efa	0.21239844
67	0xbdc1e817	-0.09468096
68	0xbd8a7fa6	-0.06762628
69	0xbe1a6e4c	-0.15081137
70	0xbe218db9	-0.15776719
71	0xbdb03926	-0.0860465
72	0xbe7082ec	-0.23487443
73	0xbcdd69e4	-0.027028032
74	0x3e7e480c	0.24832171
75	0xbda9943d	-0.08280227
76	0x3cc2aef7	0.02376507
77	0x3e297d61	0.16551735
78	0x3f296819	0.66174465
79	0x3db3bedd	0.08776639
80	0xbcfd4ff7	-0.03092192
81	0xbc3fdd09	-0.011710414
82	0xbd514590	-0.05109173
83	0x3d76cf76	0.060256444
84	0x3e7e6673	0.24843769
85	0x3e38fc13	0.18064909
86	0x3da1b225	0.078953065
87	0x3df7d836	0.12101786
88	0xbc0a34a7	-0.008435405
89	0xbd90f99d	-0.0707886
90	0xbd95cf30	-0.073149085
91	0xbd3b7b0d	-0.045771647
92	0xbde56f00	-0.11202812
93	0xbc2f6af0	-0.010706648
94	0xbe00b7db	-0.12570135
95	0xbd8c0069	-0.06836016
96	0x3dcf4210	0.10120022
97	0xbdf6b5dc	-0.12046406
98	0xbe02c01b	-0.12768595
99	0x3d875486	0.066079184
100	0x3e0eb908	0.13937771
101	0xbc7fcdfe	-0.015613077
102	0xbe63ec0e	-0.22258016
103	0xbe5b398a	-0.21408668
104	0x3e043f6d	0.1291482
105	0x3d5eeae5	0.05442323
106	0x3d122800	0.03568268
107	0x3e7371a9	0.23773827
108	0x3dd5d1a7	0.10440379
109	0xbde203fd	-0.11035917
110	0x3c6a5d2d	0.014304441
111	0xbe0d8069	-0.13818516
112	0xbdb8ae89	-0.09017665
113	0x3d73b61d	0.05949985
114	0xbd9ddffd	-0.07708738
115	0xbd074ef3	-0.033034276
116	0xbda6568d	-0.08121977
117	0xbcfc3beb	-0.03079029
118	0xbe6d62a2	-0.23182157
119	0x3cc415a6	0.023936104
120	0x3c027da5	0.007964526
121	0xbd6ffc4f	-0.05859023
122	0xbdd10e21	-0.10207773
123	0xbd805cb3	-0.06267681
124	0xbe5f637d	-0.21815296
125	0x3c9e62cb	0.019334218
126	0x3c8320a5	0.016006777
127	0x3f744f4b	0.9543349
128	0x3e1e9646	0.15487012
129	0x3d92f8a0	0.07176328
130	0x3cdb6270	0.026780337
131	0xbd2e3ea0	-0.042540193
132	0xbd66ded8	-0.056364864
133	0x3d9ef23c	0.07761046
134	0x3d2191ea	0.039445795
135	0x3d8b3378	0.06796926
136	0xbdf35ddd	-0.118831374
137	0xbe390bb7	-0.18070875
138	0xbd16c92f	-0.036812957
139	0xbddf9063	-0.109162115
140	0xbda80f84	-0.08206084
141	0xbe3294f9	-0.17439641
142	0xbd809d42	-0.062799945
143	0x3d7b8c40	0.06141305
144	0x3f81af90	1.0131702
145	0xbd8bc3f7	-0.06824487
146	0xbca077ce	-0.019588377
147	0x3f0b493a	0.5440861
148	0xbd3769fd	-0.044778813
149	0x3cbacbdf	0.022802291
150	0x3bcc2eb5	0.006231154
151	0x3d88db5c	0.066824645
152	0xbd077e2c	-0.03307931
153	0xbdbe9b03	-0.0930691
154	0xbd61188e	-0.054955058
155	0xbcd1e9dd	-0.02562421
156	0xbdb19699	-0.08671302
157	0xbc535aa8	-0.012900032
158	0x3d3f2590	0.04666668
159	0xbca18a87	-0.019719375
160	0x3d19bf83	0.037536155
161	0xbddff4cc	-0.10935363
162	0x3cab0f21	0.020881237
163	0xbe6cb87b	-0.23117249
164	0xbe501229	-0.20319428
165	0xbd6b808f	-0.05749565
166	0xbddd07fe	-0.1079254
167	0x3d96220c	0.07330713
168	0xbd0d6b4f	-0.034526166
169	0xbe1967f6	-0.14981064
170	0xbe2295a8	-0.15877402
171	0xbdb09a0d	-0.08623133
172	0xbdb4c4b7	-0.08826583
173	0xbcdccf46	-0.026954304
174	0xbc1f2a84	-0.009714726
175	0xbd9d6478	-0.076851785
176	0x3c513daf	0.012771054
177	0xbe885856	-0.26629895
178	0xbdf05580	-0.11735058
179	0xbd534f46	-0.051589273
180	0xbde5fcee	-0.11229883
181	0x3d2b5047	0.041824605
182	0xbd53cae8	-0.05170718
183	0xbde7f0b8	-0.1132521
184	0x3e625b47	0.22105132
185	0xbd18c475	-0.03729673
186	0xbd15403f	-0.036438223
187	0xbd9314a0	-0.07181668
188	0xbdac362b	-0.08408769
189	0x3e22f630	0.15914226
190	0xbd96d78e	-0.073653325
191	0xbd353c92	-0.044247217
192	0xbde5d135	-0.11221544
193	0xbc01628b	-0.00789703
194	0xbdd1f03f	-0.102509014
195	0xbd8d1aa4	-0.06889847
196	0xbe98b205	-0.29823318
197	0xbe15424b	-0.1457607
198	0x3e0b4dbc	0.13603872
199	0x3d2d354c	0.042287156
200	0xbcd8d113	-0.026466882
201	0xbc7f5629	-0.015584507
202	0xbe63afe1	-0.22235061
203	0xbe5b4d59	-0.21416225
204	0xbd48c668	-0.04901734
205	0xbc5734dd	-0.013135162
206	0xbd0b7827	-0.034050133
207	0xbd92af0a	-0.07162292
208	0x3e3593b7	0.1773213
209	0xbde4b2c8	-0.11166912
210	0xbcda5cf2	-0.026655648
211	0x3d9e29cd	0.077228166
212	0xbdb838a8	-0.08995181
213	0xbe79d8fb	-0.24399178
214	0xbd9d0bff	-0.07668304
215	0xbd0ba80a	-0.0340958
216	0xbda8851a	-0.08228512
217	0x3d9db956	0.07701366
218	0x3f2c00e1	0.6718884
219	0x3e1690f3	0.14703731
220	0xbd501e72	-0.050810285
221	0x3d0429e0	0.032266498
222	0xbd4861c1	-0.04892135
223	0x3e5a0113	0.21289472
224	0x3dcff9d7	0.10155075
225	0x3ca53886	0.020168554
226	0x3e87e0e1	0.26538756
227	0xbe872f1d	-0.26403132
228	0x3dfa7150	0.12228644
229	0xbd955c26	-0.072929665
230	0xbdd01dc9	-0.10161931
231	0xbce08e84	-0.027411707
232	0xbd6a080e	-0.057136588
233	0xbd80e6da	-0.062940314
234	0x3d81e4c1	0.063424595
235	0xbd52ea5d	-0.051493037
236	0xbd27d65e	-0.04097592
237	0xbe3924cd	-0.18080445
238	0x3c8e5aae	0.017377224
239	0xbde025c4	-0.10944703
240	0xbdaaa544	-0.08332303
241	0x3c8c30c6	0.0171131
242	0x3d9e2d61	0.07723499
243	0x3d884afe	0.066549286
244	0xbe66ac88	-0.22526753
245	0x3eba918a	0.36439162
246	0x3c5240f6	0.012832871
247	0xbdcd027c	-0.100102395
248	0x3d460e55	0.04835351
249	0x3cbb2121	0.022842946
250	0xbd846dd3	-0.0646626
251	0x3db46d74	0.08809939
252	0xbcd2ef2a	-0.025748808
253	0xbdc0a734	-0.094068915
254	0xbd63bfd1	-0.055602852
255	0xbdebdb86	-0.1151648

7.bias f4 [10]
0	0xbe61d663	-0.22054438
1	0xbdec00af	-0.11523568
2	0xbd996b93	-0.07491221
3	0xbdf7241d	-0.12067435
4	0x3ddfc22f	0.109257095
5	0x3e2dbb6e	0.1696603
6	0xbdd280dc	-0.10278484
7	0xbdeed099	-0.116608806
8	0x3e2c6176	0.16834053
9	0x3db0e9b0	0.08638322
