models/more_models/MNIST/more_small1_1.pth (torch, 668111 bytes, 8 tensors)

0.weight f4 [16, 1, 4, 4]
0	0xbd0de840	-0.03464532
1	0xbd9b6269	-0.075871296
2	0xbd233e49	-0.03985432
3	0xbdd2306b	-0.10263141
4	0xbdb266e2	-0.087110296
5	0xbd3c9b82	-0.04604674
6	0xbdb25fd1	-0.08709682
7	0xbd977453	-0.07395234
8	0x3d50a921	0.050942544
9	0xbdf4123a	-0.11917539
10	0xbee19f02	-0.44066626
11	0xbe5f0d06	-0.21782312
12	0xbe34cfd2	-0.17657402
13	0xbcf4ebd1	-0.029897602
14	0xbd3bae28	-0.045820385
15	0x3c0ae621	0.008477719
16	0xbde35594	-0.11100307
17	0xbce2eb29	-0.027700024
18	0xbd3441c5	-0.044008035
19	0xbc40d795	-0.011770149
20	0xbd28f5ba	-0.041249968
21	0x3e85f2dc	0.2616185
22	0xbd82712c	-0.06369242
23	0xbd32fed3	-0.04370005
24	0xbd0aec01	-0.033916477
25	0xbe3d11ec	-0.18463868
26	0xbe31eb13	-0.1737483
27	0xbcaf8e02	-0.02143002
28	0xbe548665	-0.20754392
29	0xbd73d333	-0.059527587
30	0xbe8b0f02	-0.27159888
31	0xbd6a4fd3	-0.057205033
32	0xbe289390	-0.1646254
33	0xbe8aca68	-0.2710755
34	0xbd831386	-0.06400208
35	0xbd9d3745	-0.076765575
36	0xbbcc3072	-0.006231361
37	0x3bf86971	0.007580929
38	0xbdaed960	-0.08537555
39	0xbdb881da	-0.09009142
40	0xbcc8dc82	-0.024519209
41	0xbbdfac04	-0.006825926
42	0xbea75acd	-0.32686463
43	0xbe4fec29	-0.20304932
44	0x3de56e4f	0.1120268
45	0xbc51bbaf	-0.012801095
46	0xbcb55d7a	-0.0221393
47	0xbddb79aa	-0.10716565
48	0x3957e419	0.00020588971
49	0x3f5e4816	0.86828744
50	0x3b80e507	0.003933552
51	0xbc0a24b0	-0.008431599
52	0xbb004a85	-0.0019575667
53	0x3ac28913	0.0014841877
54	0x3b2cafc8	0.002634989
55	0x3b8e5b61	0.0043443893
56	0x3b812f88	0.0039424337
57	0x3a8acc74	0.0010589496
58	0xbb2cc7dd	-0.0026364245
59	0xbb057f2f	-0.0020369997
60	0x3aec0d23	0.0018009286
61	0xbb1091eb	-0.002205963
62	0xbb89be82	-0.0042036185
63	0x3afc3801	0.0019242765
64	0xbbdd4a4b	-0.006753241
65	0xbc23987f	-0.009985088
66	0xbb76230a	-0.0037557506
67	0xbb26ed04	-0.0025470862
68	0x3b976eba	0.004621354
69	0xbbab4580	-0.005226791
70	0x3fa155af	1.2604274
71	0xbba14e54	-0.0049226675
72	0x3b4703a2	0.0030367156
73	0x3a487adc	0.0007647702
74	0xbabba49a	-0.0014316023
75	0x3ae12b7d	0.0017179098
76	0x3b2fb344	0.0026809731
77	0x3bf5a654	0.0074966345
78	0xbb971cd2	-0.00461159
79	0x3be0572c	0.006846329
80	0xbd3de0bd	-0.046356905
81	0xbd59c7d4	-0.053169087
82	0xbc9c6dad	-0.019095266
83	0xbd5c5174	-0.053788617
84	0xbd55abfc	-0.05216597
85	0xbba9611e	-0.005169048
86	0xbd2a3a56	-0.04155954
87	0x3d4c6e2b	0.04990975
88	0xbd09b216	-0.0336171
89	0x3c99461c	0.018710189
90	0xbc2feaee	-0.010737164
91	0xbd9b6413	-0.07587447
92	0xbce6c91f	-0.028172074
93	0x3b82177d	0.003970085
94	0xbd0a0078	-0.033691853
95	0xbd38e531	-0.04514045
96	0x3c8fbfbc	0.01754748
97	0x3c8a5ce0	0.01688999
98	0xbafdb902	-0.0019357505
99	0xbc27a4e3	-0.010232183
100	0xbd24a3ac	-0.040195152
101	0xbd1748e5	-0.036934752
102	0xbc6c2bf9	-0.014414781
103	0xb9adca14	-0.0003314769
104	0xbb54f5e9	-0.0032495207
105	0xbb228dae	-0.0024803686
106	0xbc7cc101	-0.015426875
107	0xbd19e3e0	-0.037570834
108	0xbac44479	-0.001497402
109	0xbb1eb3e1	-0.0024216103
110	0xbd084d9b	-0.033277135
111	0xbbf23d8f	-0.0073925923
112	0x3e0e2133	0.13879852
113	0xbe2f81a8	-0.17139304
114	0xbb72b592	-0.0037034494
115	0xbcf400c9	-0.02978553
116	0x3cd6de57	0.026229067
117	0xbe5d80d0	-0.2163117
118	0x3ca5a2bf	0.020219205
119	0xbc63d55a	-0.013905847
120	0xbd7352d4	-0.059405163
121	0xbd615732	-0.055014797
122	0xbd08c4d0	-0.03339082
123	0xbca66aad	-0.020314539
124	0xbc24fbf8	-0.01006984
125	0xbd602912	-0.054726668
126	0xbce7c45a	-0.02829187
127	0xbbafe159	-0.0053674397
128	0x3b0c3ffe	0.0021400447
129	0xbb411296	-0.002946054
130	0xba84b17d	-0.0010123696
131	0x3b8a8954	0.0042277966
132	0xbb3e9b6d	-0.002908434
133	0x3937c802	0.00017526749
134	0xbb176749	-0.0023102334
135	0x3b0adb59	0.002118787
136	0xbbcdf1f8	-0.0062849484
137	0x3fca2744	1.5793233
138	0xbb25e10e	-0.0025311145
139	0xbbe17c24	-0.006881254
140	0x3af30fad	0.00185441
141	0x3b8f86ec	0.0043800976
142	0xbbff1205	-0.0077841305
143	0x3bec905d	0.007219358
144	0x3b384bd3	0.0028121367
145	0x3b17ff7a	0.0023193047
146	0xb91a4477	-0.0001471209
147	0xbab8523c	-0.0014062594
148	0xbab27fc9	-0.0013618405
149	0x3ac5c775	0.001508935
150	0x39274792	0.00015953023
151	0xbab70362	-0.00139628
152	0xbb24dc5a	-0.0025155754
153	0x3a162270	0.00057271775
154	0x3a23497e	0.0006228908
155	0x3a65dc26	0.00087684614
156	0x3aa7b392	0.0012794605
157	0x3a28094a	0.00064100756
158	0xbabc0f6f	-0.0014347861
159	0x3a2055d8	0.00061163073
160	0xba441283	-0.0007479565
161	0xba7e941b	-0.00097114005
162	0x39955f4e	0.00028490502
163	0x399ebdb7	0.00030277457
164	0xbb0f4fdd	-0.002186767
165	0xba98517a	-0.0011620962
166	0xba84d114	-0.0010133111
167	0xba933617	-0.001123133
168	0xb99ffc2d	-0.0003051473
169	0x3997d771	0.0002896148
170	0x39e38895	0.00043398576
171	0xba1c131b	-0.00059537747
172	0x3b0337b1	0.0020022208
173	0xb8470a22	-4.7454734e-05
174	0x3a80c0c3	0.0009823072
175	0x3b345ea4	0.002752223
176	0x3b6e9b71	0.0036408568
177	0xbb2afdbe	-0.0026091184
178	0xba791f6b	-0.0009503278
179	0xbb433dee	-0.0029791552
180	0x3bcf7b22	0.0063318172
181	0x3fc05927	1.5027207
182	0x3a94c531	0.0011350272
183	0xbb9f2f95	-0.004857967
184	0xbb22de7b	-0.0024851847
185	0xbb11895a	-0.0022207112
186	0x3acfb58a	0.001584695
187	0x39f37102	0.0004643277
188	0x3b1152cf	0.0022174602
189	0xbb06e2ab	-0.0020581882
190	0xbae0ad55	-0.0017141501
191	0x3b70b28f	0.0036727523
192	0xbbb3bdda	-0.0054852786
193	0x3bae5c8d	0.0053210915
194	0x3bca841a	0.0061802985
195	0xbb191e31	-0.0023363943
196	0x39948f41	0.00028335492
197	0x3b58727b	0.003302722
198	0xbae1ba3b	-0.0017221639
199	0x3b6ef963	0.0036464564
200	0xbb4bbd85	-0.0031088304
201	0x3bc46da0	0.0059945136
202	0x39c2785a	0.00037092232
203	0x3efa42c2	0.48879057
204	0xbb370c31	-0.002793085
205	0x3b474d30	0.0030410998
206	0xbac08160	-0.0014686994
207	0xbb258d44	-0.0025261203
208	0xbbccef3e	-0.006254106
209	0x3b338169	0.0027390367
210	0x3ae64cf2	0.0017570539
211	0xbb80a97f	-0.0039264555
212	0x3a9198b4	0.0011108131
213	0x3bb35fd4	0.00547407
214	0x3b4c651c	0.0031188196
215	0x3bb42050	0.005497016
216	0x3f37ba7a	0.71768916
217	0x3b968e32	0.0045945877
218	0x39ca3267	0.00038565995
219	0x3adac6ff	0.0016691386
220	0xbbd41ee6	-0.00647341
221	0x3b002cee	0.001955803
222	0xbbe76716	-0.0070618493
223	0x3b65d46f	0.0035069247
224	0xbb8b4300	-0.0042499304
225	0x3b5c4026	0.0033607571
226	0xbbdd9e6a	-0.006763269
227	0xbb5b113f	-0.0033427028
228	0xbc060071	-0.008178816
229	0xbbb87685	-0.005629363
230	0xbbe1de56	-0.0068929596
231	0x3b98155e	0.004641219
232	0x3b8858b2	0.004160964
233	0xbb7dd671	-0.0038732553
234	0x3ff15a64	1.885571
235	0xbaf2d1fd	-0.0018525716
236	0xb84e7666	-4.9224494e-05
237	0x3bb7911c	0.005602015
238	0xbb2269bd	-0.0024782263
239	0xbb1e52e2	-0.0024158289
240	0xbce0c306	-0.027436744
241	0xbc73519c	-0.014851
242	0xbc13af57	-0.009013972
243	0xbc011f20	-0.007880956
244	0xbb9d649d	-0.004803254
245	0x3b329290	0.0027248003
246	0xbc712eea	-0.014720658
247	0xbd09db3f	-0.033656355
248	0xbd1f8691	-0.038946692
249	0xbc56ee10	-0.013118282
250	0xbd1a3539	-0.037648413
251	0xba8c13d4	-0.0010687062
252	0x3ca57a6b	0.020199975
253	0xbc8a68c6	-0.016895663
254	0xbcc29077	-0.023750527
255	0xbd418748	-0.047248155

0.bias f4 [16]
0	0xbe88f5b5	-0.2674996
1	0xbeefd035	-0.46838537
2	0xbed3faff	-0.41402432
3	0xbe14ae47	-0.14519607
4	0xbe473546	-0.19453916
5	0xbe0c4a1d	-0.13700147
6	0xbd9c6bda	-0.076377586
7	0xbeb6debf	-0.35716817
8	0xbe776dd4	-0.2416299
9	0x3e090970	0.13382506
10	0x3eebe7fe	0.46075433
11	0xbe6cb3ca	-0.23115459
12	0xbdabfb30	-0.083975196
13	0xbde71607	-0.11283498
14	0xbe976975	-0.29572645
15	0xbd7b7350	-0.061389267

2.weight f4 [32, 16, 4, 4]
0	0x3c9d002a	0.019165117
1	0x3c5cb1fe	0.013470171
2	0xbd0909bd	-0.033456553
3	0xbd2b34a1	-0.041798238
4	0x3d123e10	0.03570372
5	0xbdadf511	-0.08494008
6	0xbccdf573	-0.025141453
7	0x3cb29d50	0.021803528
8	0xbce390c7	-0.027778996
9	0xbd75717a	-0.059922673
10	0x3e0b7b34	0.13621217
11	0xbda6dc5c	-0.08147499
12	0x3d3052b3	0.043047618
13	0xbbb8af3f	-0.0056361253
14	0xbbdc1b20	-0.0067171007
15	0xbdd339c4	-0.10313752
16	0x3d6f5c40	0.058437586
17	0xbe39bae1	-0.18137695
18	0xbd1c547b	-0.038166504
19	0x3d3d20a1	0.046173695
20	0x3cfe934a	0.031076092
21	0xbd0a8c35	-0.033825118
22	0x3caf9535	0.021433452
23	0x3d005acf	0.0313366
24	0x3d79c4f4	0.060978845
25	0xbdf1a753	-0.11799493
26	0xbe80cba4	-0.25155365
27	0xbd0e4d04	-0.034741417
28	0xbe3aeab8	-0.182536
29	0x3d3a97a5	0.045554776
30	0x3cf07de6	0.029356908
31	0xbd79db77	-0.061000314
32	0x3e2047ee	0.15652439
33	0x3dff430f	0.12463962
34	0x3e582c4d	0.2111065
35	0x3da0d513	0.07853141
36	0xbd2c7f80	-0.04211378
37	0x3b8d380c	0.00430966
38	0x3e0bc200	0.13648224
39	0x3d75829f	0.059939023
40	0xbe063a91	-0.13108279
41	0x3dd2dc19	0.102958865
42	0x3db73ce1	0.089471586
43	0x3d5880ad	0.05285709
44	0x3d972d0b	0.07381638
45	0xbdb51682	-0.08842184
46	0xbbfa2317	-0.0076335776
47	0xbdcf1f26	-0.10113363
48	0x3cf3e175	0.029770592
49	0x3d73cfd4	0.059524372
50	0xbcbb3fab	-0.022857508
51	0xbd0f09c6	-0.03492143
52	0x3d57fa3f	0.052728888
53	0x3daecea1	0.08535505
54	0x3e79b5f7	0.2438582
55	0x3d43b0a3	0.047775876
56	0xbd91c1b9	-0.07117028
57	0xbd988245	-0.07446722
58	0x3e664746	0.22488126
59	0x3d03e453	0.03220017
60	0xbea8dd28	-0.3298123
61	0xbe531eff	-0.20617293
62	0x3c8132a2	0.015771214
63	0x3d1e15ea	0.038595118
64	0xb938834f	-0.00017596524
65	0x3c0f4278	0.008743875
66	0x3c1d5d9f	0.009604841
67	0x3b1b5105	0.0023699414
68	0x3d33c329	0.04388729
69	0x3e4f85f6	0.20265946
70	0x3d0047a1	0.03131831
71	0xbba02759	-0.004887503
72	0xbcc01064	-0.023445316
73	0x3c708572	0.014680253
74	0x3daf35b8	0.08555168
75	0x3d1bdeb3	0.03805418
76	0xbf4f0109	-0.80860955
77	0xbdab00bf	-0.08349752
78	0xbb9934d6	-0.004675488
79	0xbb8f241c	-0.0043683182
80	0x3d5fd07a	0.054642178
81	0x3db1ce1f	0.086818926
82	0x3d84c086	0.064820334
83	0x3d50a9cc	0.05094318
84	0xbd580d73	-0.0527472
85	0xbd3d26f1	-0.046179716
86	0x3cc43231	0.023949714
87	0xbd6dcac3	-0.058054697
88	0xbd1bfe0f	-0.038084086
89	0x3c96f07a	0.018425215
90	0x3d66efd6	0.05638107
91	0xbd2159ea	-0.03939239
92	0x3cfbb437	0.030725582
93	0xbb613ae0	-0.0034367368
94	0xbcc57540	-0.02410376
95	0x3c85b61c	0.016322188
96	0x3a441469	0.0007479848
97	0x3941914a	0.00018460039
98	0xbdd3b3d3	-0.10337033
99	0xbca27674	-0.019831873
100	0xbcb2d059	-0.021827864
101	0x3c6623df	0.014046638
102	0xbd777f41	-0.060424093
103	0x3d0c49aa	0.03424994
104	0xba8eb4c3	-0.0010887611
105	0x3cf5841d	0.029970223
106	0x3ceb25c6	0.028704535
107	0xbcecfb43	-0.028928405
108	0x3c65467b	0.013993855
109	0xbcd6962e	-0.026194658
110	0x3c55b9f0	0.013044819
111	0x3c5c26c8	0.013436981
112	0xbd91c1a8	-0.07117015
113	0xbdaeadb1	-0.08529223
114	0x3e1c7549	0.15279116
115	0xbd3b4a0e	-0.04572492
116	0x3d5a8468	0.05334893
117	0xbe026308	-0.1273309
118	0x3d8f558c	0.06998739
119	0xbe69f175	-0.22846015
120	0xbd730ee1	-0.05934036
121	0xbdad8ec1	-0.08474494
122	0xbc8390eb	-0.016060313
123	0x3bf77b53	0.007552543
124	0xbd5d0946	-0.053963922
125	0xbbd75a10	-0.0065720156
126	0xbb8d9b03	-0.0043214574
127	0x3c15db75	0.009146561
128	0xbc6fbee0	-0.0146329105
129	0x3dddce4a	0.10830362
130	0x3e0f53cc	0.1399681
131	0x3c7da40e	0.015481008
132	0x3d2f1eaf	0.04275387
133	0x3de2b45f	0.11069559
134	0x3eb80dbf	0.35947987
135	0x3d2b174e	0.041770272
136	0xbefa9c97	-0.48947594
137	0xbe9d5227	-0.3072674
138	0x3d572e75	0.05253454
139	0x3c6aa89c	0.014322426
140	0xbead1da1	-0.33811668
141	0xbf0891b0	-0.533473
142	0xbd6e0f00	-0.058119774
143	0x3c7cd98a	0.015432725
144	0xbcbd95fa	-0.023142803
145	0x3ccb3d9b	0.02480965
146	0xb9edd22c	-0.00045360753
147	0x3d7a78e0	0.06115043
148	0x3a684268	0.0008859993
149	0x3c154df1	0.009112821
150	0xbbb86be7	-0.0056280973
151	0xbc83c8b4	-0.016086914
152	0xbaa64b45	-0.0012687227
153	0x3c056462	0.008141609
154	0xbcd9303b	-0.026512256
155	0x3b9f7e97	0.0048673856
156	0xbc9b34f9	-0.018946158
157	0x3c35c3e0	0.0110940635
158	0xbca0ef47	-0.019645346
159	0x3c6cbc06	0.014449125
160	0x3d2db7d2	0.042411633
161	0xbc78935f	-0.015171855
162	0x3d342bdf	0.04398715
163	0x3dc89fcc	0.09796104
164	0x3d8a1200	0.067417145
165	0xbd8087b8	-0.06275886
166	0xbd2d81d7	-0.042360153
167	0x3dbc27a4	0.09187248
168	0xbd343c98	-0.0440031
169	0xbd1334f7	-0.035939183
170	0xbd03c9ea	-0.032174982
171	0x3c437383	0.011929396
172	0xbd7eb51e	-0.062184446
173	0x3c97fc67	0.018552972
174	0xbcb77759	-0.022395777
175	0xbc8a663a	-0.016894449
176	0x3be2c4af	0.006920419
177	0x3b724815	0.0036969234
178	0x3cf8a9fe	0.030354496
179	0xbd1a9691	-0.037741248
180	0x3c027158	0.007961594
181	0x3e5a62bd	0.21326728
182	0x3e66a69c	0.22524494
183	0x3cf7cb54	0.030248322
184	0xbe052fbc	-0.1300649
185	0xbcbefb4e	-0.02331319
186	0x3e2d2aa9	0.16910805
187	0x3c9f7a7f	0.01946759
188	0xbf3b64b7	-0.73200554
189	0xbf31078e	-0.6915215
190	0xb91a9ab2	-0.00014744213
191	0x3d55ca77	0.05219504
192	0x3db9e849	0.09077508
193	0x3d46134d	0.04835825
194	0xbd8d4797	-0.0689842
195	0xbd1e6428	-0.038669735
196	0x3d6a9cb2	0.057278343
197	0x3e044bcd	0.1291954
198	0xbe3223ff	-0.17396544
199	0x3ca0fc28	0.019651487
200	0xbe416c9e	-0.1888909
201	0xbdf0eb2f	-0.11763608
202	0xbd887fc8	-0.06664997
203	0x3d838c7b	0.06423279
204	0xbe5d22ff	-0.21595381
205	0x3e2c5ea2	0.16832975
206	0x3df2c1c7	0.11853366
207	0x3e0e1c05	0.13877876
208	0xbcac4361	-0.021028223
209	0xbdabba00	-0.08385086
210	0x3daf69ab	0.085650764
211	0x3d5cf793	0.053947043
212	0x3c27bf5e	0.010238497
213	0xbd869b36	-0.06572573
214	0x3deb15c7	0.11478763
215	0x3d66ef72	0.056380697
216	0xbe6f8257	-0.23389564
217	0xbf00994c	-0.5023391
218	0x3dd6c295	0.10486332
219	0xbd257308	-0.040392905
220	0xbdba2983	-0.09089949
221	0xbeedf515	-0.46476045
222	0xbdf8000f	-0.12109386
223	0x3c2fbdec	0.010726433
224	0x3d884774	0.066542536
225	0x3e08de14	0.13365966
226	0x3cabf839	0.020992385
227	0xbc46bac8	-0.012129493
228	0x3d2ea1e4	0.04263486
229	0x3e92e7b1	0.28692392
230	0x3e190f13	0.14947157
231	0xbcc41fbb	-0.023940912
232	0xbf13cbc1	-0.5773278
233	0xbdb1a8ea	-0.08674796
234	0x3da088a0	0.07838559
235	0x3b7bc713	0.0038418218
236	0xbf18936f	-0.59599966
237	0xbcf125ae	-0.029436912
238	0x3c8c3cbf	0.01711881
239	0x3d7a3bce	0.06109219
240	0xbc58a105	-0.013221984
241	0xbcb8f9be	-0.022580024
242	0x3b34052a	0.0027468898
243	0xbcdf9af4	-0.027295567
244	0xbbddcb5b	-0.0067686266
245	0xbcbe055c	-0.023195915
246	0xbaac094a	-0.0013125327
247	0x3c083883	0.008314255
248	0xbc517d97	-0.012786291
249	0xbcee4920	-0.029087603
250	0xbd582559	-0.052769993
251	0x3d16185f	0.036644336
252	0xbcb29c99	-0.021803187
253	0x3b868d47	0.004106197
254	0x3c9d6395	0.019212523
255	0xbca03d88	-0.01956059

2.bias f4 [32]
0	0x3c9a84a8	0.018862084
1	0xbec9dae2	-0.39424807
2	0xbea07ba8	-0.31344342
3	0xbd31a17b	-0.04336689
4	0xbd801e94	-0.06255832
5	0xbdcc94d6	-0.09989326
6	0xbda0f5b5	-0.07859365
7	0xbd2a2188	-0.041535884
8	0x3cfa114b	0.030525824
9	0xbd5f91fe	-0.05458259
10	0xbd7760a1	-0.060394887
11	0x3e374fff	0.1790161
12	0x3ed4b273	0.41542396
13	0xbe8414f4	-0.25797236
14	0xbe872e4b	-0.26402506
15	0xbdfbc2fa	-0.12293048
16	0xbd3c55a1	-0.0459801
17	0x3dfc9a64	0.12334135
18	0x3ebd25ae	0.3694281
19	0xbd68a5c8	-0.056798726
20	0xbecfe28f	-0.40602538
21	0x3e908846	0.28228968
22	0xbd7a764a	-0.061147965
23	0xbda11772	-0.078658
24	0xbdab198a	-0.083544806
25	0xbde5b9ed	-0.11217103
26	0xbcbb52cf	-0.022866635
27	0xbdc3ad79	-0.09554572
28	0xbda6eb4b	-0.08150347
29	0xbcb87b92	-0.02251986
30	0xbc13573e	-0.008992968
31	0x3ec2040a	0.37893707

5.weight f4 [100, 1568]
0	0x3dfadbc2	0.12248947
1	0x3dcbea1d	0.09956763
2	0xbd7bb990	-0.061456263
3	0xbd73af18	-0.059493154
4	0xbe07aec4	-0.13250262
5	0xbb273c61	-0.0025518166
6	0x3c58d5d4	0.013234574
7	0x3e024319	0.12720908
8	0x3e259407	0.16169749
9	0xbcd7de74	-0.026351191
10	0xbd85092d	-0.06495891
11	0x3db95142	0.09048702
12	0x3e0db0cb	0.13836972
13	0xbddd1476	-0.10794918
14	0xbdbab09c	-0.09115717
15	0x3da40e3c	0.080105275
16	0x3ae20f56	0.0017247002
17	0xbd30da67	-0.043177035
18	0x3ad7ca2a	0.0016463448
19	0xbe16f5ba	-0.14742175
20	0x3dae0c1d	0.08498404
21	0x3dc5b927	0.09654456
22	0x3dd4ceb9	0.10390992
23	0x3e9bbb4d	0.30416337
24	0x3db07a38	0.086170614
25	0xbea435ee	-0.32072395
26	0xbe159059	-0.14605846
27	0xbd7f4fe4	-0.06233205
28	0x3d308a12	0.043100424
29	0xbe9d0505	-0.30667892
30	0xbe714814	-0.23562652
31	0xbca5920e	-0.020211246
32	0xbd52d104	-0.051468864
33	0xbe676406	-0.2259675
34	0x3d8ad946	0.06779723
35	0xbe179d2f	-0.14806055
36	0xbe9efe3b	-0.31053337
37	0x3d0eff8f	0.03491169
38	0x3d902d10	0.07039845
39	0x3c9d3119	0.01918845
40	0xbd70ab60	-0.058757186
41	0xbe355861	-0.17709495
42	0x3ca82d0e	0.020529296
43	0xbcdf586b	-0.02726384
44	0x3db175f7	0.08665078
45	0x3cf1b95a	0.029507328
46	0x3d01089f	0.031502362
47	0xbdf0239f	-0.11725544
48	0x3dd38536	0.10328142
49	0xbc1ade45	-0.009452407
50	0x3ac8d182	0.0015321227
51	0xbde32a9c	-0.110921115
52	0x3dba3090	0.09091294
53	0x3e4ce133	0.20007782
54	0x3ce2f992	0.027706895
55	0x3e422103	0.18957905
56	0xbd879dd8	-0.06621903
57	0xbd0e90c2	-0.03480602
58	0xbd0ac4f4	-0.033879235
59	0xbc2db809	-0.010602959
60	0x3daf12d0	0.0854851
61	0xbdb28f94	-0.087187916
62	0xbe1d95f0	-0.15389228
63	0xbe107983	-0.14108853
64	0xbc576d80	-0.013148665
65	0x3c38343d	0.011242923
66	0xbd5e726d	-0.054308344
67	0xbd170c15	-0.036876757
68	0xbd4e1072	-0.050308652
69	0x3cc56a08	0.024098411
70	0x3ab528e2	0.0013821388
71	0x3b815e26	0.003947991
72	0x3e3266bd	0.17422004
73	0xbc255591	-0.010091201
74	0x3cbb3015	0.022850076
75	0x3900041d	0.00012208564
76	0xbdd63bd4	-0.1046063
77	0xbd85239d	-0.06500933
78	0x3cbb9082	0.022896055
79	0xbd5d1173	-0.05397172
80	0x3ccd28e4	0.025043912
81	0x3d1057b9	0.03523991
82	0xbdc8e1e5	-0.09808711
83	0x3b073a2b	0.0020634036
84	0xbde1de4c	-0.11028728
85	0xbe37ae6f	-0.17937635
86	0x3c960ca4	0.018316574
87	0x3dbddeb4	0.09270993
88	0x3db8d977	0.09025853
89	0xbd588282	-0.052858837
90	0xbc1729b7	-0.009226254
91	0xbdaf0d69	-0.0854748
92	0x3c4ba4d7	0.012429438
93	0x39ebc1c6	0.00044967065
94	0xbb12dfe1	-0.0022411274
95	0x3e32b8e8	0.17453349
96	0x3cee728d	0.029107356
97	0x3cc5453a	0.024080861
98	0x3ce19340	0.027536035
99	0xbdfc5ed7	-0.12322777
100	0xbded888e	-0.11598311
101	0xbe24325a	-0.16034833
102	0xbdfa1a0a	-0.12211998
103	0x3c28950a	0.01028944
104	0x3cf1352c	0.0294443
105	0xbe317c26	-0.17332515
106	0xbcb6606d	-0.022262776
107	0xbdaa3805	-0.08311466
108	0x3cf13134	0.029442407
109	0xbda97db1	-0.08275927
110	0xbdf8cb60	-0.12148166
111	0x3dc4cc74	0.09609309
112	0xbd7b5dab	-0.061368626
113	0xbc27fc80	-0.010253072
114	0x3d936fa7	0.0719903
115	0x3c9b12a6	0.01892979
116	0x3d7c69e9	0.06162444
117	0xbd96b525	-0.07358769
118	0xbd9c617a	-0.0763578
119	0x3e139dc7	0.14415656
120	0xbda5bbd4	-0.08092466
121	0x3cb0e725	0.021594593
122	0x3e0c477d	0.13699146
123	0xbdb2fcd8	-0.08739632
124	0xbd0f7242	-0.035021074
125	0x3d6694f8	0.05629441
126	0xbe90aa13	-0.28254756
127	0xbd8fe43b	-0.070259534
128	0xbd108f50	-0.035292923
129	0xbc90ce8d	-0.017676616
130	0xbcbd52cd	-0.023110772
131	0xbd2f7676	-0.042837583
132	0xbc9cbec8	-0.01913394
133	0xbdb05641	-0.086102016
134	0x3d90cee5	0.07070712
135	0xbda9b640	-0.082867146
136	0x3de32ec3	0.110929035
137	0xbe2ace1c	-0.16680187
138	0xbcf22b8e	-0.029561784
139	0xbc8f5ad7	-0.01749937
140	0x3ca6fbd9	0.020383762
141	0x3d9bfe1c	0.07616827
142	0xbcb0b126	-0.021568846
143	0x3d3eed49	0.04661301
144	0x3d17ae1b	0.037031274
145	0xbda28f2b	-0.079374634
146	0x3db5b1a9	0.088717766
147	0x3aa0f5b2	0.0012280254
148	0x3e0ff779	0.14059247
149	0x3ca23192	0.019799028
150	0xbc71609a	-0.014732504
151	0xbdfb0512	-0.122568265
152	0x3d35b789	0.044364486
153	0xbda1c4b3	-0.078988455
154	0x3d8e603b	0.06951948
155	0x3da981a3	0.08276679
156	0x3e518fad	0.20464964
157	0x3d039643	0.032125723
158	0x3c018857	0.007906041
159	0x3c34f959	0.011045777
160	0xbc7c1f39	-0.015388303
161	0x3e304909	0.1721536
162	0x3e61f819	0.22067298
163	0x3d7fe340	0.062472582
164	0x3d57317b	0.052537423
165	0xbd6fb4b0	-0.058521926
166	0x3cc4b396	0.024011414
167	0xbd905e14	-0.07049194
168	0xbddbc1e3	-0.1073034
169	0x3e5ea3be	0.2174215
170	0xbe888b31	-0.26668695
171	0xbd044bb1	-0.032298747
172	0xbd029bcf	-0.031886872
173	0xbe9adfda	-0.3024891
174	0xbe842906	-0.25812548
175	0xbdeea9f6	-0.11653511
176	0x3d202d56	0.039105736
177	0xbd134147	-0.035950925
178	0x3cd9e740	0.026599526
179	0x3dd30db3	0.10305347
180	0x3d4b69bf	0.049661394
181	0xbefd7f8b	-0.4951137
182	0x3dfd2e07	0.12362295
183	0x3e878758	0.26470447
184	0x3cfca1fc	0.030838959
185	0x3e1f6714	0.15566665
186	0x3e138d1a	0.14409295
187	0xbd7c826b	-0.061647814
188	0xbe87c675	-0.26518598
189	0xbe90ee69	-0.28306893
190	0x3ded7ff0	0.11596668
191	0xbcb9a558	-0.02266185
192	0x3d3e4377	0.04645106
193	0xbd7e1de5	-0.06204023
194	0x3df3be41	0.119015224
195	0xbbe58196	-0.0070039732
196	0x3e4495b1	0.19197728
197	0x3d3c522a	0.045976795
198	0x3dbad528	0.091226876
199	0xbcc8070e	-0.024417426
200	0xbdb364d8	-0.08759469
201	0xbbb4126e	-0.005495361
202	0xbd2f6ec6	-0.04283025
203	0x3e7cb2b7	0.2467755
204	0xbe0ef201	-0.13959505
205	0xbe3649d6	-0.17801604
206	0xbe815484	-0.25259793
207	0x3d0edff5	0.03488155
208	0xbb9fc08b	-0.004875248
209	0xbdbf4c45	-0.09340719
210	0xbe992a0f	-0.299149
211	0xbddfe54c	-0.10932407
212	0xbc8d4723	-0.017245835
213	0xbe4eaf45	-0.20184048
214	0xbc7253b5	-0.014790465
215	0xbd9409fc	-0.07228467
216	0xbe2a04ea	-0.16603437
217	0xbe84c359	-0.25930288
218	0x3de61167	0.11233788
219	0x3e09e4cd	0.13466187
220	0xbd3d6ac8	-0.046244413
221	0xbd6ae93a	-0.05735133
222	0xbda6a525	-0.081369676
223	0xbc82e045	-0.01597608
224	0xbdc61d3f	-0.09673547
225	0x3a1e4e67	0.00060389045
226	0xbe17c364	-0.1482063
227	0x3d36216b	0.044465464
228	0xbdd9b0ea	-0.10629447
229	0xbdd5bddc	-0.104366034
230	0x3e312ee2	0.1730304
231	0xbe8a8d0d	-0.27060738
232	0xbe429297	-0.19001232
233	0xbc7f7e21	-0.015594036
234	0x3cdf2ec5	0.027243981
235	0xbd8a9ab3	-0.06767788
236	0x3cabe102	0.020981316
237	0xbe02496b	-0.12723319
238	0xbec64737	-0.38726208
239	0x3e02ef5a	0.12786618
240	0xbc86060d	-0.016360307
241	0x3cedd98f	0.029034404
242	0x3cd1cd4b	0.025610587
243	0xbe2a8c38	-0.16655052
244	0x3e7d1e8a	0.24718681
245	0x3e87d3be	0.26528734
246	0x3da807e8	0.08204633
247	0xbe44dd3f	-0.19225024
248	0x3d4762e4	0.048678294
249	0xbd406189	-0.046968017
250	0x3d0f3f88	0.034972697
251	0xbe8767d2	-0.26446396
252	0x3d6121c4	0.054963842
253	0xbdf6ff5d	-0.120604254
254	0xbe032d50	-0.12810254
255	0xbda9c9e0	-0.08290458

5.bias f4 [100]
0	0x3e5f60ff	0.21814345
1	0xbcb87a67	-0.022519303
2	0xbe270f43	-0.16314416
3	0xbe868f91	-0.26281407
4	0xbda860b8	-0.08221573
5	0xbecd3a64	-0.4008361
6	0x3e5eba85	0.21750839
7	0xbe44ece8	-0.19230998
8	0xbe9faaad	-0.31184903
9	0x3e09ecf4	0.13469297
10	0xbd520274	-0.05127187
11	0xbce4c143	-0.027924186
12	0x3e309997	0.1724609
13	0xbcca1f97	-0.024673266
14	0xbb3cf2c4	-0.0028831223
15	0x3ec63862	0.38714892
16	0xbd9f5354	-0.077795655
17	0xbcf87e96	-0.030333798
18	0xbd082fcc	-0.033248708
19	0x3d7dab95	0.06193121
20	0xbdd7b429	-0.1053241
21	0xbd4783be	-0.048709624
22	0xbd7dba88	-0.06194547
23	0x3e49df64	0.19714123
24	0x3dd80633	0.105480574
25	0x3d66d425	0.05635466
26	0x3d112d8a	0.03544382
27	0xbd92e17f	-0.07171916
28	0x3d1b412c	0.03790395
29	0xbd19b18a	-0.03752283
30	0xbeb74f22	-0.3580256
31	0xbd50d6c1	-0.050986055
32	0xbe943b12	-0.28951317
33	0xbe711b4f	-0.23545574
34	0xbdd27025	-0.10275296
35	0xbc947679	-0.018122898
36	0xbdb8cf7b	-0.09023949
37	0x3d98d0e2	0.07461716
38	0xbcbed776	-0.0232961
39	0xbde8629e	-0.11346935
40	0xbc4ebec7	-0.012618727
41	0x3efc24af	0.49246737
42	0xbd1abc5c	-0.03777729
43	0xbdfb0e17	-0.12258547
44	0x3bed8a16	0.007249127
45	0xbd974f0f	-0.07388126
46	0x3f088cd8	0.5333991
47	0xbe52ba22	-0.20578817
48	0xbdd39495	-0.10331074
49	0x3de74209	0.11291892
50	0xbd7827bb	-0.060584765
51	0xbe07d74b	-0.13265721
52	0xbd2c75a4	-0.04210438
53	0xbe043efa	-0.12914649
54	0xbd7cd13d	-0.061722983
55	0xbdb0f7bd	-0.08641002
56	0xbd56a61d	-0.05240451
57	0xbcbb6713	-0.022876298
58	0xbdaf9e08	-0.08575064
59	0xbe1cf09c	-0.1532616
60	0xbd9b8d99	-0.07595367
61	0xbdb8deea	-0.090268925
62	0xbdbbb06e	-0.09164511
63	0x3c8c4b11	0.017125638
64	0x3e17205b	0.14758436
65	0xbda324dd	-0.079660155
66	0xbca9fad3	-0.020749485
67	0xbdaa2d18	-0.08309382
68	0xbbbc56fd	-0.0057476745
69	0xbdaec818	-0.085342586
70	0xbda6a90e	-0.081377134
71	0xbde05f05	-0.109556235
72	0xbd76f925	-0.060296196
73	0xbde3d83d	-0.111252286
74	0xbdc93e33	-0.09826317
75	0xbdc9f632	-0.09861411
76	0xbd0b8bf9	-0.034069035
77	0x3eebd8fb	0.4606398
78	0x3d6e29ea	0.05814544
79	0xbd03ea8b	-0.0322061
80	0xbd93feb2	-0.07226314
81	0xbe453695	-0.19259103
82	0xbd64930e	-0.055804305
83	0x3e2454c4	0.1604796
84	0xbdfa5669	-0.12223513
85	0xbc6255a6	-0.0138143655
86	0xbca10db6	-0.019659858
87	0xbcfeec24	-0.03111846
88	0xbcb412b6	-0.021981578
89	0xbcfc2d62	-0.030783359
90	0xbcdc0db3	-0.026862001
91	0x3db16c4f	0.08663236
92	0xbc0dadfe	-0.00864744
93	0xbd7ad2e5	-0.06123628
94	0x3ead1110	0.3380208
95	0x3e5e9be0	0.21739149
96	0xbd5c7da4	-0.053830758
97	0x3ec76398	0.38943172
98	0x3e5b0f00	0.21392441
99	0xbcb2ce62	-0.021826927

7.weight f4 [10, 100]
0	0x3e3089b9	0.17240037
1	0xbd499c3c	-0.049221262
2	0xbe6019f7	-0.21884905
3	0xbbd45131	-0.0064794053
4	0xbd1a6eef	-0.03770345
5	0xbe44bb55	-0.19212086
6	0xbe8c6541	-0.27421
7	0xbd674fc4	-0.056472555
8	0xbbc24939	-0.005929139
9	0x3d5fef80	0.054671764
10	0x3ca11784	0.019664533
11	0xbd4bdeff	-0.049773213
12	0xbd4dc5bb	-0.0502374
13	0xbe68ff80	-0.22753716
14	0x3daefe8f	0.08544647
15	0x3c08a6fa	0.008340592
16	0xbc94d853	-0.018169558
17	0xbd4ea805	-0.050453205
18	0xbd437798	-0.047721475
19	0xbe0e1a28	-0.13877165
20	0x3b9dbe5c	0.0048139524
21	0x3e159a2b	0.14609592
22	0xbce96082	-0.028488401
23	0xbdf4c87c	-0.11952302
24	0x3dd8d277	0.10587018
25	0xbd0618a8	-0.032738358
26	0xbdec83ba	-0.11548562
27	0xbc446939	-0.011987978
28	0xbd34237b	-0.04397915
29	0xbc7c9172	-0.015415536
30	0x3e5e4faa	0.21710077
31	0x39ff85c9	0.00048737068
32	0xbc290766	-0.010316705
33	0xbdbe9e8d	-0.09307585
34	0xbe902d3c	-0.2815951
35	0xbc3366b3	-0.010949778
36	0x3e21624e	0.15760157
37	0x3df2b0a3	0.11850097
38	0x3d2c414f	0.04205447
39	0xbd1a4a3b	-0.037668448
40	0x3e106f7b	0.14105026
41	0x3e3185c4	0.17336184
42	0xbcc22c6a	-0.023702819
43	0x3b30fa9d	0.0027004846
44	0xbd24a42b	-0.040195625
45	0x3d8e9c1a	0.06963368
46	0xbde9e9cb	-0.114215456
47	0x3c8c63a7	0.017137362
48	0x3cb0aca8	0.021566704
49	0xbda5d0dc	-0.080964774
50	0xbd3df531	-0.04637641
51	0x3e6ecbd0	0.23319936
52	0xbd338192	-0.04382474
53	0xbe11bdfa	-0.14232627
54	0xbca4f1a0	-0.020134747
55	0xbd1e1497	-0.038593855
56	0x3d6e2235	0.05813809
57	0xbdb100cd	-0.08642731
58	0x3c247975	0.010038723
59	0x3e0f90f6	0.14020142
60	0x3b6658a7	0.0035148056
61	0xbd7970a2	-0.06089843
62	0xbc00d617	-0.007863543
63	0xbd6ef91e	-0.058343045
64	0xbc44b85b	-0.012006844
65	0x3d86eedf	0.0658853
66	0x3d271329	0.040789757
67	0x3ba3fae2	0.005004273
68	0xbd8f9b0e	-0.07011996
69	0xbda21efd	-0.07916067
70	0xbd7311c2	-0.059343107
71	0xbe04a577	-0.12953745
72	0xbd2f39d6	-0.042779766
73	0xbd784442	-0.06061197
74	0x3e3f7f50	0.1870091
75	0xbb568486	-0.0032732799
76	0x3cab3888	0.02090098
77	0x3e2dee31	0.16985394
78	0x3dece863	0.11567762
79	0x3db11f0f	0.08648502
80	0x3dba3364	0.09091833
81	0xbd092c56	-0.033489548
82	0x3d0af503	0.033925068
83	0xbd330776	-0.043708287
84	0x3de09e38	0.10967678
85	0x3cfc57fc	0.030803673
86	0x3da138bc	0.07872149
87	0xbc405b91	-0.011740581
88	0xbb4d22db	-0.0031301293
89	0xbd901ba2	-0.070365205
90	0x3d2d421b	0.04229937
91	0xbe27ed51	-0.16399123
92	0xbd6d5f90	-0.057952464
93	0x3d3c8b15	0.046031076
94	0xbe21218f	-0.15735458
95	0x3cd88d55	0.02643458
96	0xbb52c875	-0.0032162939
97	0xbdcae99d	-0.099078394
98	0xbc964e77	-0.018347962
99	0xbc8bea94	-0.017079629
100	0x3e53e648	0.20693314
101	0xbcb0aec8	-0.021567717
102	0xbdc78baf	-0.097434394
103	0xbd0bd032	-0.034134097
104	0x3d690a89	0.056894813
105	0xbe437bb5	-0.19090159
106	0x3b017895	0.001975571
107	0xbd5313bc	-0.051532492
108	0x3e8dc941	0.27692607
109	0xbd8f722a	-0.07004197
110	0x3ce6fe1d	0.028197343
111	0xbc23f5df	-0.010007351
112	0xbe20667c	-0.15664095
113	0x3d6af050	0.057358086
114	0xbd1a7eb1	-0.03771848
115	0xbd0354e5	-0.032063384
116	0xbca23590	-0.019800931
117	0x3cf65f7c	0.030074827
118	0xbd40c67b	-0.047064286
119	0x3e03bfb0	0.12866092
120	0xbc065318	-0.008198522
121	0x3dba37f0	0.090927005
122	0xbcc9da4f	-0.02464023
123	0xbd69f61f	-0.057119485
124	0x3c9c8bc3	0.019109612
125	0x3d1558c1	0.036461595
126	0x3d546b1e	0.051859967
127	0xbac5d222	-0.0015092532
128	0x3d989955	0.07451121
129	0x3cfa25bc	0.030535571
130	0x3e25cba1	0.1619096
131	0xbb132a06	-0.0022455468
132	0x3e10fd91	0.14159228
133	0xbdb66096	-0.08905141
134	0x3eb0e714	0.345513
135	0x3d1269d7	0.035745468
136	0xbe448985	-0.19193085
137	0xbe1c446e	-0.15260479
138	0xbd7a6a32	-0.061136432
139	0xbd0f8a93	-0.035044264
140	0xbd6f38f0	-0.05840391
141	0xbe01c609	-0.126732
142	0xbd46a9e8	-0.04850188
143	0x3d7ce3df	0.061740752
144	0x3d87abae	0.06624542
145	0x3d5d6521	0.054051522
146	0xbdeac2ee	-0.11462961
147	0x3e71f39f	0.2362809
148	0xbc5602a7	-0.013062156
149	0xbc5d45f9	-0.013505452
150	0x3c483c5a	0.01222142
151	0xbe3f5a05	-0.18686683
152	0xbc9e0b73	-0.019292569
153	0x3d4f04a4	0.050541535
154	0x3d3004a8	0.04297319
155	0xbd29fb0a	-0.041499175
156	0xbd3a4188	-0.04547265
157	0xba2899a2	-0.00064315845
158	0x3cff29c7	0.03114785
159	0xbdfa3658	-0.122173965
160	0x3d036761	0.03208101
161	0x3d35def9	0.044402096
162	0x3d060195	0.032716352
163	0xbd7e095f	-0.062020656
164	0xbd83909c	-0.064240664
165	0xbd8ec96e	-0.069720134
166	0xbc2ca0cf	-0.010536387
167	0x3c9c5d08	0.01908733
168	0x3a7e062b	0.000969025
169	0xbdcdbe30	-0.10046041
170	0xbd7dc000	-0.061950684
171	0xba378fd2	-0.0007002327
172	0xba160b9e	-0.0005723777
173	0xbd7ac738	-0.061225146
174	0x3e26a5a7	0.16274129
175	0x3ed416c9	0.41423634
176	0x3ab07532	0.0013462661
177	0xbd8349f4	-0.0641059
178	0xbdddae7c	-0.10824296
179	0xbd81687b	-0.06318756
180	0x3da8c77c	0.082411736
181	0xbae01a76	-0.001709773
182	0xba55c107	-0.00081540685
183	0xbd47738e	-0.048694186
184	0x3e460a6b	0.19339912
185	0xbd909d60	-0.07061267
186	0xbca25e33	-0.019820308
187	0xbd8e9884	-0.06962684
188	0xbd68c5ca	-0.05682925
189	0x3d99560f	0.074871175
190	0xbc00d822	-0.00786403
191	0x3cb8725e	0.022515472
192	0x3d70f6b3	0.05882902
193	0x3d093952	0.03350193
194	0x3b44e941	0.0030046257
195	0x3c611607	0.013738162
196	0xbd850be7	-0.06496411
197	0xbe029032	-0.12750319
198	0x3cb0bb7f	0.02157378
199	0xbd2830a6	-0.04106202
200	0xbd15d429	-0.036579285
201	0xbd166fb9	-0.03672764
202	0xbe618d1d	-0.22026487
203	0x3eea9114	0.4581381
204	0x3c2dfe0d	0.010619652
205	0xbe49b5f2	-0.19698313
206	0xbd8116e2	-0.06303193
207	0x3cebed71	0.028799744
208	0xbbd4eabb	-0.0064977086
209	0xbd95efb5	-0.07321111
210	0x3ce33ce7	0.027739001
211	0x3d3a1798	0.045432657
212	0x3c883578	0.016627058
213	0xbe27256c	-0.16322869
214	0x3b6f01f2	0.0036469665
215	0xbd031244	-0.03199984
216	0xbcac7072	-0.021049712
217	0x3cf8e7f1	0.030384036
218	0xbd08b11e	-0.033372037
219	0xbbaf5de0	-0.005351767
220	0xbd0c3844	-0.034233347
221	0x3e4b63e4	0.19862324
222	0xbda9c960	-0.08290362
223	0x3e465100	0.19366837
224	0x3df965c8	0.12177616
225	0xbd742413	-0.059604716
226	0x3e18fc18	0.14939916
227	0x3c69fd12	0.014281528
228	0x3dc2c807	0.095108084
229	0xbd29e9c7	-0.041482713
230	0xbe0c2fda	-0.13690129
231	0x3d16d336	0.03682252
232	0xbc918a1b	-0.01776605
233	0xbe01ac2e	-0.12663338
234	0xbe8be30e	-0.27321666
235	0x3bf00476	0.0073247505
236	0xbe3ec629	-0.1863028
237	0xbdb473ea	-0.08811171
238	0xbc04727a	-0.008083934
239	0xbd0cb8f2	-0.034356065
240	0x3dc73676	0.097271845
241	0xbe02750f	-0.12739967
242	0x3d61dc3b	0.05514167
243	0x3c65bf5e	0.014022676
244	0xbd75f10d	-0.060044337
245	0x3d1a5c5e	0.037685744
246	0x3c1e860c	0.009675514
247	0xbd82b562	-0.06382252
248	0x3d0e8ea0	0.034803987
249	0xbdc48dfe	-0.09597395
250	0xbc007f7a	-0.007842893
251	0x3e711e92	0.23546818
252	0xbd11d885	-0.03560688
253	0xbdd3e42d	-0.103462555
254	0xba58f90f	-0.0008276859
255	0xbe12a8d1	-0.14322211

7.bias f4 [10]
0	0xbd44bbca	-0.048030652
1	0xbec32180	-0.38111496
2	0x3b4af1f3	0.0030966967
3	0xbe3cc0ab	-0.18432872
4	0x3dc482f8	0.09595293
5	0x3d6f5e7d	0.05843972
6	0xbe929c9d	-0.2863511
7	0xbe826950	-0.25470972
8	0x3f1bd48b	0.6087119
9	0x3cb1dcb2	0.021711681
