models/more_models/MNIST/more_small_exact1_2.pth (torch, 668111 bytes, 8 tensors)

0.weight f4 [16, 1, 4, 4]
000000 72 7a 8a ba ca 39 75 ba d9 2d 64 ba 7c 2c 2b ba
       -0.0010565056 -0.00093546195 -0.00087043416 -0.0006529761
000010 c5 d0 95 ba 92 75 83 ba 02 6a 6d ba 5d 9a 20 ba
       -0.0011430016 -0.0010029546 -0.0009056629 -0.00061265175
000020 d0 54 5e ba 9b 8c ee b9 e7 bc 8e 3c 4c cc 83 38
       -0.0008481266 -0.00045499657 0.01742406 6.28462e-05
000030 96 cd fb b9 40 88 bb 39 0d a2 7f 3f df fe 13 39
       -0.00048027624 0.00035768934 0.99856645 0.0001411396
000040 c8 75 a1 b8 4a 3c 3f b9 e8 65 09 39 4b 10 e8 b8
       -7.699017e-05 -0.00018237639 0.00013103301 -0.00011065657
000050 f9 ff 69 b9 2e e2 95 b9 a9 95 93 3f 1c d4 51 ba
       -0.00022315969 -0.00028588012 1.1530048 -0.0008004324
000060 5c 0d d7 b8 ae 95 64 38 d5 22 d6 b8 7f ac f9 b9
       -0.00010254487 5.4498836e-05 -0.00010210803 -0.000476215
000070 0c 62 04 b9 29 84 a3 38 6c dd 64 b9 f9 a4 e9 b9
       -0.00012625026 7.7970624e-05 -0.0002182626 -0.00044564137
000080 97 8d d1 b8 76 f9 3e 38 6a e6 65 39 75 8f 84 39
       -9.99227e-05 4.553186e-05 0.00021924978 0.00025283886
000090 15 4f 11 39 c0 12 25 39 89 8b 9a 39 ef 33 07 ba
       0.00013857738 0.00015742611 0.0002947713 -0.000515758
0000a0 a1 eb ca 39 d2 dd 70 39 d6 e9 67 b9 a1 88 b6 37
       0.00038704 0.00022970818 -0.00022116987 2.1759713e-05
0000b0 b5 34 9b 3f cb 85 ab b8 f4 d6 85 b8 af ba bf 38
       1.212546 -8.178836e-05 -6.381972e-05 9.142362e-05
0000c0 5e 9b c6 b8 6e c4 78 b8 73 f6 a0 38 25 ef 1a 38
       -9.470315e-05 -5.9310747e-05 7.675299e-05 3.6939182e-05
0000d0 06 86 59 b8 d1 55 ad b7 ac ac d3 37 e8 6d 38 bf
       -5.186165e-05 -2.0663168e-05 2.5233567e-05 -0.72042704
0000e0 e4 37 c1 38 e8 e6 03 39 98 dc 70 b8 81 de 2b 39
       9.2133676e-05 0.00012579153 -5.7425903e-05 0.0001639072
0000f0 93 2e 14 b6 82 71 c6 b8 8e 58 35 b8 7a 24 c6 38
       -2.2080828e-06 -9.462518e-05 -4.3236236e-05 9.44817e-05
000100 b8 ea 93 b9 3e 84 3d b9 32 ea 15 b7 ff 95 0b b8
       -0.00028212904 -0.00018073709 -8.93562e-06 -3.3279877e-05
000110 57 e7 cb b8 93 50 e7 3a 77 37 cb 37 e4 21 7a 3b
       -9.722885e-05 0.0017647914 2.4225314e-05 0.0038167173
000120 81 02 70 b7 6c 0a 26 b8 b9 ac d6 ba 3c 57 54 38
       -1.4305698e-05 -3.958719e-05 -0.001637838 5.0625982e-05
000130 42 a2 68 b9 18 af 33 3b 08 fd fb b8 05 0a 83 3a
       -0.0002218569 0.0027417596 -0.000120157434 0.0009997493
000140 c5 f1 b1 b7 8e c2 84 38 6c 27 7f 37 15 56 44 b8
       -2.1212627e-05 6.330489e-05 1.5208363e-05 -4.681021e-05
000150 7a 03 f2 38 85 f4 66 39 c5 0c dd 38 20 2e 72 38
       0.00011540107 0.000220256 0.0001054048 5.7740253e-05
000160 45 a8 4e 38 d4 2c 64 38 48 f2 11 b9 8c c0 c3 36
       4.927094e-05 5.4401185e-05 -0.00013918534 5.8338683e-06
000170 e3 30 19 b7 2d b7 5d bf b9 9b 65 b8 89 42 44 3a
       -9.130893e-06 -0.8660763 -5.4742883e-05 0.0007486721
000180 1d 22 cc 38 77 7c b4 38 2f ab a3 38 aa 9d 96 b7
       9.733832e-05 8.606252e-05 7.804331e-05 -1.7954811e-05
000190 77 8a 22 b8 bc 4c ac 39 cd 97 1e b9 0a 2c f6 39
       -3.8752765e-05 0.00032863568 -0.00015124604 0.00046953588
0001a0 20 5f 0a 39 7b f4 9c b8 18 05 06 39 8e 1a 94 b7
       0.00013196142 -7.484198e-05 0.00012781133 -1.765534e-05
0001b0 7a 9d 9e b8 67 ba 29 bf 38 7e cb b8 e0 49 80 3a
       -7.5633594e-05 -0.6630005 -9.7033044e-05 0.0009787641
0001c0 6d 81 3a 3a b0 e2 15 3e 84 8e 40 3a f7 65 bf 39
       0.0007114623 0.14637256 0.0007345455 0.0003650633
0001d0 c0 90 f3 39 e4 7b d9 39 bb 95 94 39 f5 00 71 39
       0.0004645642 0.0004148177 0.00028340318 0.00022983908
0001e0 b7 3f 5f 3a 4d 08 8b 39 93 4b 9b 39 05 7e ab b8
       0.0008516269 0.0002651833 0.0002962021 -8.1773884e-05
0001f0 82 29 1d 3a 9c 79 6b 39 19 0c 38 38 77 2e 14 b9
       0.000599526 0.0002245665 4.3880285e-05 -0.0001413169
000200 90 7e 50 39 1f 18 f6 38 08 9d 2a 3a de 0f 13 3a
       0.00019883574 0.00011734687 0.0006508385 0.00056099694
000210 43 3d d6 38 65 f6 83 3a 7f 1f 4f 3a 79 cd 3e 38
       0.00010215726 0.0010067938 0.00079011166 4.549089e-05
000220 15 c7 de 39 4f 89 00 40 ac 45 34 ba df f2 9c 39
       0.00042491467 2.0083807 -0.0006876837 0.00029935592
000230 9e 44 5c 3a c5 0e 20 3a f4 06 ae 39 6a 67 4f b7
       0.0008402559 0.00061057165 0.00033193047 -1.2362239e-05
000240 28 aa 81 38 5e c6 1c 39 42 b6 69 39 19 41 05 b6
       6.1828934e-05 0.00014951217 0.00022288508 -1.9856436e-06
000250 20 86 94 b8 8b ee d1 37 e7 c4 c1 b8 1a a3 2b b8
       -7.082173e-05 2.5025822e-05 -9.239633e-05 -4.0921477e-05
000260 e0 a3 24 b7 b0 f3 8b b9 e0 00 eb bd 93 d4 20 b9
       -9.813317e-06 -0.00026693707 -0.11474776 -0.00015337979
000270 cb e8 8a 38 59 82 71 be 2e 7b 2d ba 85 3a b7 b9
       6.623714e-05 -0.2358488 -0.00066177815 -0.0003494808
000280 80 7e 15 39 a9 24 ca b8 74 bd d2 b8 99 6b 16 b9
       0.00014256872 -9.638939e-05 -0.00010048869 -0.00014345198
000290 36 22 65 b7 15 38 17 bf aa 9a ab b8 13 eb 05 3a
       -1.3657429e-05 -0.5906995 -8.182724e-05 0.0005108576
0002a0 a8 a1 6f b9 0a 1e 88 b9 df 8c 28 b9 eb 24 d7 b8
       -0.00022853038 -0.00025962322 -0.00016074207 -0.000102588754
0002b0 08 31 3a b7 29 e0 36 39 00 5e 43 b8 f2 ba 63 39
       -1.109788e-05 0.00017440379 -4.6579167e-05 0.0002171805
0002c0 de 46 bd 38 59 7e b4 38 17 74 c5 38 a5 a9 92 35
       9.025422e-05 8.606603e-05 9.4153154e-05 1.0927221e-06
0002d0 73 b4 49 39 2f 58 96 39 d0 fe ff 38 84 ac 00 b9
       0.00019236076 0.0002867593 0.0001220681 -0.00012271298
0002e0 d8 e6 f6 38 2d b5 8d b9 30 03 34 be e1 05 fc b7
       0.00011773192 -0.00027028602 -0.17579341 -3.0043479e-05
0002f0 70 d1 92 b8 a5 e1 b1 ba df b0 96 ba 75 50 33 b8
       -7.000833e-05 -0.0013571276 -0.0011496803 -4.2751857e-05
000300 5d a2 25 b6 0e ee bb b9 d0 70 73 ba 26 86 4a ba
       -2.4681424e-06 -0.00035844784 -0.0009286525 -0.0007725678
000310 88 ae de 38 99 eb 54 b7 ba 75 23 b9 6a 47 84 b8
       0.00010618294 -1.2691039e-05 -0.00015588748 -6.3075524e-05
000320 21 41 9f b8 d4 d1 73 b9 b1 5e 33 3d 62 95 86 3f
       -7.593842e-05 -0.00023252453 0.043791477 1.0514338
000330 35 18 55 b9 4d b3 b4 b9 ef b3 5a 3a 7e dd 80 b9
       -0.00020322281 -0.00034465865 0.0008342852 -0.00024579087
000340 ab c2 85 38 5b 18 56 39 a0 b7 4d 39 c0 d0 ff 38
       6.378194e-05 0.00020417703 0.00019618729 0.0001219823
000350 b3 e7 d5 39 8b be 9d 39 39 27 8d b8 ef 1c 22 b8
       0.00040799155 0.0003008734 -6.73071e-05 -3.8650756e-05
000360 40 9f 86 3f 03 e4 6c b9 dc 68 4a b9 c0 6f 6b b9
       1.0517349 -0.00022591655 -0.00019303284 -0.00022452977
000370 15 41 f0 b9 ee ed 00 ba ca 1a 0a b9 e2 dc 9d 39
       -0.00045824857 -0.0004918267 -0.00013170685 0.00030109944
000380 82 99 a1 b9 7c b7 ec b9 b1 43 92 b9 71 88 a7 37
       -0.00030822685 -0.00045150134 -0.00027897724 1.9971487e-05
000390 5e 7a d5 b9 70 05 9c 38 e4 3f 27 b9 c6 56 02 39
       -0.00040717697 7.4396725e-05 -0.00015950162 0.00012430092
0003a0 3b 62 ee b7 3c b1 23 b7 31 ae cc 3e fa 23 f6 39
       -2.8417553e-05 -9.756823e-06 0.39976647 0.0004694758
0003b0 a4 8a 91 b8 37 6b 58 3a 0f 91 2b 3a 35 52 a3 b9
       -6.9399626e-05 0.00082557224 0.0006544748 -0.00031151032
0003c0 cf 8d 85 38 73 44 bc 38 e7 df 88 38 c7 bd 41 b8
       6.368348e-05 8.977288e-05 6.5266904e-05 -4.619153e-05
0003d0 9e c8 64 b7 66 b7 ee b9 f8 41 85 b8 3f d4 eb be
       -1.3636569e-05 -0.0004553154 -6.354222e-05 -0.46060368
0003e0 56 31 3e b9 6c 36 2d b9 63 bb 0f bc 95 ac b3 b9
       -0.00018138191 -0.0001651884 -0.008772704 -0.00034270124
0003f0 93 3f e6 b7 d2 3e bf b9 fe f2 03 b9 cd 79 e4 b9
       -2.744774e-05 -0.00036477164 -0.00012583655 -0.00043578297

0.bias f4 [16]
000000 80 88 47 bf 7e 4d 36 be 25 59 40 be 6d cc df 3d
       -0.7794266 -0.17802998 -0.18784006 0.10927663
000010 e3 7d 8e 3e 65 97 05 3e 41 54 f9 3e fc ee d0 bc
       0.2783042 0.13046034 0.48697093 -0.025504582
000020 f4 a4 ac be 83 bb 53 3e 14 5d e0 3e ea 99 9f 3c
       -0.337196 0.20676999 0.43821013 0.019482572
000030 55 4e 52 bf c5 af 47 be 53 e5 60 bd 9d 3a ad 3e
       -0.82150775 -0.19500645 -0.0549062 0.3383378

2.weight f4 [32, 16, 4, 4]
000000 6c 7e 08 bc 89 ee 1e bf f0 06 72 be 8a be fa 3d
       -0.008330923 -0.62082726 -0.23635459 0.12243374
000010 cb 95 6d ba 23 8f 82 be 4d 8a e3 be c8 c3 46 bb
       -0.00090631534 -0.2549983 -0.44441453 -0.0030329097
000020 12 d2 b1 3f 75 c9 89 3e 7b c2 30 bc 02 b2 f6 bc
       1.3892233 0.26911512 -0.010788555 -0.030114178
000030 c2 01 06 3e ae 3d 50 3d b9 9b 4b ba 76 a2 b1 b9
       0.13086608 0.050840072 -0.000776704 -0.00033881114
000040 09 b1 a7 39 7b 2d af 3b 05 c5 92 3a 3a e5 ee 3a
       0.00031984624 0.005345998 0.0011197632 0.0018226274
000050 90 97 8b 3b 28 0c 3b 3e 3f 52 cc 3d 85 65 d9 bd
       0.004260011 0.18266356 0.09976625 -0.106150664
000060 ae ef 5f ba 41 41 c7 3b d7 b7 0b 3e c2 d7 d8 3a
       -0.000854249 0.006080777 0.13644348 0.0016543793
000070 94 f2 fb be ec 10 0a be c2 d2 0a 3c ef 95 c6 3c
       -0.4920851 -0.13483018 0.0084731 0.024241416
000080 bc 9d 1c 3a 79 05 ae 3a b7 35 af 3e d9 98 d9 3d
       0.0005974432 0.0013276777 0.3422067 0.106248565
000090 e4 1c cf b9 fc 2e ba ba 9a 3e 52 3e 46 2e 78 3e
       -0.00039503642 -0.0014204676 0.20531693 0.24236402
0000a0 08 81 05 bc a3 9f 2e bf 6e a2 b9 bd 81 3b 39 3a
       -0.008148439 -0.68212336 -0.09064184 0.0007066057
0000b0 f3 7c 16 bd d9 28 dd bd 46 9f 2a bd 9a 3f c6 39
       -0.036740255 -0.10798807 -0.0416558 0.0003781289
0000c0 0c de 30 3a 9c cb c5 3a 97 77 ff bd 63 75 e5 bd
       0.0006746955 0.0015090588 -0.12473982 -0.1120403
0000d0 be 3f c9 3d 05 75 0a 3f 27 6d 3d 3d a8 80 24 bc
       0.09826611 0.5408481 0.046246674 -0.01004044
0000e0 f2 f5 37 bd 6e c7 9d 3e e1 ca 00 3e fe 6b 37 b8
       -0.044912286 0.30816215 0.12577392 -4.3731176e-05
0000f0 14 41 bf be 90 24 86 39 a6 35 90 3d e4 08 08 3a
       -0.37354338 0.00025585713 0.070414826 0.0005189313
000100 48 76 4e bc 46 f8 19 3e af 56 a4 3d 6c 3a 44 bd
       -0.012601443 0.15036115 0.08024346 -0.047907278
000110 04 27 49 bd 87 d0 11 3e ed 02 4d 3e de fb 1e be
       -0.049109474 0.14239703 0.20020647 -0.15525767
000120 38 48 2c be a6 61 9c bd 6d 2a a3 3d 75 61 e9 bd
       -0.16824424 -0.076358125 0.079670765 -0.113955416
000130 f6 f6 6f be 37 3d d8 bd 5d 26 bf 3c 91 c7 f0 bc
       -0.23434052 -0.10558551 0.023333723 -0.029392036
000140 3a 7f 9f 3c 14 87 66 3d f3 88 55 3e 8d 88 15 bd
       0.019469846 0.056281164 0.20853023 -0.036507178
000150 e7 bb 6a bb dc 59 0c 3d e3 e1 0b 3f 06 60 d1 3d
       -0.0035817565 0.034265384 0.5464155 0.10223393
000160 28 ad f1 be 23 e9 af be 12 39 8a b8 a6 69 32 3d
       -0.4720242 -0.34357557 -6.590983e-05 0.043557785
000170 45 5e 58 bd 89 58 7f be 3b 2c b5 ba cc 8f 3e 3a
       -0.052824277 -0.24936117 -0.0013822386 0.0007269352
000180 0f 7a 6c bc be 37 ff bc 6c b8 7e be 36 10 43 3d
       -0.014433398 -0.03115451 -0.24875039 0.04762288
000190 a8 e4 86 3a ba a9 d4 3c d5 b6 85 be 26 06 3f bd
       0.0010291534 0.025959838 -0.26116052 -0.046636723
0001a0 f5 44 7b 3e 4d f1 a3 3e ce 34 75 3d d5 68 a9 bd
       0.24538024 0.32020035 0.05986481 -0.08271948
0001b0 68 4a 8e 3c 4f d9 62 3e 2a 92 62 3a f2 0f a5 3b
       0.017369464 0.22153209 0.0008642996 0.005037301
0001c0 a4 a4 ae 37 61 c4 53 3a 01 d7 99 3a 47 7b 85 38
       2.0819083e-05 0.0008078274 0.001173705 6.3648964e-05
0001d0 1d 52 05 bc 67 3b 95 3c 6b 68 28 3d 02 d5 82 3c
       -0.008137253 0.018216802 0.041115206 0.01597071
0001e0 87 9b e9 ba f7 89 7f bb 37 ad 6c 3e 62 84 82 3b
       -0.001782284 -0.0038992146 0.23112951 0.0039830664
0001f0 45 9a c5 bb 8f 2b 75 be 0f 47 74 3d cf d9 cd 3a
       -0.0060303533 -0.23942398 0.05963808 0.0015705171
000200 ee 34 30 3b 5f ff c1 3d 99 92 06 3e 05 0a 74 3a
       0.0026887017 0.09472536 0.1314186 0.00093093544
000210 b1 ac 23 b9 b6 ad 28 3d 3a 25 07 3f 75 7b 83 3b
       -0.00015609224 0.04118129 0.5279118 0.00401252
000220 70 a0 91 bb 5c 50 d0 be 3b dd a7 3d bf 5a 5c 3d
       -0.0044441745 -0.4068631 0.08196493 0.05379748
000230 c7 e1 91 be 91 b2 0c bf 6d aa 2e 3a 74 64 3f 3c
       -0.28492567 -0.5495997 0.00066629687 0.011681665
000240 23 77 06 bd 33 5a f4 bd f2 69 92 bd 67 0e 58 ba
       -0.03282846 -0.11931267 -0.07149114 -0.0008241892
000250 b8 e8 9c bc 2a ab 6c be 0e 1a 18 bf c5 cc fc bc
       -0.019153938 -0.23112169 -0.59414756 -0.03085936
000260 4f 84 4a 3e 7b 47 b8 3b 59 dd 86 be 1e 68 8d bd
       0.19777034 0.0056237555 -0.2634075 -0.069046244
000270 25 b8 14 3e 97 e7 95 3e d5 7b b9 3a 28 bc 86 bc
       0.1452337 0.29278252 0.0014151285 -0.016447142
000280 8d b8 01 b9 c6 f4 29 3c 26 29 14 3d 80 a0 d7 3d
       -0.00012371149 0.0103733 0.036172055 0.1052866
000290 9f 2d 41 3a e1 41 e5 bd 74 17 b9 be b4 bd 11 3e
       0.0007369164 -0.11194206 -0.36150706 0.14232522
0002a0 6b 46 34 3c 18 06 26 3c 93 0b f5 be 79 a7 54 3a
       0.011003117 0.010133289 -0.47860393 0.00081121136
0002b0 e7 88 ac 3e 9f fb b9 3e a1 5f 02 3a 89 4c 29 bd
       0.33698198 0.36324784 0.0004973356 -0.041332755
0002c0 a6 bc b9 3c ea d1 a1 3d a8 b8 2c 3d 66 ff eb bb
       0.022672962 0.07901366 0.04216829 -0.0072020767
0002d0 c3 80 58 3c eb b5 2a 3e 28 c3 ca 3e 89 7d aa 3c
       0.013214293 0.16670959 0.39602017 0.020811813
0002e0 04 5f 05 be 79 63 f5 3b c9 ef 3d 3e 1f 70 3e 3d
       -0.13024527 0.0074886647 0.18548502 0.046493646
0002f0 2a 7b d9 bd bc 93 44 be 25 48 18 bb 51 1a 38 3c
       -0.10619195 -0.19196981 -0.002323636 0.011236743
000300 a4 ff 3c be 8f 89 80 be 02 93 3a 3a 24 a3 68 b9
       -0.18456894 -0.2510495 0.0007117243 -0.00022186019
000310 00 7e a3 bd b1 c2 83 bf 44 72 d1 ba 5b fd 96 39
       -0.07983017 -1.029379 -0.0015979488 0.00028798994
000320 05 e4 4f 3f b1 8b 21 be 7f 94 d6 bd 78 68 0a ba
       0.81207305 -0.15775944 -0.10477542 -0.0005279849
000330 87 22 86 3f 13 a5 85 3a b4 40 d2 bc 80 f1 3b b8
       1.0479287 0.0010196291 -0.025665618 -4.480919e-05
000340 09 6d 0d 3b 7b 2a 4e 3b 2d 80 2a 3d 2b 89 a3 3b
       0.0021579883 0.0031458426 0.041626144 0.004990717
000350 89 a5 78 ba 15 ac da b9 4a 37 32 3d 48 1a 70 3b
       -0.0009485116 -0.0004170841 0.04350976 0.0036636759
000360 bc e7 f1 38 9c d4 8c bd 4e 96 7d 3a 5f 47 00 3b
       0.000115349394 -0.068764895 0.0009673581 0.001957379
000370 69 72 4b be c0 ca e8 be 1f c9 42 bc d2 2f ce 3a
       -0.19867863 -0.45467186 -0.011888771 0.0015730804
000380 52 95 8f 3c 6f 84 23 3c e0 ff 9f 3b db 25 bb 3a
       0.017527256 0.009980305 0.0048827976 0.001427825
000390 ca d7 12 3b 87 c7 87 3c 51 d8 b4 3c 70 51 e9 bb
       0.0022406452 0.016574634 0.022075804 -0.007120304
0003a0 5e a2 9f 39 d2 62 d2 bb 95 b2 30 3c 93 13 21 ba
       0.00030447816 -0.0064204717 0.010784765 -0.00061445794
0003b0 7b fd 8b be f6 32 00 3d 1f c7 5b 3b 7a ad 41 3c
       -0.27341828 0.0312986 0.0033535433 0.011821145
0003c0 fc 24 6a bc 1c 17 41 bd 7a 1d 72 3d d1 90 33 3e
       -0.014291044 -0.04714118 0.059110142 0.17535712
0003d0 c4 ea db bb c3 0d c2 be c7 ea 81 be f5 ee 6e 3c
       -0.006711336 -0.37901124 -0.25374433 0.014583339
0003e0 68 92 93 3d a6 97 5d be 6a 35 9d be bb 78 ed b9
       0.07205659 -0.2163988 -0.30704814 -0.00045294114
0003f0 f2 a3 98 3e a5 03 42 3d 9b a5 8b 3c b9 fa 9e b9
       0.2981258 0.047366757 0.01704674 -0.0003032291

2.bias f4 [32]
000000 ed 26 6c 3e 5f 33 90 3d c2 30 75 3c 66 e1 c3 bd
       0.23061724 0.07041048 0.014965238 -0.09564476
000010 73 e4 a6 3d 2d 03 e5 3c d5 94 59 bd 73 60 22 3e
       0.08149042 0.027955616 -0.053120453 0.15857105
000020 3d 7e 1a be fc db 26 3d 25 c3 67 bc 71 81 a7 3d
       -0.15087219 0.040737137 -0.014145647 0.08178986
000030 ef 79 40 be 5d b8 fd bd f5 3d 4f bc 0c 30 87 bd
       -0.18796514 -0.1238868 -0.012649049 -0.06600961
000040 3f a4 5a 3e 77 36 ab 3d 9d 00 50 be 01 69 d9 bd
       0.21351717 0.08359998 -0.20312734 -0.10615731
000050 dc a2 24 be 80 f0 69 3d 8f c3 7e 3c 7a be 58 3e
       -0.16077751 0.057114124 0.0155495545 0.21166411
000060 d0 8d 95 bc c3 73 81 3d dd 22 5d 3e 23 1b c3 bd
       -0.018256098 0.06320908 0.2159533 -0.0952666
000070 fa 9c 20 be ca 1f 0a 3e 9b 6d 12 3d 63 bd cb bd
       -0.15684882 0.13488689 0.03574906 -0.09948232

5.weight f4 [100, 1568]
000000 a4 a7 19 bc d9 60 34 3e e0 65 2d bd d8 53 52 bf
       -0.009378348 0.1761507 -0.042333484 -0.82159185
000010 d9 52 e8 bc e2 bf 2b 3f 4b 34 1c be 19 bd 19 3e
       -0.028359817 0.67089665 -0.15254323 0.15013541
000020 76 5e b6 bd bf 28 0d be b8 b4 f0 bd f3 9b 62 bc
       -0.08904736 -0.13785075 -0.11753219 -0.0138311265
000030 35 ce be bd 28 d3 94 3c 56 40 20 3e e0 ae 0a be
       -0.093166746 0.018167093 0.15649542 -0.13543272
000040 fe 3e 50 be e9 b2 da bd 41 af 29 bc ba 46 ef 3b
       -0.2033653 -0.10678656 -0.010356725 0.0073021324
000050 40 7a f5 3d 93 0a 10 3f 69 a0 1c 3e cd 67 26 3e
       0.11986208 0.56266135 0.15295567 0.16250534
000060 f2 b7 5c be 17 88 6d bf 15 52 9a 3c dd 98 c8 bb
       -0.21554545 -0.9278578 0.018837968 -0.0061217383
000070 ce 6f fe be ae 89 7b 3e 5c e0 a2 3d e3 5a 3c bd
       -0.49694675 0.2456424 0.079529494 -0.045985114
000080 55 36 05 bd ce a5 66 3c 12 b8 1c 3e b0 12 b4 3e
       -0.03252252 0.014077617 0.15304592 0.35170507
000090 2c 06 b0 be d5 c6 96 3d 05 cb 0e 3e dd 3e 9b 3d
       -0.3437971 0.07362143 0.13944633 0.075803496
0000a0 f7 4c 56 be 2e 11 c2 3e b3 ee 8e 3c 86 0b 52 3c
       -0.20927797 0.37903732 0.017447805 0.01282013
0000b0 8a 96 87 ba ff 45 d1 bc be d6 c5 be 28 ce c6 3d
       -0.0010344547 -0.025546072 -0.38640398 0.0970729
0000c0 e9 f5 19 3d e0 d6 53 bb e3 52 7e 3e 56 b6 37 be
       0.037588034 -0.003232412 0.24836306 -0.1794065
0000d0 ff 39 46 be 4b 1d 0a 3d 8a ab a2 3d 5e 84 9c 3e
       -0.19358061 0.033719342 0.07942875 0.30569738
0000e0 79 62 ea bd f9 b5 a4 be 73 ab e6 3d d1 3c eb bc
       -0.114445634 -0.32170084 0.1126317 -0.028715523
0000f0 17 e3 17 be 48 f2 1a 3d 98 78 1b 3f 8b 2e a9 be
       -0.14832722 0.037828714 0.60730886 -0.33043322
000100 d4 c0 11 3f 31 10 71 bd 76 c9 39 3a 47 16 20 3d
       0.5693486 -0.058853332 0.000708721 0.039083745
000110 4c 8c 48 3b 40 9d d3 be cb 5d 00 bc 52 6f 2c 3f
       0.0030601202 -0.4133091 -0.007834862 0.6735736
000120 c3 15 d9 bc af dd 43 3e 40 57 28 be e5 41 0c bd
       -0.026499635 0.19127534 -0.16439533 -0.03424253
000130 b1 98 77 3c 1a 5d a0 bd c0 f9 3f 3b fa c2 6b 3e
       0.015112088 -0.07830258 0.002929315 0.23023596
000140 69 32 3c bb 8f 0a 18 bd ee c4 f8 bd 72 66 be 3d
       -0.002871657 -0.037119444 -0.12146936 0.09296884
000150 97 34 65 bd 52 a0 27 bf f7 eb ae bd 95 0b 40 39
       -0.055958357 -0.65479004 -0.085411005 0.00018314862
000160 87 61 32 bb 1d 64 c6 bc be c3 ee 3e a5 27 8c bc
       -0.0027218775 -0.02421766 0.46633714 -0.017108748
000170 76 bc 2e 3f a1 1f a4 3e d5 ce 8e 3d 6c 7a df bd
       0.6825632 0.3205538 0.06973044 -0.10912022
000180 d5 7e 1f 3e e9 86 f1 bd a9 43 bf 3c e2 0c 45 3f
       0.15575726 -0.1179331 0.023347693 0.7697278
000190 e2 8e 3f 3e 02 99 8d 3e cd 4c 50 be 37 e1 da be
       0.18706849 0.27655798 -0.20341797 -0.4274995
0001a0 03 4e c4 be 22 9f 63 3d 3a f1 03 be 61 3f 4f bd
       -0.38340768 0.055571683 -0.1288499 -0.050597552
0001b0 94 32 20 bd c4 5f 43 bd 1e 5a 89 3d 4a de 3a 3e
       -0.039110735 -0.04769875 0.067066416 0.18248859
0001c0 ff 94 43 3d c2 e9 8b bd 07 00 74 3c 1b eb c4 bd
       0.047749516 -0.06831695 0.014892585 -0.09615155
0001d0 0d d0 e7 3c 34 23 b1 bd bc 7f 02 3e 5f a4 e4 3c
       0.028297449 -0.086492926 0.1274404 0.02791041
0001e0 ef 2e e4 bd a8 50 8a 3e 9c 9c c0 3e 8a 83 8e 3c
       -0.111417644 0.2701466 0.37619483 0.017396707
0001f0 d8 83 8b be 19 41 12 be 91 75 cd bc da a9 60 3d
       -0.27249026 -0.14282645 -0.025080474 0.054849483
000200 2f 36 a8 bc f9 c1 cb ba 73 fc 53 3e 2d dc 2f bd
       -0.02053365 -0.0015545479 0.2070177 -0.042934585
000210 4d 20 75 3e 11 87 9d bc e9 ea 1e bf 0a 97 1e bb
       0.23938103 -0.019229444 -0.62077194 -0.0024198913
000220 03 42 b3 bc b0 8e 7c 3b 29 e9 e8 bd 76 e7 a0 3e
       -0.021882063 0.0038537197 -0.11372597 0.3142659
000230 f5 c4 e7 3a 42 02 25 bd d3 a9 51 3d 87 8e 6c 3a
       0.0017682599 -0.040285356 0.051187348 0.0009023924
000240 a3 5a c8 3d ef ad 18 be 2f 35 65 be 4e 0e 05 be
       0.097829126 -0.149101 -0.22383569 -0.12993738
000250 50 c6 91 be 7a 6d 71 3e 1a 65 b6 3d 32 1c 99 bc
       -0.28471613 0.23576918 0.08906002 -0.018690202
000260 6c d4 d4 bc 04 80 61 3e 3e 21 9a bc f5 a6 3f bd
       -0.025980197 0.2202149 -0.01881468 -0.046790082
000270 b1 93 13 3f 30 42 db 3e 49 d5 a6 ba a5 a2 f1 bb
       0.57647234 0.42823935 -0.0012728359 -0.007374125
000280 be 9c 09 3e 0f 35 23 3d f6 42 47 3e b4 b4 69 3e
       0.13438699 0.039845522 0.19459137 0.22822839
000290 d9 71 df 3c 50 b9 c7 be 61 98 75 3c 8c 51 06 3f
       0.027275966 -0.3900857 0.014989943 0.5246818
0002a0 a8 cd 21 3e 68 a5 73 bd 77 49 58 3c d9 8b 61 be
       0.15801108 -0.059483916 0.013201109 -0.22026004
0002b0 09 43 b2 bd a9 67 24 be 14 a2 aa 3e bd fa 2e be
       -0.08704192 -0.16055168 0.3332678 -0.17087837
0002c0 36 03 fe bc 3d 51 21 bf b3 d6 0e bd 43 b9 4f bd
       -0.03100739 -0.63014585 -0.034872722 -0.05071379
0002d0 30 a0 9f bc f9 40 4a 3e a8 f8 31 be 3e 21 0f 3e
       -0.019485563 0.19751348 -0.17380011 0.13977525
0002e0 10 48 e6 3d 17 be e7 3d 5f 45 11 3d 15 96 04 3e
       0.112442136 0.11315554 0.035466548 0.12947877
0002f0 b2 d2 bb bd c6 0e e0 bd 8e 68 54 3b 3f 46 b1 bd
       -0.09171046 -0.10940318 0.0032410952 -0.086559765
000300 4c ec 89 3d b7 37 4c be 54 ac b6 bd 23 3f ae be
       0.06734523 -0.19943129 -0.08919588 -0.34032544
000310 12 c9 34 3c 7e a2 4c 3d df bf 02 be 27 02 23 be
       0.011034267 0.049959652 -0.12768506 -0.1591879
000320 4b ac 8b 3d 86 47 92 bd 77 83 1d bd 30 8d e9 3d
       0.06819972 -0.07142548 -0.038455453 0.114038825
000330 88 58 35 be cf be 1e be 29 47 a4 be e7 ac 54 3e
       -0.17709553 -0.15502475 -0.3208554 0.20769082
000340 f9 34 c5 3e cf 9a 23 3e bb 9a 79 be f2 18 18 3d
       0.38516977 0.15977024 -0.24375431 0.037133165
000350 83 69 b5 be 7c 7f 06 be 03 d9 14 be 60 f4 40 3d
       -0.35432062 -0.13134569 -0.14535908 0.047108054
000360 85 a3 81 3e c5 7f 65 3e 7a 13 04 3e be d0 df 3d
       0.25320068 0.22412021 0.12898055 0.10928486
000370 99 fb 28 bf 4c b9 67 bf 9f 5f 9d 3d ee 89 ea bd
       -0.6600891 -0.90517116 0.07684254 -0.11452089
000380 6d 1e 83 bd eb 5d 85 3e e9 5c 8e bd 8c 1d 52 ba
       -0.06402288 0.26048216 -0.06951315 -0.0008015267
000390 3e 00 c4 ba 41 6b b7 bd 9b c9 64 bf 68 99 7a be
       -0.0014953685 -0.08956004 -0.89370126 -0.24472582
0003a0 70 f9 29 be 79 b0 a8 3c 51 e6 f3 3d 29 ad 30 be
       -0.16599059 0.020591961 0.11909164 -0.17253555
0003b0 92 42 3c be b3 89 3a 3f 82 9c ac be 23 b4 90 bd
       -0.1838477 0.7286636 -0.33713156 -0.07065608
0003c0 61 00 02 3e 1d fd b4 3c 89 1e 44 3e b9 e5 d9 3b
       0.12695457 0.02209335 0.19152273 0.0066496995
0003d0 d0 2c d3 3d 86 14 ae bb 6a 4b 75 3d 7e 80 90 3e
       0.10311282 -0.005312505 0.059886374 0.28223032
0003e0 6e a0 b0 3c f4 cf 88 bd d7 76 b6 3e 41 38 da 3b
       0.021560874 -0.06680289 0.35637543 0.006659538
0003f0 eb ca 22 3f a4 53 76 bd 65 bd 9d bc fa 1e 4b bd
       0.6359088 -0.06013836 -0.01925535 -0.04959009

5.bias f4 [100]
000000 0d 63 06 3f aa 42 3b 3c ab 9e b1 bc d7 21 fc bc
       0.5249489 0.011429468 -0.021682104 -0.030777855
000010 9a 25 db bc 82 6e 25 3c c8 35 73 3e 44 37 cb bc
       -0.026751328 0.010097148 0.23750985 -0.024806626
000020 53 cd dc be 2a df ea 3d e6 02 88 bc 02 c9 a0 3e
       -0.431254 0.114683464 -0.016602945 0.31403357
000030 88 70 ee bc fa c0 21 3d bb 2f 88 3e c9 79 a6 3b
       -0.029106393 0.039490677 0.26598915 0.005080436
000040 6c dd 2d bd 14 6a c7 bc 65 b9 87 3a c8 99 38 3e
       -0.042447492 -0.024342574 0.0010354934 0.18027413
000050 ca 70 ad bb c0 b7 28 bd f4 93 bd bc c1 bb a6 3e
       -0.0052929865 -0.041190863 -0.023141839 0.3256512
000060 cd 35 b8 bd 35 af f0 3c 6c fa 5d 3c b9 1c 44 bd
       -0.08994637 0.02938042 0.013548475 -0.047878955
000070 28 84 48 3e 1d 8a ca bc 8b 48 1c bd 9b a5 d8 bc
       0.19581664 -0.02472406 -0.03815512 -0.026446154
000080 a9 31 a2 bd c7 b4 0e 3c 8f 80 44 ba 65 d6 d5 bb
       -0.07919628 0.008710093 -0.00074959634 -0.006525802
000090 01 e2 ae bc 03 8d bd bb 6d 1b 4a bc 0e 63 f3 bd
       -0.021348001 -0.005784632 -0.01233564 -0.118841276
0000a0 c9 cf 26 3d 7d f5 09 3f a1 26 c1 bb dd 32 b9 3b
       0.040725503 0.5389021 -0.0058944975 0.0056518153
0000b0 4f af 8a 3c 6a 33 d0 bc d1 b0 90 bc 09 a3 3a 3d
       0.016929297 -0.025415141 -0.017662438 0.04556564
0000c0 97 b8 ef bc 0e 28 e4 3c 0f 2b c8 bc 3c d8 9e bb
       -0.029262824 0.02785113 -0.024434594 -0.0048475545
0000d0 0a 0a 46 3b 57 c9 03 3e 2f 46 00 bd 02 0b 90 be
       0.0030218386 0.12869774 -0.031316932 -0.28133398
0000e0 53 9c b0 bc ed c4 37 bd 71 82 2d be c7 6a 55 bd
       -0.021558916 -0.044865537 -0.1694429 -0.052103784
0000f0 76 28 f0 bc ec 2c 90 bb 20 0a b6 bc be e8 b1 3e
       -0.029316168 -0.0043998864 -0.022221625 0.3474788
000100 e5 71 89 3e c3 48 f9 bc c4 d9 39 bc 05 91 66 be
       0.26844707 -0.030430203 -0.011343423 -0.22516258
000110 08 44 ab 3b fb 32 f9 bc 80 f3 98 bc 3b 0a 7f bc
       0.005226616 -0.030419817 -0.018670797 -0.015566404
000120 63 0f 9e 3e 32 ca 15 be dc ff 64 bb 12 32 91 3d
       0.30871114 -0.14627913 -0.0034942543 0.07089628
000130 56 51 0f bd 5e 21 e1 3e 7b 77 26 be c5 3b 3b bd
       -0.034989677 0.4397077 -0.16256516 -0.045711298
000140 f3 cd ad bc 76 ce 46 bd 32 9d e1 bd 29 ea 80 3e
       -0.021216368 -0.04853674 -0.11016311 0.2517865
000150 4e 19 b2 3d 69 f5 30 bc eb 70 08 ba 26 a3 1b b9
       0.08696233 -0.010800698 -0.00052048144 -0.0001484273
000160 ea 61 9b bc 99 eb cb 3e 6f 99 00 3e 4e a1 d8 3d
       -0.018967588 0.39828184 0.1255853 0.105776414
000170 3f 1c 94 3b 55 28 7e be ed 2d c4 3e 23 96 15 3e
       0.0045199688 -0.24820073 0.3831629 0.14608054
000180 0c e2 b1 3d be 21 1b 3f 00 d6 de 3e e3 7d 19 3c
       0.08685693 0.6059836 0.43522644 0.009368393

7.weight f4 [10, 100]
000000 41 12 92 be ff 88 60 3a f6 54 1e bf ae b1 b9 3d
       -0.28529552 0.0008565336 -0.6184839 0.09067093
000010 33 fa d4 3c dc 38 7a bd 36 99 a0 be cd 27 83 bd
       0.02599821 -0.06108938 -0.3136689 -0.06404076
000020 9f 48 5c be b1 d6 e5 3d 10 fd af bc 7f 53 8c be
       -0.21512078 0.1122259 -0.021482974 -0.27407452
000030 85 f5 7d 3d 76 89 0c bf 09 21 ad 3e 11 7a 75 3d
       0.062001724 -0.5489725 0.33814266 0.059930865
000040 47 14 07 3d d1 5a ad bd b1 4e 07 bd 53 4c 02 bf
       0.032978322 -0.084645875 -0.03303403 -0.5089771
000050 90 b2 24 3d be f5 b8 3d fc 39 02 bd 18 6f a7 bd
       0.040209353 0.090312466 -0.03179358 -0.08175486
000060 3f 5f bf 3e 24 74 33 bd f7 78 7b be 4f 77 09 bd
       0.37377355 -0.043811932 -0.24557863 -0.033561047
000070 11 14 1c be e4 6c 78 bd 22 df 81 3d b6 ee e3 3c
       -0.1524203 -0.06065072 0.06341387 0.027823787
000080 f5 c3 6f 3e 93 84 17 3d b4 d1 29 3b 29 8a 7d 3c
       0.23414595 0.036991667 0.0025912346 0.0154748345
000090 be 86 10 3c 0c d8 e8 3e 4f a1 9f 3d 8f 88 be bd
       0.008821188 0.4547733 0.07794439 -0.0930339
0000a0 b1 05 80 3e 90 79 a9 3e bf 67 02 bd 74 b2 37 bf
       0.25004342 0.33100557 -0.03183722 -0.7175667
0000b0 77 60 ab bd 1f 33 90 3d 49 76 ae bc 82 18 b6 bc
       -0.083680086 0.070410006 -0.021296637 -0.022228483
0000c0 17 92 92 bd 87 61 cb bd 7b 5c 7b bd a0 54 01 bd
       -0.07156771 -0.09930711 -0.061367493 -0.031574845
0000d0 62 a5 b7 bd 99 5f fe be 8b fb 67 be 82 91 a5 be
       -0.08967091 -0.4968231 -0.2265455 -0.32337576
0000e0 31 8f dd 3d bb 59 bc bd 56 bc a7 3e 4f 7a 36 3c
       0.10818327 -0.09196802 0.32760876 0.011137559
0000f0 fa 74 24 bd 53 9e 97 3c e2 b0 4f bd ea 13 30 3e
       -0.04015062 0.018508112 -0.050705798 0.17195097
000100 e9 5e 19 3d 64 42 2a be 45 f0 1c 3d 79 ea 24 be
       0.03744403 -0.16626889 0.038315076 -0.16105069
000110 da 22 97 bd 34 da 0b bd 9f 52 88 bd fd e8 6f be
       -0.07379694 -0.03414364 -0.06656384 -0.23428722
000120 d7 c5 e4 3c 7b 53 9c be ec da 7f 3e 7f 80 33 bf
       0.027926369 -0.3053244 0.24985856 -0.70117944
000130 69 d0 30 bc 66 69 0c 3a 70 f9 94 3e 67 5e b6 3d
       -0.010791876 0.0005356282 0.29096556 0.089047246
000140 08 f9 23 3d ab ca 74 bb dd c9 3f 3c 82 05 54 be
       0.040032417 -0.0037352245 0.011705843 -0.20705226
000150 fe de d4 3e 85 f6 01 3d c1 4e a1 3d cb 7d 4e 3d
       0.4157638 0.03172924 0.07876349 0.050412934
000160 bd 4a 95 ba 43 ac 61 be 70 86 d1 bb 63 f9 1e 3d
       -0.0011390072 -0.22038369 -0.0063942 0.038812052
000170 40 9e 75 bd a5 1a 88 bd ee 99 8e bd 83 56 01 bf
       -0.059965372 -0.06645707 -0.069629535 -0.5052263
000180 b4 c3 aa bc 8d a6 f0 bd 9c 7d b2 3d 6e 14 4b 3d
       -0.020845272 -0.11750517 0.08715364 0.04958003
000190 de 7c 23 3e 99 1a 5e bd e0 de 6f 3d 53 8f 91 bd
       0.15965602 -0.054224584 0.05856216 -0.07107415
0001a0 f1 02 ac 3d 62 b0 a2 3c 6d 08 c6 bd 02 6c a3 3e
       0.083989985 0.019859497 -0.09669576 0.3191834
0001b0 a2 d9 8c 3e 7b 7f 0a 3e 84 34 6a 3c bb f4 77 be
       0.2750979 0.13525192 0.014294747 -0.24214451
0001c0 0e 7b 8c bd 62 43 15 bd 2a 83 0c be d9 93 2c bc
       -0.06859408 -0.036441214 -0.1372191 -0.0105332965
0001d0 d5 3c 54 bc cf 2f 0b bc a0 b0 c2 bd 9f e1 b3 bd
       -0.012953957 -0.008495285 -0.09506345 -0.08783268
0001e0 a4 a8 a6 3b dc ff 28 bd 5c e3 20 bc b3 c9 b6 be
       0.0050860215 -0.04125963 -0.009819832 -0.3570076
0001f0 89 94 a9 bc e5 70 9c be a4 f3 ba 3c ee a3 85 3d
       -0.02070071 -0.30554882 0.022821255 0.06525408
000200 6f 9b 20 3e 7f 10 3a 3d a2 2d 5a 3d cd 4a db bc
       0.15684293 0.04542589 0.053266175 -0.026769066
000210 8d 22 22 bc 79 3d 23 3d b5 bb 01 3d 35 43 8b 3d
       -0.009895933 0.039853547 0.031673152 0.06799928
000220 cd 4b 2c bb 5b b2 1d bf 21 5b 89 bd 4e 68 1a bc
       -0.0026290298 -0.61600274 -0.067068346 -0.009424282
000230 4a 65 2d be 4a b1 b3 bd 5a aa 80 bd 51 09 87 3f
       -0.1693317 -0.087740496 -0.06282492 1.0549718
000240 0a e2 9a 3d 65 6b 36 3d fa 39 97 bc 04 fd a8 3e
       0.07562645 0.044536013 -0.018460263 0.33005536
000250 e8 cd 2b bd 65 79 bd 3a 81 5a b7 3b fa 9d 82 3d
       -0.041944414 0.0014455734 0.0055955057 0.06377788
000260 24 5e 31 bc 79 3b 5b 3e c4 fa a3 3e 48 22 c5 3d
       -0.0108256675 0.21409406 0.32027256 0.09625679
000270 4d 9a e9 be 15 53 4d bc 6b a7 fa 3d ba f1 5f bb
       -0.45625535 -0.012532015 0.12238964 -0.003417118
000280 8e cf e5 3c fa 5b 67 3e 12 30 27 3b 0a 7e d5 be
       0.028053071 0.2259368 0.002551083 -0.41697723
000290 8d 62 42 bf 5d 8c 8b bd 93 9f 25 bc eb c2 14 3e
       -0.75931627 -0.068138815 -0.010108846 0.1452748
0002a0 4f e2 9c bb 19 3d 9b bd ab ba b6 bc 75 31 70 be
       -0.0047877203 -0.07580013 -0.022305807 -0.23456366
0002b0 54 4e a7 be 1c 75 bc 3d 37 a7 d5 3d f2 57 9c 3e
       -0.32676947 0.09202024 0.10432284 0.30535847
0002c0 f2 f7 08 3d e5 2e 92 be ff e0 da 3b f0 2a 88 bd
       0.033439584 -0.28551403 0.0066796537 -0.06648815
0002d0 5a c9 40 3b 25 c6 0a 3d 48 ae 10 3d 75 0f c8 be
       0.002941689 0.03388037 0.035322458 -0.39074293
0002e0 0c d8 ab 3e 00 48 96 bd d6 e9 4f bd 38 0a 81 bd
       0.33563268 -0.07337952 -0.050760113 -0.06300777
0002f0 af 43 80 bd 2e dd 33 3e f4 23 cb bd fc d9 e6 bb
       -0.062629096 0.17564842 -0.09918967 -0.0070450287
000300 e6 a1 b2 3d d5 3c c7 3e e8 fb 46 bd e1 50 6c be
       0.08722286 0.389136 -0.04858008 -0.23077728
000310 ed 7c 0a be b5 4d b4 be 6f 96 5b 3d bc 71 19 3d
       -0.13524218 -0.35215536 0.05361026 0.03746198
000320 48 4c 4a be 71 97 03 3d 49 28 21 bf d2 fe bb bb
       -0.19755661 0.032126848 -0.62952095 -0.005737164
000330 16 ef 91 3c 7a c8 90 3c a1 73 1f be af c8 1a 3e
       0.0178142 0.01767372 -0.15571453 0.15115617
000340 2e 56 d7 3d a2 f8 1d be f9 a6 dd bc 4f 13 57 3e
       0.10514484 -0.15426877 -0.027057158 0.2100346
000350 22 f2 f3 3c 9c 0d 05 bf 3a b8 45 be 90 f7 53 3c
       0.029778544 -0.5197389 -0.19308558 0.0129374415
000360 80 a6 81 ba 41 aa 94 3d 5f ce c2 3c db 00 21 3e
       -0.000989154 0.07259036 0.023780046 0.15722983
000370 15 10 59 bd 48 c8 97 3d 2d 05 92 bd 77 68 c8 3e
       -0.052993853 0.074112475 -0.071298935 0.391422
000380 c2 5f e6 3c 12 c9 81 bd ee 1c 6a 3e 63 57 bb 3c
       0.028121833 -0.06337179 0.22862598 0.022868818
000390 47 5e 1f 3e af 15 8e bd 07 fb a2 bd 5d c1 23 bd
       0.15563308 -0.069377296 -0.07958036 -0.039979327
0003a0 5a 3d 7e be 44 8e b0 bd 2c 1f 8e 3d a9 83 e8 bc
       -0.24828091 -0.08620885 0.06939539 -0.028383093
0003b0 18 f4 c1 3c f5 29 17 bf 75 0c 08 3d ed be 40 3e
       0.023675963 -0.59048396 0.033215005 0.18822832
0003c0 56 51 80 3d 82 21 4a be 74 8c a5 3d 19 48 9a be
       0.062655136 -0.19739345 0.0808343 -0.3013313
0003d0 e7 3a 01 bd 88 26 96 3d 46 2f 56 3c 50 be 0d bd
       -0.031550314 0.07331568 0.013072794 -0.034605324
0003e0 db 90 b2 3c 19 b9 e5 be fd 0f 83 bd d2 f8 ad 3d
       0.021797588 -0.4486778 -0.06399534 0.08494724
0003f0 74 45 82 bc 30 5b cd be bd 12 96 be 8b 87 97 be
       -0.015902258 -0.40108633 -0.2931117 -0.295956

7.bias f4 [10]
000000 63 22 db 3c ae 9a df be 59 a8 cc bd 1e 2b 82 be
       0.026749795 -0.436727 -0.09993047 -0.2542352
000010 bf bf e4 3d fd 1c 13 3d ff 6f 0f be f8 26 17 be
       0.11169385 0.035916317 -0.14007567 -0.14760959
000020 94 df 29 3f 71 cf f4 bc
       0.6635678 -0.029884072
