models/more_models/CIFAR/more_small36_1.pth (torch, 862159 bytes, 8 tensors)

0.weight f4 [16, 3, 4, 4]
00000000: df60 88be 60b9 15be 4128 5a3e 49c9 a73e
00000010: 4b71 f0be 0dbf 86be 450b 993e 26bf fd3e
00000020: 71de fbbe ca70 85be 709f 9a3e 12a0 013f
00000030: 9550 a0be 4f55 1dbe 6314 5f3e 810a a93e
00000040: 1237 aebe 54a7 64be 10e5 1c3e 09e7 903e
00000050: c32b 07bf f5e3 a8be f883 7d3e 14d2 ec3e
00000060: 961a 09bf 8a69 a1be 42fd 853e c7e0 f73e
00000070: 75ba b3be 2c84 51be 4a2f 3e3e 5dd1 a23e
00000080: a77c 93be 7db6 39be 7cf1 273e 6f03 8e3e
00000090: d973 eebe e5d7 8ebe e501 863e 1cda ea3e
000000a0: 1bb6 f3be d576 88be 0bc2 8b3e c201 f43e
000000b0: 10b7 99be fd67 24be b442 4b3e cbd1 a33e
000000c0: 6307 863e c3b5 b63e 50b3 ca3e 4140 b03e
000000d0: f447 813e 9fe9 be3e d728 df3e b0cf d33e
000000e0: c14f 363e 42f6 903e 3c3a b93e 83d7 b93e
000000f0: e892 dc3d b88f 373e c6c7 803e 1996 8b3e
00000100: 6259 72bd cfac f8bc 8a88 1c3c 068a aa3c
00000110: dc52 1bbe c576 d5bd 0d93 28bd e4f9 213b
00000120: 9266 5ebe 16c1 3ebe 0dda d1bd d213 24bd
00000130: 462a 54be 4d55 48be 7923 efbd 10db 32bd
00000140: eae8 2ebe 6518 33be 1500 1bbe 382c f7bd
00000150: 695b 94be 7930 90be 1bb9 75be 6183 3cbe
00000160: 482f b6be 94d2 b7be bccd 98be fb7c 66be
00000170: 1a32 9fbe 6767 a8be ed49 8dbe 1cb3 43be
00000180: b114 b83e 2d7e 6a3e 74ae 563d bc27 313d
00000190: 550a c33e ca0d be3d 9a13 15be 14cc dcbd
000001a0: 1b6f 923e ec94 2cbd ef6b 83be 498a 28be
000001b0: c070 333e c213 71bd 0072 4cbe f7c3 bbbd
000001c0: 72c9 d63d fab5 3cbd 1e57 60be 396a 5abe
000001d0: 1f42 b93d e3a3 58be 5fe5 e0be 222d c4be
000001e0: fa6c df3b 1134 a7be aee2 0bbf d2af dcbe
000001f0: 1599 2abd dad9 8cbe cd6d d6be adef 94be
00000200: 240a 443e 3212 273d 79d4 ecbd 919b ecbd
00000210: 9130 2c3e 6dd2 f4bd 693c a7be a62f 8ebe
00000220: e6fe b13d aaf6 6fbe b514 dcbe fbe0 aabe
00000230: 6d21 3a3d ab8d 3fbe 7ef4 9fbe a32e 53be
00000240: 3237 b9bd 27d8 f43c 4a5d f73d 5e1c 343d
00000250: 37ad 08be 9637 093d f040 333e 023e 0a3e
00000260: f683 72be d771 d2bd ccc5 883d 006d b23d
00000270: 6846 75be 98da 59be 0f5d cebd 3b17 3bbd
00000280: 8945 36bc 8850 113e deba 7d3e c692 2c3e
00000290: 2ab0 41bd a6d6 223e 5f61 a43e 28ef 903e
000002a0: 2d12 26be b940 373c 9551 483e f355 5d3e
000002b0: 82b4 34be 3622 eabd 6cdd 2d3c b2ae 8e3d
000002c0: 6c61 dd3d a56b 923e bfb5 ce3e a0f6 9f3e
000002d0: cb55 bc3d 210f ac3e 8c8e 023f 8741 ea3e
000002e0: 3551 fdbc 63ac 3c3e 389f bf3e 9b85 c43e
000002f0: 3857 93bd 5662 eb3c d7be 233e f3a5 563e
00000300: b4c9 b4be 5352 e5be 64a7 9cbe 5919 c8bd
00000310: daa7 07bf c0b5 28bf a10b 00bf 64cc 6dbe
00000320: e01f e9be 05f5 12bf 35f2 d6be 14af 36be
00000330: d415 58be 7a45 8abe 03b7 1cbe 5d93 1fbd
00000340: c1be 18be de9e 66be 4349 02be 9a7a 443d
00000350: ed77 98be 8fef d0be 2923 97be 59e1 76bd
00000360: 564a 76be 88b0 afbe 277c 65be 4b0d 57bc
00000370: 7830 1abd 2279 adbd dc34 0c3c 9592 cb3d
00000380: f123 edbd efaa 29be 988b 56bd 18f7 b53d
00000390: 3f20 6abe 611c 9dbe 274a 39be 64e5 613c
000003a0: 6ac4 2bbe 7015 79be 438c febd 78e4 683d
000003b0: e65f 10bc b316 13bd 3f24 6e3d 5ee6 073e
000003c0: b0d4 d53d 0262 773e 23ff 743e ae69 063e
000003d0: 4465 a23e f95e 0b3f 0c6e 043f fdd8 a23e
000003e0: 6e97 c33e a5bb 223f dab2 173f 7b0a b43e
000003f0: 10b5 633e 1274 d23e b5d9 be3e dfbb 483e
-0.26636407 -0.14621496 0.21304418 0.32770756 -0.46961436 -0.26317635 0.2989141 0.49559897
-0.49193147 -0.26062614 0.30199766 0.5063487 -0.3131148 -0.15364574 0.2178512 0.33015826
-0.3402639 -0.22329456 0.15321755 0.28301266 -0.5280115 -0.32986417 0.24757373 0.46254027
-0.5355619 -0.31525832 0.26169783 0.4841368 -0.35103193 -0.20460576 0.18572727 0.31800357
-0.2880604 -0.1813602 0.16400713 0.27736995 -0.4657276 -0.2789909 0.2617332 0.4586953
-0.47599873 -0.26653162 0.2729648 0.4765759 -0.30022478 -0.16055293 0.19849664 0.31995997
0.2617751 0.35685548 0.3958993 0.34424022 0.25250208 0.37287614 0.43585846 0.4136939
0.17803861 0.2831288 0.36177242 0.36297235 0.10770208 0.17925918 0.25152415 0.27262953
-0.059167273 -0.030355839 0.009554038 0.020817768 -0.15168327 -0.10423044 -0.041155864 0.0024715597
-0.21718815 -0.18628344 -0.10246668 -0.040057965 -0.20719251 -0.1956379 -0.11676688 -0.043665946
-0.17081037 -0.17489775 -0.1513675 -0.12068981 -0.2897599 -0.28161982 -0.23996393 -0.18409492
-0.35582948 -0.35902846 -0.29844463 -0.22508614 -0.31092912 -0.3289139 -0.27595463 -0.19111294
0.35953286 0.22899695 0.052412465 0.043250784 0.3809382 0.09279974 -0.14558259 -0.10781112
0.28600392 -0.04213421 -0.25668284 -0.16459002 0.1752348 -0.058856733 -0.19965363 -0.09168237
0.104876414 -0.046071984 -0.21908233 -0.21329583 0.09045815 -0.21156268 -0.43924996 -0.38315684
0.006818411 -0.3265691 -0.5464276 -0.4310289 -0.041649897 -0.27509958 -0.41880646 -0.29089108
0.19144493 0.040788837 -0.115639634 -0.115531094 0.16815402 -0.11954198 -0.32663277 -0.27770728
0.08691196 -0.23433939 -0.42984548 -0.3337477 0.045442034 -0.18706386 -0.3124122 -0.20623259
-0.09043731 0.029888226 0.1207834 0.043972366 -0.13347326 0.033500277 0.1750524 0.13500217
-0.23683152 -0.102756195 0.06678352 0.08712196 -0.23952639 -0.21274793 -0.10076343 -0.04567645
-0.011124977 0.14190876 0.24778315 0.16852865 -0.047287144 0.15902194 0.32105538 0.28307462
-0.16217871 0.011184865 0.19562371 0.21614818 -0.17646983 -0.114323065 0.010611873 0.06966914
0.108095974 0.2859775 0.40373036 0.31242847 0.09196051 0.33605292 0.5099876 0.45753118
-0.030922512 0.18425135 0.37426162 0.38383183 -0.0719437 0.028733414 0.15990768 0.20961742
-0.35310137 -0.4478937 -0.3059646 -0.0977046 -0.52990496 -0.6590233 -0.50017744 -0.232225
-0.4553213 -0.5740512 -0.41981664 -0.17840225 -0.21102077 -0.2700613 -0.15304188 -0.038958896
-0.14916517 -0.2252154 -0.1272326 0.047968484 -0.29778996 -0.4080777 -0.29519013 -0.060273502
-0.24051794 -0.3431437 -0.22410642 -0.013125728 -0.03764388 -0.0847037 0.0085575245 0.09940068
-0.11579121 -0.16569112 -0.05237922 0.0888502 -0.22863863 -0.30685714 -0.18094693 0.013787601
-0.16774145 -0.24324584 -0.124290965 0.05685851 -0.0088119265 -0.03591032 0.058140036 0.13271472
0.104409575 0.24158481 0.23925452 0.13126251 0.31717885 0.5444179 0.5173042 0.31806174
0.3820147 0.6356757 0.5925728 0.35164246 0.22237039 0.4110418 0.37275472 0.19602917

0.bias f4 [16]
00000000: 348b 42bf d30e 63be a604 3f3f c0c0 a7be
00000010: 6a0f aebe 1d63 2e3f 8b22 55bf 8591 57bf
00000020: 0109 62bf a913 4fbf b53d 28bf 0d2b dcbe
00000030: c9b0 743f 3a6a e43f cc24 13bf b629 17bf
-0.7599366 -0.22173624 0.7461647 -0.32764244 -0.33996135 0.68119985 -0.83255833 -0.8420642
-0.8829499 -0.80889374 -0.6571916 -0.43001595 0.9558225 1.7844918 -0.5747802 -0.5904802

2.weight f4 [32, 16, 4, 4]
00000000: ab78 24bd 2381 253e 43a4 593e caad 15bc
00000010: 66d6 493e 046e 813e 5e9e 45bb 8e8f 48bd
00000020: 7f3b 2c3e 0a0a 00be 2c5f 32be 4ff7 d2bd
00000030: 9a3e 3dbd e8ac 44be da2f cbbd 0d87 f4bd
00000040: 65c9 babd 1a4d b5bd 96b8 80bd 27da 12bd
00000050: 848b 5abd cf44 8cbd 2500 dfbc 53c0 11bc
00000060: 2529 40bd 26bb 3bbd 0c31 86bc e70c 41bb
00000070: 378c 25bd 4731 d4bc 66d6 6c3b 40bf 8d3c
00000080: 63b2 283d 2856 29bd ebad 0abe 9dbd 8ebd
00000090: e9fb 4cbd 9388 74bd bd55 92bd 3064 e6bb
000000a0: 1101 19be 82a7 15bd 8ac3 b1bc 188e 6b3c
000000b0: fe3c c4bc e67f cb39 5b4a 37bb 5a1e 493d
000000c0: b69f 7abd 366a efbb 452d bd3d 30ad 9c3d
000000d0: 912d 15be 174b c8bc e361 703c ca14 a53c
000000e0: a252 0fbd c97d e83d 1a90 ab3d f99e 583d
000000f0: ac4a 9e3d b125 7e3d 961c 303d ea1a 01bb
00000100: eb59 163e 9b9e 143e a593 4dbd cf2e babd
00000110: 4525 c83e dfbd bb3d 7c31 f6bd 10a6 00be
00000120: d44b 8fbd f24f 41be 3acc 8ebd 8425 a8bc
00000130: 967e e8bd 6016 95bd 8bea 20bc ef00 0a3d
00000140: cfb7 f6bc d750 5ebe 24f6 a7bd edaa 89bc
00000150: 6093 80be 4e77 b9bd ba14 813d 04a4 1f3c
00000160: 69a0 d9bc b964 c73d 73be a03c 4383 0fbd
00000170: 99bb ad3c c345 9fbd 2cee bfbd 777a dcbd
00000180: 3a4b 99bd 5970 cbbc 9890 29bd 34cf 37bd
00000190: e27f fe3c 530c 0e3d cb08 b6bc 6f26 51bd
000001a0: 1cb5 853e c628 4fbc 1348 27be 7843 fdbd
000001b0: be0d 1dbe 1a81 f3bd 059b a4bd de7a c1bc
000001c0: 7118 503d e23f 873c 6989 e4ba 2364 6dbc
000001d0: 2b84 893d f9f8 8d3c 821b 7dbc 40d0 833c
000001e0: 4742 e3bb ee11 e13a 5803 a3b9 aa77 e5bc
000001f0: 588a 7b3d d131 e13d 790f 1b3d e6f7 613d
00000200: ebff aa3d afcb 313b 9a53 ea3b d92d 343b
00000210: 5e14 223c 4707 09bd a8df ef3b 08b2 803c
00000220: 3fcc b8bd 533d 6dbd 64c7 f9bb 9281 d4bc
00000230: 93a0 b4bc d67c 1fbd 0022 69bd 2666 07bd
00000240: badb 9e3d 9497 363d 83e9 06bc ef8e 29bc
00000250: 489d 76bc 0885 c9ba 8c0e 11bc 1a3b c1bb
00000260: 5b5e 4b3c edf9 af3d 6d3d 1e3d 5a7c 903b
00000270: a473 92bc a04f 24bb bf89 2bbd fd6a 65bc
00000280: f2a3 07be 9351 e33d 35cc 4d3e 2c1c 023d
00000290: 2d57 913e 9c55 183f 084c 0a3e f6b8 35bd
000002a0: 1710 153f f0e2 003d e75a 0dbe d4df 00be
000002b0: 5f8a b1bd 416f 13be b840 debd b506 e7bd
000002c0: cb2c 153d 7313 53bc 3bd6 863c e526 223d
000002d0: c61c 80bd 7199 82bd 6899 c23c 89a7 a33c
000002e0: 03cd f2bd 3141 9b3c e924 0d3e 2024 973d
000002f0: 07d1 003d 2041 cb3d 90cb 5e3d f1d2 3b3d
00000300: ab43 ecbd 951c 93bd 70eb a83c 3008 b43c
00000310: 2faa 61be 76f3 41bd bca5 8d3c 9726 5e3b
00000320: 5073 10bd 64b1 973d eb9d a53c b7a7 bebb
00000330: a1c1 d73c 8248 2c3d 04db a73c b3e0 01bd
00000340: c690 e2bd df8d efbd c55f 09be db8a 7bbd
00000350: bba2 5bbd 4a09 0fbe 1a16 15be e7c0 a9bd
00000360: 8592 02be 1270 2ebe 4026 f4bd 3d56 91bd
00000370: 62b4 6dbd d9e1 86bd 7847 03bd 37ec 96bc
00000380: a529 2d3d 71d4 8c3c 1f08 a83c 6b2b 8fbd
00000390: b033 093c a873 bebd 206c 86bd 62a8 1abd
000003a0: 12d4 05bd 7044 fbbd 06e6 a2bd dc2e 81bd
000003b0: cf0b 01bd b67c c6bc 0890 a8bc fb70 e73a
000003c0: f5ee a0ba c1be 7a3d cc1d 16bc d732 edbb
000003d0: f071 4c3b a9e3 d9bc adf0 42bd 0508 f1bb
000003e0: 6d71 7fbd a388 c0bd 08eb 87bd b7ac 2abd
000003f0: f0b0 e1bd 431b 8dbd 9a57 89bd 01d2 49bd
-0.04015414 0.16162543 0.21254067 -0.009135673 0.19710693 0.25279248 -0.0030154209 -0.04896503
0.16819571 -0.1250383 -0.17419118 -0.103010766 -0.04620228 -0.19206583 -0.09921236 -0.119398214
-0.09120444 -0.088525966 -0.06285207 -0.035852578 -0.05335571 -0.06849062 -0.027221749 -0.008895951
-0.04691424 -0.045832776 -0.01638081 -0.0029457153 -0.040416922 -0.025902404 0.0036138534 0.01730311
0.041185748 -0.04134193 -0.13542907 -0.069697596 -0.050044928 -0.05970056 -0.071452595 -0.0070309862
-0.14941813 -0.0365367 -0.021699686 0.0143771395 -0.023954865 0.0003881447 -0.0027967903 0.04910121
-0.06118747 -0.0073063625 0.0923715 0.076502204 -0.14568163 -0.024449868 0.0146717755 0.020151515
-0.034990914 0.113521166 0.083770946 0.052885983 0.07729086 0.062047664 0.04299601 -0.001969988
0.14682738 0.14513628 -0.050189633 -0.09090959 0.39090934 0.091670744 -0.12021157 -0.12563348
-0.06996885 -0.18878153 -0.06972547 -0.020525701 -0.11352269 -0.07279658 -0.009821544 0.033692297
-0.030116944 -0.21710525 -0.082012445 -0.016805137 -0.25112438 -0.09055959 0.063027814 0.009743694
-0.026565747 0.09736008 0.019622063 -0.03503729 0.021207618 -0.07776978 -0.093715996 -0.10765546
-0.074850515 -0.024833845 -0.04139766 -0.04487534 0.031066839 0.034679722 -0.02222099 -0.051062044
0.26114738 -0.0126439985 -0.16336088 -0.12366384 -0.15337273 -0.118898585 -0.0803738 -0.023618158
0.05080456 0.016509954 -0.0017435971 -0.0144892065 0.06714662 0.017330633 -0.015448453 0.016090512
-0.006935391 0.0017171481 -0.00031092274 -0.028011162 0.06141123 0.1099583 0.037856553 0.055168055
0.08349594 0.0027129462 0.0071510794 0.0027493148 0.009892551 -0.033454206 0.007320363 0.015709892
-0.09023332 -0.05791981 -0.007622646 -0.02594069 -0.022049224 -0.038937412 -0.05691719 -0.0330564
0.07756753 0.04457815 -0.0082343845 -0.010349019 -0.015052147 -0.0015374729 -0.008853566 -0.005896938
0.012412633 0.085925914 0.0386328 0.004409355 -0.017877407 -0.0025071874 -0.04187941 -0.014002559
-0.13246134 0.110995434 0.2009743 0.031765148 0.28386822 0.5950563 0.13505566 -0.044365846
0.58227676 0.031466424 -0.13804208 -0.12585384 -0.0866897 -0.14397909 -0.10852188 -0.11280576
0.03641967 -0.012883055 0.016459575 0.039587874 -0.06255488 -0.06376923 0.02375479 0.019977348
-0.11855509 0.018951984 0.13783611 0.07379937 0.031449344 0.09924531 0.05439335 0.045855466
-0.11536344 -0.07183186 0.020620078 0.02197656 -0.22037576 -0.047351323 0.017290942 0.0033897513
-0.03526622 0.074068815 0.020216903 -0.005818333 0.026337447 0.042061336 0.020490177 -0.03170843
-0.110627696 -0.11696982 -0.1341544 -0.06141172 -0.05362199 -0.13968387 -0.14559212 -0.08288746
-0.12751205 -0.17034939 -0.11921358 -0.07096527 -0.058033355 -0.06586046 -0.03205058 -0.018423183
0.042276043 0.017191144 0.020511685 -0.06990703 0.00837414 -0.092994034 -0.06563592 -0.03775824
-0.03267295 -0.12268913 -0.0795403 -0.06307766 -0.031505402 -0.024229389 -0.020576492 0.0017657572
-0.0012278246 0.061217073 -0.009162378 -0.0072387266 0.0031195842 -0.026597815 -0.047592808 -0.0073556923
-0.06236403 -0.094010614 -0.066366255 -0.04166862 -0.11020076 -0.068899654 -0.06706162 -0.04927254

2.bias f4 [32]
00000000: d70c 2cbe e830 40bd 019a e4bd 9d52 05be
00000010: ea09 8dbd d9da f2bd 860f 233e de35 d2bd
00000020: 3f80 75bd 2bf0 9dbd 3a66 06be e81b 42be
00000030: af75 bebd 0cb1 ecbd 883e a53d 6213 203f
00000040: a10c 0e3e 16e2 19be cfde ffbc 8034 3c3e
00000050: af31 acbd a19a 58bd d04d e4bd d080 1b3f
00000060: d575 5abd 20bb 8abd 0422 afbd 18d8 72bc
00000070: bf60 dfbd 4b8e 40be a53a 45be d9d9 d1bd
-0.16801773 -0.04692164 -0.111621864 -0.13019796 -0.068866566 -0.11858148 0.1592389 -0.102641806
-0.059936758 -0.07711824 -0.13124934 -0.18955958 -0.0929979 -0.115572065 0.080685675 0.62529576
0.13872005 -0.15027651 -0.031234173 0.18379402 -0.08407914 -0.05288184 -0.11147654 0.6074343
-0.05333503 -0.067739725 -0.0855141 -0.014822029 -0.10907125 -0.1880428 -0.19260652 -0.10246629

5.weight f4 [100, 2048]
00000000: 2583 2fbc 6886 bbbc 285b 4cbc 05a9 19bc
00000010: 1ff5 26bd 6258 b9b8 6910 2cbd 0bcc 1fbd
00000020: 1244 c0bc 603c 8cbc dcad 213c 0365 62bc
00000030: 6c78 cd3c e0fe 983c 88e0 213d 9351 babc
00000040: f51d 3fbc e07b 6a3d 8853 2b3c 1e06 2d3d
00000050: 2565 113d aaef 01bc 3086 64bb e0a8 133c
00000060: f155 323b e6d3 6dbd d479 61bd 5cc6 713c
00000070: dd22 bebc 7fe3 0dbd 4638 14bc 66e8 2e3c
00000080: f0c7 5fbc cc61 053d 3d83 15bc eeaa b8bc
00000090: 83d5 6cbb a12f e3bc 081f 1b3d 86ce c4bc
000000a0: 2b1f 6bbb a3f5 a73c a15f c43c f3f5 86bc
000000b0: c566 8ebd ae04 67bd 5828 a1bc fdcb fabc
000000c0: 47ed 11bd e21e 803c a450 a538 ebca 5cbb
000000d0: a6df 4dbb 2a82 cf3c 1f07 71bc ee99 233c
000000e0: 22b2 d1bc 970e fd3c 81ce 8c3c 9868 94bb
000000f0: b162 253d 0d4c 67bc cda6 2cbd 4102 9b3c
00000100: 3aab bf3c 06c0 01bd a48b eabc dccb 1bbc
00000110: b134 a03b ad35 86bc 5d35 d8bc d4a5 e63b
00000120: 2947 42bd 77a3 16bd d3d1 8b3c 00f2 13bc
00000130: ca7b bdbc ab32 e7bc 1f8d 6dbb e38a 2e3c
00000140: 8e54 d6bc f098 f43c 77d9 383d c0bd 9339
00000150: 7175 15bd 6d07 86bd b9c8 87bc 3e27 86bc
00000160: 2362 febc ddbd 043d 82fd 363c 41c9 df3c
00000170: ce44 e9bb 2fff 45bd 41d9 c0bb 04be 1cbd
00000180: cf5d 113d 8e38 a1bb c2d8 38bd 226b 563a
00000190: 7362 9cbc ee5d c6bc f649 b0bc 4b76 1cbc
000001a0: 59c5 003a d2a1 413d 6dba 853d 64ae 933d
000001b0: 0e26 033d 6aae 9cbd 2292 26bd 991c a03c
000001c0: a8a0 e3bb 668e 083d 5bf2 113c 8585 79bc
000001d0: 38f9 a03c ad8b e1bc d7d7 6ebd 5527 0cbc
000001e0: 122c 673d 6168 863d 40a7 bb3c f32a 143d
000001f0: 20a6 a03c 1d25 9d3a c184 e0bc ffa6 5d3b
00000200: 7037 643c cdb8 56bd 01b3 39bd 83d6 67bc
00000210: 4b23 913b c8c9 d3bc bba1 c6bc ddb4 84bc
00000220: bbff 0fbc 4773 0abd f0aa c4bc 885d 9abc
00000230: 908d 1ebd 6ee3 f0bc 4fc4 503c 4331 d33b
00000240: 6ce1 11bc c8e3 4dbc 1f25 2e3b 5a52 e93c
00000250: 0003 c8bc 2c12 7bbc 6b7c d53c df9f 703b
00000260: 6112 07ba f34b 15bd 0472 35bd 170c 8cbc
00000270: 86dc 59bc d385 4fbc 87a5 6dba 9a51 0b3b
00000280: c879 34bb 19e9 d53b 6474 003c 8b87 e03b
00000290: 3d94 d03b 1601 46bd e8a6 d2bc 9e89 5dbb
000002a0: db66 afbb d253 393d ad38 7abc 4024 3a3d
000002b0: bc00 fc3c 8b70 743c 1da8 82bd 7115 793b
000002c0: 794f 513d 7e4c e63c ce4e c03c de25 283d
000002d0: f03b 06bb 4967 f1bc b661 263b f5c8 67bc
000002e0: 4259 023d 9d6c bb3c b9eb 01bc a5a7 463c
000002f0: d6fd adbb 4a9f 21bd d22e fcbc 389f f5bc
00000300: 07c8 343d 19da 04bb f9db c93a 91fc 783c
00000310: 5e40 8bbc 30d5 5abc b32b 873c 9fc9 0d3c
00000320: 1584 f5ba fb41 87bc 90ac 82bc 7b7f 073d
00000330: cc70 9dbc 7265 8e3c d872 363d 0765 19bd
00000340: ad1c 873b c61c a63c c1d6 343d c991 ee3c
00000350: 1336 ef3c c7aa df3c 171a 863b 2de0 c7bc
00000360: 098a ab3c 6766 37bc e63a b0bc 1618 23bc
00000370: ab92 f33b 2825 353b 0f26 b63b d646 c13c
00000380: 4075 bd3c e70a c3bc 6792 47bd 3271 1abd
00000390: b01e 95bc be3c 2d3d d580 a2bc 7011 28bc
000003a0: 694a 31bd b784 cfbc ede5 c2bc 999a f4bc
000003b0: e7e0 7bbc 2fc3 86bc b317 f63c d4d1 92bc
000003c0: bfbc c8bb 0692 95bc 763f 1dbd 2f3a ffbc
000003d0: 301f 3d3b 2abb f1bc 3f64 b1bc a8e3 bfbc
000003e0: 5496 a8bc cb58 4cbd b1c7 e8bc 77f6 2fbd
000003f0: 6022 c63c b134 893c 503d e8bc 79df 653b
-0.01071242 -0.022891238 -0.012472905 -0.009378676 -0.04076111 -8.83795e-05 -0.042007837 -0.03901295
-0.023469958 -0.017118633 0.009868111 -0.013818028 0.025081836 0.018676221 0.03952077 -0.022743976
-0.011664857 0.057247043 0.010456927 0.042242162 0.03549685 -0.0079306755 -0.003487002 0.009012431
0.002721187 -0.05806341 -0.055047825 0.014756765 -0.023209983 -0.034640785 -0.00904662 0.010675525
-0.013658509 0.03256397 -0.009125528 -0.022542443 -0.0036138005 -0.027732672 0.03787139 -0.02402426
-0.0035876732 0.02050287 0.02397138 -0.0164747 -0.069531955 -0.056400947 -0.019672558 -0.030614847
-0.035626676 0.015639726 7.8828336e-05 -0.0033690284 -0.0031413822 0.025330622 -0.01471117 0.00998543
-0.025597636 0.030890746 0.017188312 -0.00452907 0.040377323 -0.014117253 -0.04215126 0.018921973
0.023397077 -0.03167727 -0.028631039 -0.009509053 0.004889094 -0.016383016 -0.026392633 0.007038811
-0.047431145 -0.036776986 0.017067825 -0.009029865 -0.023130316 -0.028222403 -0.0036247445 0.01065323
-0.026163366 0.029858083 0.045129266 0.000281794 -0.036488954 -0.06544385 -0.016575204 -0.016376134
-0.031052655 0.03240763 0.011168839 0.027317645 -0.007118798 -0.048339065 -0.0058852737 -0.03826715
0.035489853 -0.004920072 -0.04512859 0.0008179416 -0.019089913 -0.024214711 -0.021519642 -0.009549688
0.00049122196 0.047273465 0.065296985 0.07210997 0.032018714 -0.07650454 -0.040666707 0.019544886
-0.006946642 0.033338927 0.00890788 -0.015229587 0.019650087 -0.027532423 -0.05831131 -0.008554299
0.056438513 0.065628774 0.0229069 0.036173772 0.019610465 0.001198921 -0.027407052 0.0033821461
0.013929233 -0.052422334 -0.045336727 -0.014150265 0.004429256 -0.025853053 -0.024247041 -0.016199524
-0.008788998 -0.033801343 -0.02400729 -0.018843427 -0.038709223 -0.029405322 0.012742116 0.0064450814
-0.008903842 -0.012566514 0.002657242 0.028481651 -0.024415493 -0.015324157 0.026060304 0.0036716384
-0.000515258 -0.036449384 -0.044298187 -0.017095609 -0.013297206 -0.0126661835 -0.0009065498 0.0021258355
-0.0027538408 0.0065280315 0.00784025 0.0068520955 0.0063653276 -0.04834088 -0.025714353 -0.003380395
-0.0053528375 0.045245953 -0.015272302 0.045444727 0.030762069 0.01491941 -0.06379721 0.0038007165
0.05110118 0.028112646 0.023475077 0.041051738 -0.0020482503 -0.029468196 0.002538783 -0.014147033
0.031823404 0.02287894 -0.007929736 0.0121249305 -0.0053098006 -0.03945855 -0.030784044 -0.029983148
0.044136073 -0.0020271598 0.001540064 0.015196935 -0.016998466 -0.013356492 0.01650033 0.008654027
-0.001873138 -0.016510954 -0.015951425 0.03308056 -0.019218825 0.017382357 0.044543117 -0.037449863
0.0041232915 0.020277392 0.044150118 0.02912225 0.02920059 0.027303113 0.0040924656 -0.024398888
0.020939844 -0.011193848 -0.02151246 -0.009954473 0.0074332557 0.0027640555 0.005558736 0.023593348
0.023127198 -0.02380891 -0.048723605 -0.037705608 -0.01820311 0.042294256 -0.019836823 -0.010258064
-0.043283854 -0.025331838 -0.023791278 -0.029858874 -0.015373445 -0.016450493 0.030040598 -0.01792232
-0.006126016 -0.018258106 -0.0383906 -0.031155674 0.00288577 -0.029508192 -0.021654246 -0.023423985
-0.020579495 -0.049889367 -0.028415533 -0.042959657 0.024186313 0.016748758 -0.028349549 0.0035075827

5.bias f4 [100]
00000000: 208b a7bc 7cb7 1d3e 715f aebc c00a 4abc
00000010: 808a b53b b086 83bd c1a7 adbc eadb 56bb
00000020: 104a 803d 0d4b 9bbc adae 6a3c c18c d8bb
00000030: 532f 3abc 7c4a 70bb 57eb ed3d 1b86 c0bc
00000040: 0293 3b3d 9807 e9bc e469 783c bc16 a4bc
00000050: 1666 65bd cf9c 9cbc 60e3 4ebc 4ae7 c5bc
00000060: 9ec7 23bd 1e0c 01bd 41ae 3fbd 8a53 21bc
00000070: 5e76 34bd 2a89 cfbc 39eb b1bc 4536 90bc
00000080: 7724 933d 3fc7 fa3c 33c2 b1bc 9ffe 4a3c
00000090: 228c 343d b9d7 f73c 5231 063d e99a 18bc
000000a0: de97 7abb 2e97 3abc a57a a53c 69df 37bd
000000b0: 4e52 d2bc edc5 2c3c 92da 77bd 17a5 573d
000000c0: 25a5 973d b80f 91bc e317 41bd 7261 a53b
000000d0: 0f46 e0bc f2f4 57bd 595d 9b3c d77e 2d3c
000000e0: 78c0 95bd cb34 143c 8640 10bd 8f1c c53d
000000f0: d6d7 a93b 7d75 833d d4e4 183d 359d 9fbc
00000100: c7d4 1a3d 2d34 a3bc 6fc4 443d c23b 89bb
00000110: 4f7d 763d fbd1 50bc eb71 bebc e160 dabc
00000120: 1ddd fcbc f2a2 c1ba a937 74bc ba91 30bc
00000130: 67bb af3d 0c12 02bd 55b4 643d f560 74bb
00000140: 1671 09bb ff7c 45bc a706 be3b 91d6 f1bc
00000150: 2f89 12bd fbb1 32bc db66 32bd c17a e13d
00000160: 1a38 13ba 79d9 093c a004 d6ba 4704 3dbd
00000170: bccb b7bc f255 07bd 3513 bcbc 269c 953d
00000180: 4327 233d 333d 13bb c2b5 21bc a570 e93c
-0.020452082 0.15402025 -0.021285744 -0.012331665 0.005540192 -0.06422174 -0.021198155 -0.0032784888
0.06264126 -0.018956685 0.0143238725 -0.006608576 -0.011363822 -0.003666549 0.11617153 -0.023501446
0.045794494 -0.028446004 0.015161965 -0.020030372 -0.05600556 -0.01911774 -0.012627453 -0.024158139
-0.03998529 -0.031505696 -0.04679704 -0.009846577 -0.044058196 -0.02533396 -0.021718608 -0.017604003
0.071846895 0.030612586 -0.021699047 0.012389808 0.044078954 0.030254232 0.03276188 -0.009314277
-0.0038237493 -0.011388583 0.020200083 -0.044890795 -0.025674012 0.010545236 -0.06051118 0.052647676
0.07404546 -0.01770769 -0.04714192 0.005047017 -0.027377157 -0.052723832 0.01896541 0.010589323
-0.07312101 0.00904579 -0.035217784 0.09624588 0.0051832004 0.064188935 0.037327603 -0.019484142
0.037800577 -0.01992234 0.048038896 -0.004188032 0.060178097 -0.012745376 -0.02324768 -0.026657524
-0.030867154 -0.0014773293 -0.014905849 -0.010776931 0.08580666 -0.031755492 0.05583604 -0.0037289236
-0.0020971945 -0.012053727 0.005799133 -0.029521259 -0.03577536 -0.010906692 -0.043555122 0.110097416
-0.0005615965 0.008413666 -0.0016328283 -0.046146657 -0.022436015 -0.03304095 -0.022958377 0.073051736
0.039832365 -0.0022466897 -0.009869995 0.028496096

7.weight f4 [10, 100]
00000000: 645b f43d cc73 e1be 6838 8abe 505e f93e
00000010: c24a 1c3d 91a4 e8bd 9047 07bd 9bb1 973e
00000020: f4b6 47bd 3aad e53e fce3 0dbd a3ba 93bd
00000030: c296 71be 2fc7 5bbe 2dab 6fbe 7db8 c63d
00000040: 4fba 45bd 0d6a 5dbc 742a c7bd cb88 2cbe
00000050: 735b af3e 4f65 ae3e 2e80 80bc 67c9 6d3e
00000060: c186 fc3b 7e8b 883d 1241 e13d 551a 7abd
00000070: a095 3abe 08c5 783e 1e1c c03e 6fca 09be
00000080: 8abc a43e 0ce6 dfbd cee3 2dbd 9b4c 02be
00000090: cf41 6b3e d0f4 7e3e 8b5c 7ebe 5f17 803e
000000a0: e418 083f 96aa 3b3e 9e1d 40be 9a28 de3e
000000b0: 5696 5ebe 0d29 b93d 8404 a63e 1178 a7be
000000c0: 8bff 69bd ea1e b63e b5db babe c7f0 ab3e
000000d0: b36a 103e 6e32 3abe e6b6 fabd 9873 203e
000000e0: ef53 a63e 4742 2bbe f56c 36be 5cb3 c4bc
000000f0: a907 4fbe 5454 abbe 8c56 1cbe d5dd d7bc
00000100: e358 e3bd 8610 8f3d 2687 f63e c028 93be
00000110: 4660 c83d 1b19 c1bc 0178 963d b212 b1bd
00000120: bc7f a7be 7e13 123f afd4 1b3e 0ed3 a63e
00000130: 1b51 bcbc 4f79 b03e 2cdd 33bd d897 c8bd
00000140: 55f7 223d b0ad 68be 18dd 90be 7c84 133d
00000150: 6b28 173e 41e9 ba3e 551a 9abe 6e00 51be
00000160: fa24 81be c4bc 483e 1518 93bd 2f26 2dbe
00000170: 24d7 843e 6a2c 33be 7fa0 ba3e 708a 24be
00000180: 15d2 ac3e 4140 2dbe 16af 20be 8c23 313e
00000190: e6de 49bd 88d1 a7be 7a89 d7bd 6022 92bd
000001a0: 751e 3cbd 9af5 263f 4de9 ccbd 2425 a73c
000001b0: aca6 b5bd e457 2fbe 3e23 87bd 43bb 43bd
000001c0: a394 a8bd 0a7c 83be b21f a33c 2a10 48be
000001d0: 56b9 cb3d ca07 6d3e e943 043d ece0 513d
000001e0: fc9d ed3e 60e8 d2bd 46ab 013d 3d85 343e
000001f0: 5bb4 143f 9af1 fc3e 4c54 673e 6462 84be
00000200: 917a d6bd 5614 19be 9891 ccbd f033 29be
00000210: d3f3 91bd 1a02 a0be ec00 dcbd 3569 f0bd
00000220: 1b4d 2dbe 5287 18be b8c7 20be e5de b1bd
00000230: 8c4d 10bd 9280 3c3e 4570 27be 2c01 44be
00000240: 137a 50be 901f 853e 6319 753e 9985 a43e
00000250: 40dd a93d 5334 87be 6efc 6d3e 9a47 e0bd
00000260: d427 1cbe 1c98 493e b14a 9bbd ce82 063f
00000270: 2a0e a2bd 5601 96be bef0 333f 5658 87bd
00000280: c345 15be 806e 3ebe af7a 78be 5c8b babd
00000290: 5dca 823d 5a33 e7bd 248d 27be 80bc 873e
000002a0: 405e 87be 150a df3e 82a7 b23e e69c 763e
000002b0: 9bad fe3e e664 243e ca54 fcbd 62b5 77be
000002c0: bac6 0dbd 6acc 66be 86c4 2dbe f5b7 d73c
000002d0: b258 27be 52bf 253e 4e2f a7bd cc0b 3ebe
000002e0: 7f81 a13e 791f 89bd 12df 193d 8ae5 76be
000002f0: 8242 5ebe b4a2 10be 7722 99bd ed54 153c
00000300: de77 61bd 2f49 afbd 260e b9bd 0315 833d
00000310: 7724 75be 64a4 72be 86b6 20be 11df d6bd
00000320: d4e4 2d3f 8374 2e3e a46b 7fbe 15e8 6bbe
00000330: 339e 03be 98fc cf3b f7f6 a4be 9a5a 32be
00000340: a7ee e1bd 4290 213f 5962 363e c875 003f
00000350: 7557 01be 7142 883e 3e46 b33e fa73 f7bc
00000360: 74e3 ee3d 4811 22be 41f1 2ebe 3691 69be
00000370: f94e e3bd 75d5 77be e966 58be 53ca 7dbe
00000380: c65b 8d3e 8263 34be 9e1a 54be 1c41 edbd
00000390: 9c19 83be a160 96be 81a5 c7be 88c7 2abe
000003a0: 21ac cf3e 4ff2 853e 0f92 68bc 0958 87bd
000003b0: 18ad 5f3e 36b5 fabd 8ca2 1a3d 9229 0a3f
000003c0: 7e88 f2bd 649d b6bc 67b6 3bbe 1b4c 513e
000003d0: 18ed 79bd 41aa d7be 05b0 f43d b38a 87be
000003e0: d816 1ebe aa6e a13e 75e5 f63e 9499 04be
000003f0: ed8c 85be 2ed6 98bd 583f a53d 30d8 5bbc
0.11931494 -0.44033659 -0.2699616 0.48704767 0.038157232 -0.113595136 -0.03302723 0.2962769
-0.048758462 0.44858724 -0.03464125 -0.072133325 -0.23592666 -0.21462701 -0.23405142 0.09703157
-0.04827338 -0.013514054 -0.09724894 -0.16849057 0.34249458 0.34061667 -0.01568612 0.2322136
0.0077064936 0.06667231 0.10998739 -0.06106027 -0.1822114 0.24293911 0.37521452 -0.13456129
0.32175094 -0.1093255 -0.04245358 -0.12724535 0.22974323 0.24898076 -0.2483999 0.2501783
0.5316298 0.18326792 -0.18761298 0.43390352 -0.21737036 0.09041033 0.3242532 -0.3270879
-0.05712847 0.3557046 -0.36495748 0.33582136 0.14103203 -0.181833 -0.12241916 0.15669096
0.3248591 -0.16724502 -0.17815001 -0.024011306 -0.20217766 -0.33462775 -0.1526739 -0.026350895
-0.11100938 0.069855735 0.48149985 -0.28742027 0.09783988 -0.023571542 0.07347108 -0.08646144
-0.3271464 0.5706099 0.15217851 0.32582897 -0.022987893 0.3446755 -0.043912098 -0.09794587
0.039786655 -0.22722507 -0.2829368 0.03601502 0.14761512 0.36506084 -0.30098215 -0.2041032
-0.25223523 0.19603258 -0.07182328 -0.16909097 0.2594539 -0.17497411 0.36450574 -0.16068435
0.3375403 -0.16919042 -0.1569179 0.17298716 -0.04928484 -0.32777047 -0.105242684 -0.07135463
-0.045927484 0.6521851 -0.10005436 0.020403452 -0.08869681 -0.17123371 -0.06598519 -0.04778601
-0.08231475 -0.25680572 0.019912574 -0.19537416 0.099474594 0.23147503 0.032291327 0.051239893
0.46409595 -0.10298228 0.03165748 0.17628951 0.580877 0.49403077 0.2259075 -0.25856316
-0.104725964 -0.14949164 -0.09988707 -0.16523719 -0.07126584 -0.31251603 -0.10742363 -0.11738817
-0.16923945 -0.1489537 -0.15701187 -0.08685092 -0.035230204 0.1840842 -0.16351421 -0.19141072
-0.20359068 0.26000643 0.23935466 0.32133177 0.08294153 -0.26407108 0.23240826 -0.10951157
-0.15249568 0.19686931 -0.07582606 0.5254334 -0.07912858 -0.29297894 0.7028922 -0.066086456
-0.14577393 -0.1859684 -0.2426555 -0.09108612 0.06386254 -0.112890914 -0.16362435 0.26511002
-0.26439095 0.4356238 0.34893423 0.2408329 0.49741825 0.16054115 -0.1232086 -0.24190286
-0.03461335 -0.22538915 -0.16969499 0.026332835 -0.16342428 0.16186264 -0.081633195 -0.18559188
0.3154411 -0.06695456 0.037566252 -0.24111 -0.21705058 -0.14124566 -0.07477277 0.009114486
-0.055045955 -0.085588805 -0.09035902 0.06400492 -0.23939691 -0.23695523 -0.15694627 -0.10491765
0.6792729 0.17036633 -0.24943405 -0.23037751 -0.12853317 0.00634725 -0.3221967 -0.17417374
-0.110318474 0.63110745 0.17810954 0.5017972 -0.12631018 0.2661319 0.35014528 -0.03020667
0.11664477 -0.15826905 -0.17084219 -0.228093 -0.11099047 -0.24202521 -0.21133007 -0.24784212
0.2760908 -0.17616084 -0.20713279 -0.11584684 -0.25605476 -0.29370597 -0.38993457 -0.16677678
0.4056101 0.2616143 -0.014194979 -0.06608588 0.21843374 -0.122415945 0.037752673 0.5396968
-0.1184244 -0.022291847 -0.183313 0.20439188 -0.061017126 -0.4212208 0.119476356 -0.26473007
-0.15438402 0.31529742 0.48221937 -0.1294921 -0.2608408 -0.074627265 0.080687225 -0.013418242

7.bias f4 [10]
00000000: 611b 76be 8d4d 77be 1906 1abe a163 3d3b
00000010: cf03 183f f1f9 743c e801 b83d ef73 9cbd
00000020: f18d 9fbc fa2b da3c
-0.24033882 -0.24150677 -0.15041389 0.0028898495 0.5938081 0.014952169 0.089847386 -0.076393
-0.019476863 0.026632298
