models/more_models/CIFAR/more_small2_1.pth (torch, 862159 bytes, 8 tensors)

0.weight f4 [16, 3, 4, 4]
00000000: e992 d3bd 1cb4 363b 747c 173e 8e72 543c
00000010: 7568 a5be 0aba 6fb8 3c1f af3e f532 983c
00000020: a3de a0be 6694 05bb e5f3 7a3e 6a26 733d
00000030: f703 99bd 53ca 99bb de27 483d 365d b13b
00000040: c187 efbd 2d75 963b 4ce4 f43d 8e66 633c
00000050: e117 b5be a802 103b ced3 9b3e 27cf 113d
00000060: 4799 9cbe 99b9 80bb bb4d 4c3e f195 f33c
00000070: b462 9bbd 1113 0bbc 9193 033d 3065 323c
00000080: c118 babd 3f6b 8b3b cd91 cd3d c4b4 253c
00000090: 25a8 b1be d8fa 3b3b a914 c53e 58bd 0a3d
000000a0: 25de 69be c7a2 ec3a c161 443e ea56 9e3c
000000b0: 721c 54bd 4309 af3a 26a9 b63c d3d6 0f3c
000000c0: 0e80 c43d 4ab5 a53e 688e 803e 2f8c 4c3e
000000d0: f4b9 313e 797d aa3e afc3 c03e dad4 443e
000000e0: ac9b b53d d8d2 993e f514 553e d51b 293e
000000f0: 430f 2d3c 95e2 283d 38ac 403d 797a c53c
00000100: f739 8bbd 957f 2dbe 0204 d5bd 1545 fdbd
00000110: ec08 02be 9691 4bbe e764 55be 7f72 08be
00000120: 0261 a1bd f2a8 5ebe dc56 24be e9b6 0cbe
00000130: 695c 9fbc 172d 5cbd a26c 8fbd 1a39 6cbc
00000140: e152 8ebc e962 8ebd ae70 2abd e6ad 48bc
00000150: bd46 1fbd af08 0ebe ddad 2abe ab91 5bbd
00000160: 06b6 39bc bb42 06be f508 c2bd 215e 4fbd
00000170: 91bf 643b ef8d 06bc fdf9 75ba e674 fcbb
00000180: f915 123e 44bd c93e 42e6 133e 8bc2 8e3c
00000190: e3d7 403e 88e6 413e 393a 643c ab65 ccbd
000001a0: 4db7 333d 9390 b4bb 3ba1 3dbe 1860 d0be
000001b0: cd08 aab9 a2bd 43bd 8bce 41be 12d6 01be
000001c0: 7e2d e13d 4c9d 973e 7036 e33d 0871 c539
000001d0: f55b 1a3e f4b3 1f3e 5981 18bc 5c61 ccbd
000001e0: 3963 c73c 4626 d8ba 8eac 37be f252 cbbe
000001f0: 69d4 473b 97e9 37bd 13b8 3ebe e035 03be
00000200: c4f9 cf3d 4a13 aa3e ebe4 d43d 8874 23bb
00000210: 61c5 4f3e 542a 413e e272 38bb 2973 bdbd
00000220: 397d 6b3c 2284 31bb beb7 03be 96dc 88be
00000230: fa1c 4338 4a1c 88bd 0855 26be 10e5 b1bd
00000240: cdd1 913c b65e 973d 16c8 223d b715 753c
00000250: 2e9f 133d 893f 813d 21a1 8b3d 69b3 103d
00000260: e176 173d eff1 153e ac46 ed3d c3cf c33d
00000270: db3f a03c fac0 4d3d c1ea 813d db04 023d
00000280: bd6f ab3c 11b1 a23d 1e6c 0e3d 5713 343c
00000290: da5d 813d 4197 c43d 9b5c c43d bf93 0b3d
000002a0: 8b20 753d 442d 1a3e b61f d23d 3d9f b03d
000002b0: 916b 413c caa2 443d e9ef 663d e4a4 e13c
000002c0: 4aa0 9a3d a889 663e afde 013e 36db a73d
000002d0: 75e9 653e 5f6b dc3e b592 ca3e e68f 6b3e
000002e0: a020 253e ca60 e33e be22 a33e 9f01 933e
000002f0: 4ba2 a33d 12b5 3c3e 0687 473e e615 003e
00000300: 2d19 f5bd 9961 d8be 8f2e adbe 5aea 72be
00000310: f992 9339 6760 93ba 390d 9abb e8c9 d0bb
00000320: e3f3 353e 0f0d de3e 1f5e 6e3e 3197 0d3e
00000330: 0ea6 c53b b37c 513d ac18 583d 2389 9f3c
00000340: fdb5 8bbd f450 99be 2f6f 68be 5111 1abe
00000350: 6d0f d13a a2ca d53a eeb3 333a 168b 4b3a
00000360: f2fb dd3d 002f 983e 8505 1c3e d283 983d
00000370: 2164 3d3b e9f6 c93c 3255 8b3c b4b0 3c3c
00000380: fdb2 04bd 994b 7bbe 2ce4 2fbe cfd7 c4bd
00000390: 910e d538 bfca 283b 25f9 593b b50e 79bb
000003a0: 0dfa c93d 1cc6 a83e 0b8c 1e3e 762d 993d
000003b0: 3fed 7ebb a936 e03a 520a 603b 336c 563c
000003c0: 7adc 7c3d 79ef 0d3e f494 8f3d 8963 5b3d
000003d0: 5838 d93d 7732 133e 5e80 e73d 8f0a 8d3d
000003e0: a320 b43d d91f 5c3e 6060 1c3e 2a6f 1b3e
000003f0: fee1 6b3d 1dd2 9f3d ea7e b23d 9215 1a3d
-0.10330755 0.002787835 0.14793569 0.012966765 -0.32306257 -5.7155303e-05 0.34203517 0.018578986
-0.31419858 -0.0020382642 0.24507101 0.059362806 -0.07471459 -0.0046933084 0.048866145 0.005412723
-0.11695815 0.004591605 0.11957607 0.013879431 -0.3536978 0.002197424 0.30435032 0.035597946
-0.3058569 -0.003928375 0.19951527 0.029734584 -0.075871855 -0.0084884325 0.032123152 0.010888383
-0.09086753 0.004254728 0.10037575 0.010113899 -0.34698597 0.002868345 0.38492325 0.03387198
-0.22838648 0.0018053883 0.19177915 0.019328553 -0.05178494 0.0013354201 0.022297453 0.008779245
0.09594737 0.32364875 0.25108647 0.19975351 0.17356092 0.33298853 0.37649295 0.19221821
0.08867583 0.30043674 0.20808776 0.16514523 0.010562721 0.04123171 0.04703924 0.024106251
-0.06798165 -0.169432 -0.10401155 -0.12366692 -0.12698716 -0.19879755 -0.20839272 -0.13324927
-0.07879831 -0.21744135 -0.16048759 -0.1374165 -0.019453244 -0.05375394 -0.07003142 -0.014417911
-0.017373504 -0.06952459 -0.041611366 -0.012248492 -0.03888582 -0.138705 -0.16667886 -0.053605717
-0.011334902 -0.13111393 -0.09474365 -0.050626878 0.0034904222 -0.008212551 -0.00093832595 -0.007704365
0.14266194 0.3940221 0.14443305 0.01742675 0.18832354 0.18935597 0.013929897 -0.09980329
0.04387598 -0.0055103987 -0.18518536 -0.40698314 -0.00032431484 -0.04778827 -0.18926446 -0.12679318
0.10995005 0.29612195 0.110943675 0.00037658983 0.15074141 0.1559599 -0.009308183 -0.09979507
0.024339305 -0.0016490899 -0.17936918 -0.3971172 0.0030491597 -0.044900503 -0.18624906 -0.1281352
0.10155061 0.3321784 0.10395225 -0.0024941284 0.20290138 0.18863803 -0.0028144647 -0.09250481
0.014373117 -0.0027086814 -0.12863061 -0.26730794 4.651861e-05 -0.06646021 -0.16243374 -0.08686268
0.017800236 0.073911116 0.039741598 0.0149587905 0.036040477 0.063109465 0.06817842 0.03532735
0.036978606 0.14643072 0.11585745 0.09561112 0.019561699 0.050232865 0.06343604 0.03174291
0.020927304 0.07943929 0.034771077 0.010990939 0.06316729 0.09599162 0.095879756 0.03407645
0.05984549 0.1505633 0.10259955 0.08624122 0.011805431 0.04800681 0.05638114 0.027544446
0.07550104 0.22513449 0.12682603 0.08196108 0.22452338 0.43050668 0.39565054 0.23004112
0.16125727 0.44409782 0.31862444 0.28712174 0.07989939 0.18428448 0.19485101 0.12508354
-0.119676925 -0.4226196 -0.33824584 -0.2372221 0.00028147528 -0.001124394 -0.0047012833 -0.0063717254
0.17768817 0.43369338 0.23278092 0.13827206 0.006031758 0.051144313 0.052757904 0.019474572
-0.06821821 -0.29944575 -0.22698663 -0.15045668 0.0015950032 0.0016311 0.000685512 0.0007764561
0.108390704 0.29723358 0.1523648 0.07447018 0.0028898793 0.024653869 0.017008398 0.011516739
-0.03239726 -0.24540557 -0.17176884 -0.09611475 0.00010159345 0.0025755612 0.0033260074 -0.003800315
0.098621465 0.32963645 0.1548311 0.07479374 -0.0038898734 0.0017106134 0.003418584 0.01308732
0.0617337 0.13860883 0.070108324 0.05356172 0.1060645 0.1437472 0.11303781 0.068867795
0.087952875 0.21496524 0.15271139 0.15179124 0.05758857 0.07803748 0.08715613 0.037618227

0.bias f4 [16]
00000000: 5041 13bf 34d3 c1be 19a5 3fbf f984 90bf
00000010: 83fa 44bf 89c3 9e3f e393 3cbf e9af 50bf
00000020: 53c7 31bf edf6 4bbf 4cfb 3ebf 8d49 1fbf
00000030: c6bc 3d3f 5d33 84be 2e5a e13e 8a89 31bf
-0.57521534 -0.37856448 -0.74861294 -1.129058 -0.7694475 1.2403423 -0.7366316 -0.8151842
-0.6944477 -0.79673654 -0.746022 -0.62221605 0.7411617 -0.25820437 0.44014114 -0.6935049

2.weight f4 [32, 16, 4, 4]
00000000: 3ee2 8f3c 9ca5 653d 9734 b43d 4f5c 963d
00000010: ab99 c53c 37ae e03d bde9 a13d 709d e43b
00000020: c58d 8d3c 8170 2e3c 415f 34bd 877e 0fbd
00000030: 396f 723c 82a4 463b e4df 0bbd 9267 edbb
00000040: 9073 feba aa05 85bc 0300 86bc ed95 a1bc
00000050: f6ec afba 296a 73bc 9606 03bc 4805 aabc
00000060: 4f4c 243b 3afd 28bc ab55 8dbc eeff 7fbc
00000070: 0f70 a33b be96 92bb 4cc7 5bbc 0a68 54bc
00000080: 0907 f73d beda e73c 214c c13c 4baf 903b
00000090: b937 e13c 2fc5 083a 8745 5db8 a1a3 01bc
000000a0: 68cf 33bd e845 4cbb bdea a2bc 8a64 2abb
000000b0: dbee 7dbc 8c42 2d3c 958d 0c3c 2d93 de3b
000000c0: dacb dabd 445f 54bd 18ba 78bd 12ef 173c
000000d0: 5b8f c5be 85c2 d4bd 92e4 d23b 23ee 8e3d
000000e0: d621 1ebd 563d aa3d b41e 283e bcc9 e63d
000000f0: c162 863c f654 7c3d ba28 9b3d db68 c73c
00000100: a8f1 ebbc 45e9 d8bc c2af 4e3a b289 783b
00000110: 243b a03d b28b ed3d d7a4 b23d 531f 543d
00000120: e551 453e 047a e13d 6e27 0b3c f706 b3bb
00000130: 8067 b33c 7acc 61bd 256f 29bd a89e 8abc
00000140: 8731 15be 7915 cebd cfb7 5ebd 1de4 bbbb
00000150: 8d18 d3be b300 0ebe cd2b 74bd 932b fd3a
00000160: 2f47 a3bd e9bd 313d 2090 aa3d 10f4 873d
00000170: 2651 263b 20f2 1c3d b991 ef3c 2a2c d5bc
00000180: 4936 58bc 98ef 233d 2477 b73d 3696 a13d
00000190: 5732 553e 0bff 2d3e 6ba4 a83d ce1e 153c
000001a0: 008f 083d 4898 ddbc fce7 85bd 61d3 22bc
000001b0: 329f 2dbc 0edc d9bc 062e 6abc 4a45 6cbc
000001c0: d5ca 323d 7690 383d 61f6 463d da0e 973c
000001d0: 43b2 8d3d e233 c13c ce8b 0eba 2005 9abb
000001e0: 4930 333c 3ea5 b03b d631 903b 245c a33b
000001f0: 548c 813b 0bd3 2e3c 9ec2 8e3c a0b5 bb3c
00000200: e5d5 d13d 5b80 8e3d a2d1 433d 96c7 783c
00000210: d2ce 833d 9f28 993b 56a6 b53b 18f0 273c
00000220: 52a5 61bd a720 49bd 9487 77bc f6f5 1f3c
00000230: 7439 d8bc cfc7 54bc 1072 803c 4f57 09bb
00000240: 3797 ba3d 2b10 1e3d e3cc ff3b bf02 6ebc
00000250: 7066 c1bb 3884 003d f7a9 04bb 6b35 21bc
00000260: 71f1 25bc 5c55 893b 8ad7 0b3d d8b2 113d
00000270: 54d9 db3a d81a 7c3c a364 4f3c e64c 4e3c
00000280: e525 8dbc 80ee 903c 0e85 fe3d 50fe 063e
00000290: 7e17 ed3d 6dec cc3d fb4e e53d 5e74 333d
000002a0: cccb 0c3e c8ba 833d 42e3 41bc 8cfe e6bc
000002b0: c221 853c 5acc 80bc 840c 05bd 9a8f 85bc
000002c0: 4650 8f3d b0eb 6a3d 4657 d63c 1338 8e3c
000002d0: 18fb 823d 3518 b33c 51c0 90bc 97e3 bf3b
000002e0: ea9f 63bc 0f5f 23bd 2ba1 77bd 0700 85bc
000002f0: d69e 64bc d734 e4bc bb16 1fbd 2418 37bc
00000300: e4be ad3c 68b0 b1bc 49d9 2b3c b8e5 e6ba
00000310: e6c7 0dbe 5379 f4bc 92b7 daba c212 16bd
00000320: a0ce 283c 5e39 e6bb e6b5 34bb 48ae 09bd
00000330: 0fa8 84bb 17e9 bdbc b5a3 04bd e89c 41bd
00000340: 5a2e f4bb 1edc 18bc c121 3dbc 6c6e bdbc
00000350: ea5d 68bc 6a2b c4bc 7bbd d7bc 3c8b edbc
00000360: 8629 cdbb 388f 93bc 0eef d9bc 59a3 e6bc
00000370: 5026 c5bb e5c8 61bc 4c8c 3ebc 3d04 66bc
00000380: a0e5 643c ca9d 5dbd d56d 11be 8ee7 0fbe
00000390: 1df9 d9bd b562 61be 8c1f 41be 9cc6 16be
000003a0: 46b1 efbd 4317 afbd 6712 dfbc 25fe 80bd
000003b0: ad9a dcbd 677f babd 8879 57bd 9694 93bd
000003c0: 93e3 483d b99e b73d 43e9 8a3d 4caf 893d
000003d0: b5e5 c93d 2d0e 633d 2a7f 8c3b e986 82bc
000003e0: 74b0 143d 127d 85bd 0623 93bd c494 15bd
000003f0: e1ed 6a3c 7793 2bbd 81ed 41bc e59d 4bbb
0.017563935 0.05606614 0.08799093 0.07341825 0.024121126 0.10970729 0.0790591 0.006976776
0.017279515 0.01064694 -0.044036154 -0.035032775 0.014797025 0.0030310457 -0.034149066 -0.0072450126
-0.0019413102 -0.016238052 -0.016357427 -0.01972481 -0.001342206 -0.0148568535 -0.007997176 -0.020754471
0.0025069898 -0.01031428 -0.017252764 -0.015624983 0.0049877237 -0.0044735363 -0.013414215 -0.012964258
0.12061889 0.028302547 0.023595871 0.004415428 0.027492391 0.0005217371 -5.275526e-05 -0.007912547
-0.04389897 -0.0031169597 -0.019887323 -0.0025999867 -0.015498842 0.010574948 0.008578678 0.006792447
-0.10683413 -0.051848665 -0.060724348 0.009273307 -0.38585934 -0.10388664 0.006435939 0.06979015
-0.038606487 0.0831248 0.16417962 0.112689465 0.016404511 0.061604463 0.07576127 0.024341991
-0.028801754 -0.02647842 0.00078844663 0.003792387 0.0782378 0.115989104 0.08722847 0.051787686
0.19269522 0.11009601 0.0084932875 -0.0054634768 0.021899939 -0.055126645 -0.04136576 -0.016921356
-0.14569674 -0.10062689 -0.054374512 -0.0057339803 -0.41229668 -0.13867454 -0.059612084 0.0019315354
-0.079725616 0.043394003 0.08328271 0.06638348 0.0025377958 0.038316846 0.02924429 -0.026022036
-0.013196536 0.040023416 0.08958271 0.078899786 0.20819984 0.16991822 0.08234485 0.009101583
0.0333395 -0.027050152 -0.06538388 -0.009938092 -0.010597037 -0.026594188 -0.014293199 -0.014420817
0.043650467 0.045059644 0.04857481 0.018439699 0.06918766 0.02358431 -0.00054377026 -0.004700318
0.010936805 0.005390792 0.004400472 0.0049853493 0.003953496 0.010670434 0.017426785 0.022913754
0.10245875 0.069580756 0.047807343 0.015184304 0.06435932 0.004674032 0.0055435104 0.010250114
-0.055089302 -0.049103405 -0.015108008 0.0097632315 -0.026394583 -0.012987091 0.01567939 -0.002095658
0.09110873 0.038589638 0.007806407 -0.014527022 -0.005902104 0.031376094 -0.0020242909 -0.009839396
-0.010128365 0.004191084 0.0341411 0.03557095 0.0016773143 0.015387259 0.012658271 0.012591576
-0.017229984 0.01769185 0.12427722 0.1318295 0.115767464 0.10006032 0.11196705 0.04381215
0.13749617 0.0643211 -0.011833968 -0.02819755 0.016251449 -0.015722442 -0.03248264 -0.016303826
0.06997733 0.057353675 0.026164662 0.017360723 0.063955486 0.021862129 -0.017669829 0.0058559882
-0.013893107 -0.039885577 -0.060456436 -0.016235365 -0.013953885 -0.027857227 -0.038840037 -0.011175189
0.021209188 -0.021690562 0.010488817 -0.0017616069 -0.13845786 -0.029843008 -0.0016686788 -0.036638983
0.0103031695 -0.0070258817 -0.002757424 -0.033613473 -0.0040483545 -0.023182435 -0.032382686 -0.047268778
-0.0074518146 -0.009329824 -0.011543692 -0.023123942 -0.014182547 -0.023946483 -0.026335469 -0.028997056
-0.0062610535 -0.018012628 -0.026603248 -0.028154062 -0.00601653 -0.013780807 -0.011630129 -0.014039096
0.0139707625 -0.054105558 -0.14202054 -0.14053175 -0.10643218 -0.2201031 -0.1885969 -0.14724201
-0.11703734 -0.08549359 -0.027230455 -0.06298474 -0.107716896 -0.09106331 -0.052606136 -0.07206075
0.049045157 0.08965821 0.067827724 0.06722888 0.09858266 0.05543344 0.00428762 -0.01593347
0.03630109 -0.06517996 -0.071844146 -0.036518827 0.014338941 -0.04188868 -0.0118364105 -0.0031069454

2.bias f4 [32]
00000000: fd58 8bbe ed4a cf3b 3ace 90be 2da9 c3be
00000010: a48a 83be 7c1e 63be 1d0f 803f 5ca1 aabd
00000020: a453 76be 7cf0 89be e8c1 79be 4851 593f
00000030: cf4c 96be e0e6 7fbe 80b7 06bb 26a6 de3f
00000040: eaba db3e e9b1 f03c ca94 b9be c327 8a3d
00000050: c10d 20bc 2d31 78be af73 54be 8335 a33f
00000060: e696 44be 1a82 b9be 42d1 f3bd 32c4 94be
00000070: 9bc2 70be baf0 f1be 6dd9 99be 19f0 86be
-0.2721633 0.0063260705 -0.28282338 -0.38215008 -0.25691712 -0.22179598 1.0004612 -0.08331558
-0.24055344 -0.26941288 -0.24390376 0.8488965 -0.29355475 -0.24990416 -0.0020556152 1.7394454
0.42916042 0.02938171 -0.3624633 0.06745865 -0.009768904 -0.24237509 -0.20747255 1.2750705
-0.19198188 -0.36232072 -0.11905147 -0.29055935 -0.23511736 -0.47253972 -0.30048695 -0.26355055

5.weight f4 [100, 2048]
00000000: d18f 1cbd bdf6 05bc 9a3d a83c a144 133d
00000010: c6bb fdbb 7c1e ba3c 746d ed3c 3e2b cd3b
00000020: 4aca 1cbd ae8c a13b c64b 39bb 3e2f 88b9
00000030: b135 8e3a 50da 0e3c 4979 1e3d 53b0 bf3c
00000040: b590 a9bc 0ea9 cd3c 3c09 a63b a6de b83c
00000050: 5568 a8bc 7429 073d fd07 273d 40ac 4e3c
00000060: f5a7 ffbc 8b1b 06bb a9dd 77bc 518e 953c
00000070: 2e72 47bd 0fe4 0e3d 468c 953c 39c2 ec3a
00000080: b45b 92bb edcc b83b 1f2a fe3b 30de 57bc
00000090: d607 833d 39ba 31bd d8fc cbbc b129 2dbc
000000a0: 3a10 fbbc dddb 2038 3e66 3e3d c292 8f3c
000000b0: 2225 893a afc8 cb3a e0f5 d2bc 8a0d 26bc
000000c0: 2954 7f3b 7b58 af3b c2f4 4b3b 3c38 0b3c
000000d0: 9db0 babb 04c4 3ebb 9936 25bd c132 23bc
000000e0: a4f5 143b 3473 a13c 4452 5d3c 52fd 353b
000000f0: 5300 2cbc 870f d3bc 6118 cdbc f534 5bbb
00000100: dded 84bb 90c4 08bb 9d1c 05bb ca7e f0ba
00000110: 6bbc 483b 9597 87bb 7aaf acba dc19 a03b
00000120: ecdb b9bb ba1f 783b ab15 0ebc 08ff c63b
00000130: 6bf3 dc3b 0474 ff3a 8c2a af3c 29fa 823c
00000140: a411 95bb fc6a 7a3b de06 c83b a058 083c
00000150: 1731 383b 836b 67bb 47c8 953c 8d7a b3bb
00000160: ccad e7ba a55d 8cbc 1c85 7ebb 74b3 103c
00000170: 45c9 23bc 2991 3b3c 5989 623b 1997 013c
00000180: 57c7 79bb 2480 68bc 7485 2fbc 6d55 073c
00000190: e912 b1bb 7170 553b 5e81 af3a ca58 78ba
000001a0: b848 36bc d6f1 99bc 354b 033b 090d fe3b
000001b0: bba8 ef3b 1e78 cc3c bff7 b23a 2389 87bc
000001c0: af82 03bb b705 a339 a6cb 843c d9e8 a23a
000001d0: 23f0 243b b529 3b3a 5567 41bb d2bd 5ebc
000001e0: e043 b93b 9e86 963b e503 003d ec8f 4a3c
000001f0: 28ef 2f3c e640 f439 bfb4 23bb f8fe d6bb
00000200: 70ba 8d3c 600c ddbc df91 81bb 612d 35bc
00000210: 4a24 293c 7db4 dcbb 7048 943d 2462 953c
00000220: 6cce 08bd e0ee 1cbd 661e b7bc 25e9 b1bb
00000230: 918e 953a f474 e2bc 8c72 263d 463e 123d
00000240: 9c7e a2bc 9f93 35bc b72b 60bc 5a58 be3c
00000250: 1148 bebc 4116 b13c 6992 5f3c e241 a1bb
00000260: 9216 fdba c91c 12bd a963 deba 4f1a 123c
00000270: 48b0 913c f4cd 863c 4771 b53c 0810 0abb
00000280: 88b9 113c 3519 66bb c984 b5bc ae46 3b3a
00000290: 1141 d33d 8d98 763c 80ba 193c aa7b 1abc
000002a0: 8691 c63c fad5 143d b841 aab9 4647 d6bb
000002b0: f1c4 bcbc 5ef3 a0ba 3d92 433c 24f7 6c3c
000002c0: 0d14 61bb cd8d 913b caeb 93bc 6f90 0dbc
000002d0: b075 1e3c 3a56 9fbc 2e62 40bc b0ef 0e3c
000002e0: 7502 50bb 94c3 1c3d 6e93 3d3c b004 0bbb
000002f0: 5ac6 5b3c b15f eab9 6100 e3bb 0c70 c6bc
00000300: 6d75 653b 7b47 263d 4b22 33bc c415 55bd
00000310: 7a14 75bc bf6a 60bc b3fc fbbc fc80 dcba
00000320: 4117 c2bb b823 a63d bfb0 493c 9de4 debd
00000330: cf48 18b9 3161 7abc 5124 69bd 0c2c 833b
00000340: de2b b1bb bc6f 493d da47 44bc 966e 18bd
00000350: 15c4 7b3c 64f0 08bd 3444 b23c 5403 53bc
00000360: 8fc6 af3a 0c83 343c 55b7 26bd 87ff a2bc
00000370: 3de7 063d e568 6bbd 6a8e a5bc db1f db3c
00000380: a00f a13c ddf4 77bc 8a79 f9bb 3f1b ee38
00000390: 0724 363a 377b 27bd d6aa ddbc 6f5e c7bb
000003a0: 21fe 083d b30c e3ba f89b d53b 49de 9f3a
000003b0: 32e9 b2bc 9994 d93c 96ae 05b9 80da 0dbc
000003c0: 2882 85bb 9d99 623c fc84 02bd b4d6 a9bb
000003d0: 2c86 eebc feed d9bc 08e4 913a ea05 29bc
000003e0: 8e85 2ebc 1b95 283d 3f29 3fba 1a45 70bc
000003f0: e5e1 93bc d300 37bc 4de1 0e3d c736 843a
-0.03822309 -0.008176503 0.020537186 0.03595412 -0.0077433316 0.022719614 0.028982855 0.0062612584
-0.038278855 0.0049301004 -0.0028273924 -0.0002597514 0.0010849742 0.008719042 0.038689885 0.023399508
-0.020698885 0.025105026 0.005067019 0.022567105 -0.020557562 0.032998517 0.040779103 0.01261431
-0.031208018 -0.0020463194 -0.0151285315 0.018256338 -0.048692875 0.034885462 0.018255364 0.0018063254
-0.0044664983 0.0056396634 0.007756486 -0.013175532 0.06397979 -0.043390486 -0.024900839 -0.010569022
-0.030647386 3.8351736e-05 0.046484224 0.017526034 0.0010463337 0.0015547479 -0.025752008 -0.010135064
0.0038960075 0.005351124 0.0031121229 0.008497294 -0.0056973235 -0.0029108534 -0.04033527 -0.009960831
0.002272942 0.019708253 0.013508383 0.00277694 -0.010498124 -0.02576424 -0.025036039 -0.0033448313
-0.004056676 -0.0020869114 -0.0020311244 -0.0018348333 0.0030629884 -0.004137943 -0.0013174855 0.004885895
-0.0056719687 0.0037860707 -0.008672158 0.0060728826 0.006742885 0.0019489531 0.021382593 0.015988426
-0.004549222 0.003821074 0.0061043343 0.008321911 0.0028105432 -0.0035311885 0.018283976 -0.0054772557
-0.0017675697 -0.017134497 -0.0038836664 0.008831847 -0.009996717 0.011448183 0.003456673 0.00790956
-0.00381132 -0.014190707 -0.01071297 0.008260113 -0.0054038656 0.003256824 0.0013389995 -0.000947368
-0.011125736 -0.018792074 0.002003384 0.0077530188 0.0073138154 0.02495962 0.0013654156 -0.016544884
-0.0020066907 0.0003109404 0.016210388 0.0012429013 0.0025167547 0.0007139699 -0.0029511054 -0.013595061
0.0056538433 0.0045936843 0.031253714 0.012363415 0.010738172 0.0004658766 -0.002497956 -0.0065611564
0.017300814 -0.02698344 -0.003954157 -0.011058182 0.010323593 -0.006735383 0.07240379 0.018235274
-0.033399984 -0.038313746 -0.022353362 -0.0054294043 0.0011410286 -0.027643658 0.040636584 0.03570392
-0.019835763 -0.011082559 -0.013682297 0.023235489 -0.023227723 0.021617057 0.013645747 -0.004921184
-0.0019309095 -0.035671983 -0.0016966957 0.008917405 0.017784253 0.016455628 0.022148741 -0.0021066684
0.008894332 -0.003511024 -0.022158043 0.0007144016 0.10315145 0.015051019 0.009382844 -0.009428898
0.024239313 0.036336876 -0.0003247389 -0.006539258 -0.023043128 -0.001227956 0.011936721 0.01446322
-0.0034344227 0.004441953 -0.018056769 -0.008640393 0.009671614 -0.019450296 -0.011742158 0.008724138
-0.0031739746 0.038272455 0.0115707945 -0.002121251 0.01341399 -0.00044703254 -0.0069275354 -0.02422335
0.0035012618 0.040595513 -0.010933469 -0.05202271 -0.014958495 -0.013697325 -0.030760145 -0.0016823108
-0.0059231822 0.081122816 0.012310206 -0.10883448 -0.00014522973 -0.015281961 -0.0569194 0.0040030535
-0.0054068407 0.049178824 -0.011980021 -0.037214838 0.015366574 -0.03343238 0.021761037 -0.012879211
0.0013410616 0.011017572 -0.040702183 -0.019897236 0.03293537 -0.057473082 -0.02020951 0.026748588
0.01966077 -0.015134064 -0.0076133655 0.00011353799 0.00069481175 -0.04088899 -0.027059 -0.0060842554
0.03344548 -0.001732251 0.006518837 0.0012196983 -0.021839712 0.026560115 -0.00012748907 -0.0086580515
-0.0040743537 0.01383057 -0.031865105 -0.0051830653 -0.029116713 -0.026602741 0.0011130581 -0.010316351
-0.010651959 0.041157823 -0.0007292218 -0.014664913 -0.01805205 -0.01116963 0.034882832 0.0010087126

5.bias f4 [100]
00000000: f3df 4cbd e72e 703d afbe 6ebc a61c 6cbc
00000010: 1a7e 173c fd51 69bc fe73 42bd faf1 f1bb
00000020: fa7b 07bc ad2e cd3c 004c 72ba a224 80bc
00000030: 9f24 debc b1a1 fabb 9d8d 3e3d 47b7 4bbd
00000040: ef36 7db9 119c 013c 82b2 923d 0a6f 28bc
00000050: bb66 25bd 0a57 80bc 8354 62bb 710c a1bc
00000060: 0c70 80bd 901c 3cbd 1372 9e3d 9abb 44bd
00000070: df02 48bd 6bc8 3d3a 4919 94bc e7ea 17bd
00000080: 2997 c6bb 03f3 26bd c909 68bd cd72 953c
00000090: 590b 413d 7d90 6ebc 5a0e 7d3d 77d5 993c
000000a0: 2ce0 01bd 779e 1d3c 7fe6 fe3c bb4f 3fbd
000000b0: 607e cebc ed82 f2bc 19c5 3d3d 35ce c9bc
000000c0: afba ec3c e24d c93c 0614 603c 68ec 0ebd
000000d0: 785c 23bc bb97 1ebd 4026 363d 419f fabb
000000e0: b7c6 933b daca 2ebd 9121 bfbc 7d83 393e
000000f0: f7b9 66bc 3f70 57bc a5bc 9fbc b234 3abd
00000100: da23 28bd 79ab e4bc 3189 023e 39d2 c43b
00000110: 485c 033c 2f07 64bd 9300 23bd f62a 12bd
00000120: 1a3d 1b3c 6df7 c03d 75cd 38bd eec2 08bd
00000130: e595 293e c4c4 4dbd 8720 f33c 30f6 ee3c
00000140: 7c45 44bc 2dcb 093d 4c62 b93d b811 56bc
00000150: 6f50 5fbd 98a0 5d3d fb15 46bd f149 373d
00000160: 5df5 d6bc 5075 843d 87a6 3dbd c5f4 7cbd
00000170: fd16 c9bc f61b 02bd d524 3ebd c070 efbc
00000180: e0ee 49bc ac8e 1d3c 5ef9 e6bc 0c54 fd3d
-0.050018262 0.05863848 -0.01457183 -0.014411127 0.009246374 -0.014240739 -0.0474739 -0.007383582
-0.008269304 0.02504667 -0.0009242892 -0.015642468 -0.027117072 -0.0076486696 0.04652177 -0.049735334
-0.00024148425 0.007910744 0.07162954 -0.01028038 -0.040381175 -0.015666503 -0.0034535236 -0.019659253
-0.06271371 -0.045925677 0.07736602 -0.048030473 -0.048830863 0.00072396424 -0.018078463 -0.037089255
-0.0060605 -0.040759098 -0.056649957 0.018243218 0.047129963 -0.014560816 0.061781265 0.018778546
-0.031707928 0.0096203005 0.031115768 -0.046706896 -0.025206745 -0.029603446 0.046330545 -0.02463446
0.028897611 0.02457327 0.013676649 -0.034893423 -0.009970777 -0.03871892 0.04447007 -0.007648379
0.0045097726 -0.042673923 -0.023331435 0.18116565 -0.014082423 -0.01314932 -0.019499132 -0.04546041
-0.041049816 -0.027913796 0.12747647 0.006006506 0.008017607 -0.055670913 -0.03979547 -0.035685502
0.009475017 0.09422193 -0.045117814 -0.033389024 0.16561086 -0.05023648 0.029678596 0.029170126
-0.011979457 0.03364103 0.09051952 -0.013065748 -0.054520067 0.054108232 -0.048360806 0.04474825
-0.026240045 0.06467688 -0.04630139 -0.061756868 -0.024547094 -0.031764947 -0.046421845 -0.029228568
-0.012325019 0.009616535 -0.02819508 0.12369546

7.weight f4 [10, 100]
00000000: 0a33 973e b3b3 933d 1686 ddbd 78a0 e5bc
00000010: 02a2 eb3d 9544 cd3d f24d 0a3f ee2c 47bd
00000020: 4bc8 8abd d46c b13e a0ca 123d 0465 40bd
00000030: 0555 8dbd 1673 3fbc 7b38 e0bd 6529 4dbd
00000040: 7a7f 8abd 8a77 7ebd 4ebd 59bd 6e9f 8fbd
00000050: 5ee5 85bd 508c a3bd 18f8 10bd b43a 8cbd
00000060: 1121 513f da6f 4abd 8b23 cb3e 2a1a 95bd
00000070: 7628 acbd 2cc0 a9bd 2270 a33e 9d37 7bbd
00000080: 1ade 433e 3161 31be 703d b4bd 0302 86bd
00000090: 5451 b33d 02e8 87bd 12dd 8ebd 4b99 7a3e
000000a0: 43d8 e43e 8d7e 1b3e 2964 8bbd b8c3 3e3f
000000b0: 6a36 9bbd a0f6 ddbd 36e4 0a3e a653 a2bd
000000c0: da2b 37bd f5f2 c93e 2363 4bbd d474 76bd
000000d0: 317f 9fbd 8027 dabd 6bc8 e3bd 1f66 6fbd
000000e0: 5a4d 98bd 01b7 08be 0e54 a2bd 8ac1 18bd
000000f0: 5f21 413e 475b a0be 1dde 43bd c4ef 9abd
00000100: d35e 1cbe 7d95 99bd f22c 523e 0ae4 adbd
00000110: a095 23bd b644 b0bd acd7 c43b 30ec 9cbd
00000120: b0d1 99bd 0c29 783e 2657 c2bd 6493 83bd
00000130: 82d2 25bd fee9 35bc ed14 54bd 405c c73d
00000140: ea2b adbd 63b5 6ebd 8d37 c9be 4ef2 03bd
00000150: 5f75 debd a025 013f 8aa1 e9bd cb4a cfbd
00000160: 1579 0ebe 086d 4e3e 39aa afbd b954 acbd
00000170: 0f10 efbb eb7a a4bd c02d 6cbd 7ad2 63bd
00000180: 7523 243f 36c4 2dbc cb5e 3abd c30d 8cbd
00000190: 4bfb 93bd cb59 75be 400b dcbd b5d7 68bc
000001a0: 144e c63d f13d 553e c295 e6bd 4b93 b7bd
000001b0: 575f 6dbd 6122 f4bd b069 45bd bb1a 31bd
000001c0: 4682 91bd 22ed c0be 2d4b dc3b 121f 90bd
000001d0: 5484 f83d 9b0d 75bd 4582 4cbd ecf8 a5bd
000001e0: 1eef 86bd a6ea a1bd 78dd 15bd d490 1e3f
000001f0: a08e 07be cad8 e13e 1b9f 4ebd e057 95bd
00000200: 1cf7 a8bd 34d3 adbd 5641 97bd 370e c5bd
00000210: 8947 e8bd 5f4e 28be fd7d b0bd 6faa 82bd
00000220: d0e3 54be ce93 89bd 8877 8dbd a9b3 82bd
00000230: 05ef 99bc 4254 053e dc0a 89bd c2cd aabd
00000240: 9c7b 9abd 63f8 123f 8737 613e 1739 373f
00000250: 7e69 2cbd 8520 a5bd 659f 5abd ad20 71bd
00000260: bb50 97bd 12eb 0d3f 3e3f 24be dabd 0c3f
00000270: 4ed4 b7bd ec43 4bbe 7f36 363f 2e3e 36bd
00000280: e0a1 87be 47f8 eebc cf96 38bd c82b 83bd
00000290: f3bf 1bbe 7b56 9ebd 1fe6 f0bd d933 833e
000002a0: ace5 8fbd 329b 373f fe8a 94bd c802 a1bd
000002b0: c118 99bd 9653 0f3e 8c33 bfbd 6f2b 85bd
000002c0: 4f6e 47bd efb6 c1bd f965 56bd 32e1 70bc
000002d0: 74e1 e6bd d763 56bd 6d4a 49bd 7d17 02be
000002e0: 1fcd 9c3e 1e4e a7bd 69e6 e03d b681 d3bd
000002f0: 3ef3 10be 27b3 09be b165 afbd 2133 a9bd
00000300: 580d cebd 7431 6cbd 73e2 2cbe 4004 f53e
00000310: a8ac a1bd 256d 62be 141f 4cbd dbd3 95bd
00000320: 3b43 7cbd c1e2 d33d e057 debd c748 e5bc
00000330: 726c c2bd 4e95 b7bd 4bc7 733d 351a 46bd
00000340: 9d5a 9abd e098 22bd fbf0 e83d f54a 45bd
00000350: d62f 8dbd 45ac 8c3c b898 0e3c 0231 91bd
00000360: 4aee 3abd fe35 7cbd 5de6 4bbd 78b3 a3bd
00000370: c9ca 85bd ff65 a0bd a016 a5bc 7856 8ebd
00000380: 842a 9bbd 734a 46bd bed6 26bd 4c65 8bbd
00000390: 6b44 9cbd 7d57 b3bd d1d9 a4bd fd65 86bd
000003a0: 0692 a23e 2764 02be 8ac2 413f 1605 c0bd
000003b0: 9f16 403e 5d87 88bd bce4 6ebd d6f1 543e
000003c0: f61a c3bb 34f1 35bc fc66 8bbd f4c9 a9bd
000003d0: eeb1 9cbd 4a5f debd fef5 b1bd 1f00 a3bd
000003e0: 2e1a 09bd bbac 683e f6a3 47bd b7dc 7fbd
000003f0: e7d9 023f 403e d6bd 0826 283d 8412 7abd
0.29531127 0.07212009 -0.108165905 -0.028030619 0.1150551 0.100228466 0.54025185 -0.048626833
-0.06776484 0.34653342 0.03583777 -0.046971336 -0.06900982 -0.0116851535 -0.10948273 -0.050088305
-0.067625955 -0.06212572 -0.05315905 -0.07012831 -0.06537889 -0.07985747 -0.03539285 -0.06847134
0.8169108 -0.049423076 0.39675555 -0.07280381 -0.08406155 -0.08288607 0.31921488 -0.061332334
0.19127694 -0.17322232 -0.08800781 -0.065433525 0.087557465 -0.06636049 -0.069757596 0.24472539
0.44696245 0.15184994 -0.068062134 0.74517393 -0.07578738 -0.108380556 0.13563618 -0.07926111
-0.044719554 0.39443174 -0.04965509 -0.06017001 -0.07787932 -0.10652065 -0.11122211 -0.058447
-0.07436629 -0.1335106 -0.079261884 -0.03729395 0.18860386 -0.3131964 -0.047819246 -0.07565263
-0.15270548 -0.07499216 0.20524958 -0.084907606 -0.039937615 -0.086068556 0.0060071554 -0.07662237
-0.07510698 0.24234408 -0.094892785 -0.06424597 -0.04048396 -0.011103151 -0.05177777 0.09734392
-0.084556416 -0.058278453 -0.39300194 -0.0322135 -0.108622305 0.50448036 -0.11407764 -0.101216875
-0.13913377 0.2015878 -0.08577389 -0.08414597 -0.0072956155 -0.08031257 -0.057660818 -0.055620648
0.64116603 -0.010605862 -0.045500558 -0.06838562 -0.07225665 -0.23960035 -0.10744333 -0.014211585
0.09682861 0.2082441 -0.11259033 -0.08963641 -0.05795225 -0.1192062 -0.048196495 -0.043238383
-0.07104926 -0.37680918 0.006722829 -0.07037176 0.121346146 -0.05982743 -0.049928922 -0.08104119
-0.06588577 -0.07906084 -0.036588162 0.6193974 -0.13238001 0.4411071 -0.050444704 -0.072921515
-0.082502574 -0.084875494 -0.07385509 -0.09621852 -0.11341769 -0.16436146 -0.0861778 -0.06380164
-0.20790029 -0.06717645 -0.069075644 -0.06381924 -0.018790731 0.13020423 -0.066915244 -0.083400264
-0.07543108 0.5741026 0.21993838 0.7157149 -0.042092793 -0.08062843 -0.053374667 -0.058869053
-0.07388445 0.55436814 -0.1603975 0.5497719 -0.08976041 -0.19850129 0.71176904 -0.044492893
-0.26490688 -0.029171122 -0.045065697 -0.06404835 -0.15209942 -0.077313386 -0.11762642 0.25625494
-0.07026228 0.71721184 -0.07253073 -0.078618586 -0.074754246 0.13996729 -0.09336004 -0.06502425
-0.048689183 -0.0945872 -0.052343342 -0.014702128 -0.112734705 -0.05234131 -0.049143244 -0.12704273
0.30625245 -0.081691965 0.10981447 -0.10327475 -0.1415529 -0.13447247 -0.08564318 -0.08261705
-0.10061139 -0.05766435 -0.16883259 0.47854805 -0.0789426 -0.22111948 -0.049834326 -0.07315799
-0.061587553 0.10345984 -0.108566046 -0.027988805 -0.094933406 -0.089640245 0.059516232 -0.048364837
-0.07536814 -0.039696574 0.113740884 -0.048167188 -0.068938896 0.017171988 0.008703403 -0.070894256
-0.045637406 -0.06157493 -0.04978024 -0.07993215 -0.06532819 -0.07831954 -0.02015239 -0.06950086
-0.075764686 -0.048410844 -0.040732138 -0.0680643 -0.07630237 -0.087569214 -0.08049358 -0.065624215
0.31752032 -0.12733518 0.7568747 -0.0937597 0.1875863 -0.066664435 -0.058323607 0.20795378
-0.0059541417 -0.011104871 -0.06806752 -0.082904726 -0.07651125 -0.10858019 -0.086894974 -0.079590075
-0.033472233 0.22722141 -0.04874035 -0.06246635 0.5111374 -0.10461092 0.041051894 -0.061052814

7.bias f4 [10]
00000000: b1e8 c6bc 967b aabe 9e74 d6bd e0ac 8c3e
00000010: c071 acbc 2e05 a73d 4437 8b3b 6fda 67bd
00000020: bd40 003d 534d 173e
-0.024280878 -0.33297414 -0.10471462 0.27475643 -0.021050334 0.08155285 0.0042485315 -0.0566048
0.03131174 0.1477559
