models/more_models/CIFAR/more_small8_1.pth (torch, 862159 bytes, 8 tensors)

0.weight f4 [16, 3, 4, 4]
0	0x3775bd95	1.46472785e-05
1	0x375353b2	1.2596067e-05
2	0xb762ef2e	-1.3526338e-05
3	0xb68fe3b8	-4.288242e-06
4	0x3744b322	1.1724218e-05
5	0x3715cb13	8.928374e-06
6	0xb6e65db2	-6.8654417e-06
7	0x36e775e1	6.8980594e-06
8	0xb6f0545c	-7.162378e-06
9	0xb68a6a2f	-4.125082e-06
10	0x375fb6f5	1.3334434e-05
11	0x36aec0d1	5.208051e-06
12	0x362bc347	2.5594652e-06
13	0x36b1e52a	5.3016893e-06
14	0x367bb9fc	3.7510172e-06
15	0x379fefb8	1.9065905e-05
16	0x36fe8e84	7.586381e-06
17	0x37593d65	1.2948502e-05
18	0x37396311	1.1049925e-05
19	0xb58df5b0	-1.0576823e-06
20	0x37aa5458	2.0304855e-05
21	0x365d2831	3.295496e-06
22	0xb714cc85	-8.869106e-06
23	0x3719a9c1	9.159035e-06
24	0xb82089f4	-3.827545e-05
25	0x35a07888	1.1956008e-06
26	0x364406cb	2.921023e-06
27	0xb74e20be	-1.228618e-05
28	0xb70fd098	-8.572031e-06
29	0x3723e8bf	9.7697475e-06
30	0x379e1007	1.8842531e-05
31	0xb8e33e05	-0.000108357555
32	0xb74b63de	-1.2122995e-05
33	0xb78582ff	-1.5915835e-05
34	0xb776b95c	-1.47059e-05
35	0xb6e729ec	-6.889217e-06
36	0x36ca8e53	6.036638e-06
37	0xb81f3d86	-3.7965852e-05
38	0xb74a36a1	-1.20528575e-05
39	0x37a73e01	1.9936824e-05
40	0xb6d1652f	-6.2404647e-06
41	0x360daf92	2.1112833e-06
42	0x37afd7b4	2.096207e-05
43	0x37cdbed7	2.4526771e-05
44	0xb71abafb	-9.22265e-06
45	0x374a6c6e	1.2065384e-05
46	0x359f84ef	1.1885112e-06
47	0x380534c8	3.1758827e-05
48	0xbaa250d2	-0.0012383705
49	0x35ef9dfe	1.7852869e-06
50	0xb891789e	-6.9366055e-05
51	0x38832c2e	6.254796e-05
52	0x3827a417	3.9968723e-05
53	0x37a712b6	1.9916664e-05
54	0xb8cbf714	-9.725816e-05
55	0xb68a4d46	-4.1217163e-06
56	0xb9aa5b04	-0.0003249274
57	0x3ab421b0	0.001374295
58	0x3a717c26	0.000921192
59	0xb822567c	-3.8704355e-05
60	0xb94a6264	-0.00019300875
61	0xb982ce1e	-0.00024949101
62	0xb9161b45	-0.00014315273
63	0xb98039a1	-0.00024457
64	0x39951520	0.00028435234
65	0x3940fb51	0.0001840417
66	0x3943f792	0.00018688876
67	0x38ebabfa	0.00011237706
68	0x399c6739	0.00029831546
69	0x36ca562a	6.0301e-06
70	0x38f0f8e3	0.000114904506
71	0x38a51745	7.8721474e-05
72	0x380c1ef6	3.3407436e-05
73	0xbaa20031	-0.0012359676
74	0xba6fc339	-0.0009146217
75	0x38c5700c	9.4145624e-05
76	0x394ef935	0.00019738528
77	0xb7fcd766	-3.0141044e-05
78	0xb895b2e2	-7.138193e-05
79	0xb96063ae	-0.00021399438
80	0x3939e271	0.00017727331
81	0x38267d00	3.96939e-05
82	0xb827643f	-3.9909264e-05
83	0xb8801d3a	-6.1089595e-05
84	0x38e98f65	0.00011137015
85	0x3964b6ed	0.0002181192
86	0xb74f2a86	-1.2348062e-05
87	0xb88dd50c	-6.763087e-05
88	0x38fe4105	0.00012123775
89	0x39051cb4	0.00012694561
90	0x3919f0ba	0.00014680895
91	0x38ebef8d	0.00011250293
92	0x365f0d30	3.3237266e-06
93	0xb787c5ec	-1.6185419e-05
94	0x38d5be92	0.00010192128
95	0x39a37810	0.00031179236
96	0xb73b7611	-1.1173558e-05
97	0xb3ca1a3f	-9.411132e-08
98	0x36987b5d	4.5443144e-06
99	0x37141dbc	8.8284105e-06
100	0xb7876706	-1.6141228e-05
101	0xb73044d0	-1.0506439e-05
102	0xb2c0a0d8	-2.2424885e-08
103	0x37210118	9.5966025e-06
104	0xb682af65	-3.8947205e-06
105	0xb6c2efaa	-5.809551e-06
106	0x353ed715	7.10935e-07
107	0xb7bf39e6	-2.2795935e-05
108	0x37d7d35d	2.5728421e-05
109	0x3654f87b	3.1735096e-06
110	0xb6d60c89	-6.3791563e-06
111	0x38114ca6	3.464208e-05
112	0x37198e8c	9.1527e-06
113	0x36ba4d71	5.5522473e-06
114	0x361effe7	2.369279e-06
115	0x35952cdf	1.1114424e-06
116	0xb7e443a5	-2.7211217e-05
117	0xb75a02f6	-1.2994502e-05
118	0x37340dfc	1.0732092e-05
119	0x360bc9fe	2.083019e-06
120	0xb718204a	-9.067424e-06
121	0xb7c81090	-2.384957e-05
122	0x359f2aa1	1.185883e-06
123	0xb7a2a12e	-1.938696e-05
124	0xb7347fae	-1.0758564e-05
125	0xb80927d1	-3.2700427e-05
126	0xb55abf3e	-8.148962e-07
127	0xb88d4937	-6.737041e-05
128	0xb7a0c623	-1.9165751e-05
129	0x381ed6d2	3.7870203e-05
130	0x358694d3	1.0027092e-06
131	0xb71cd87b	-9.348728e-06
132	0x390ac173	0.00013232771
133	0x371442e8	8.837065e-06
134	0xb7a42d2d	-1.957136e-05
135	0xb87cb8bf	-6.025354e-05
136	0x375d1b21	1.3178943e-05
137	0x3711aafd	8.682485e-06
138	0x36e40524	6.795528e-06
139	0xb7f7f2ac	-2.9557697e-05
140	0xb704ea30	-7.922339e-06
141	0xb6d337c4	-6.294782e-06
142	0xb7cdc684	-2.4530345e-05
143	0x36eebee2	7.1151744e-06
144	0xb91a4438	-0.00014711998
145	0x39848a30	0.0002527996
146	0xb9a0b772	-0.00030654256
147	0x366bdaf3	3.5145174e-06
148	0x389bb98a	7.425535e-05
149	0x3741d3f5	1.15530465e-05
150	0xb7c2126b	-2.3135179e-05
151	0x3829165a	4.0313556e-05
152	0xb7123fc4	-8.717125e-06
153	0xb895cb01	-7.142686e-05
154	0xb725e0f5	-9.887143e-06
155	0xba04d11c	-0.000506656
156	0xb702d65c	-7.798513e-06
157	0x383057d4	4.2043466e-05
158	0x384c0fde	4.8652168e-05
159	0x381e9348	3.7807302e-05
160	0x384b45ed	4.8464095e-05
161	0xb96c584d	-0.00022539608
162	0x390ced71	0.00013439894
163	0x38f28af5	0.00011565342
164	0xb8819c35	-6.180295e-05
165	0xb832fb5e	-4.267261e-05
166	0x349137b5	2.7048887e-07
167	0xb70e7cea	-8.492943e-06
168	0xb85e5322	-5.3006348e-05
169	0xb8cac0b9	-9.668008e-05
170	0xb8cd1080	-9.778235e-05
171	0x37bc0581	2.241391e-05
172	0xb6531431	-3.1453203e-06
173	0x38094c1f	3.273424e-05
174	0xb78edf54	-1.7031714e-05
175	0x38f04f36	0.00011458846
176	0xb89050ed	-6.881529e-05
177	0xb8693d91	-5.5608867e-05
178	0xb89ead80	-7.566344e-05
179	0xb8058b0a	-3.183916e-05
180	0xb8f487fe	-0.00011660157
181	0x3a19b90e	0.0005864062
182	0x392c7bc8	0.0001644931
183	0x373b6894	1.1170418e-05
184	0xb9282851	-0.00016036748
185	0xb88409d8	-6.296084e-05
186	0xb826389c	-3.9630206e-05
187	0xb88e05f4	-6.7721965e-05
188	0xb8254cad	-3.9410475e-05
189	0x389a278a	7.350657e-05
190	0x38694f24	5.5625234e-05
191	0x390d7f36	0.00013494198
192	0xb858a1c8	-5.1649084e-05
193	0x3830d837	4.2163036e-05
194	0x370c8662	8.375939e-06
195	0xb6f277a8	-7.226092e-06
196	0x370a1c10	8.231975e-06
197	0xb7ab3888	-2.0411113e-05
198	0xb70b706d	-8.311222e-06
199	0x380b1ec7	3.3168846e-05
200	0xb811e647	-3.4785156e-05
201	0xb8170cc0	-3.601308e-05
202	0xb7857f23	-1.5914038e-05
203	0x36e49e80	6.8133813e-06
204	0xb70f4084	-8.538485e-06
205	0x394037da	0.00018331353
206	0xb806e5f3	-3.2162246e-05
207	0xb7db751c	-2.6161368e-05
208	0x37b1a8b1	2.1178597e-05
209	0x370f2d45	8.534004e-06
210	0x37ca8c1d	2.4145522e-05
211	0x37da7b99	2.604518e-05
212	0x37aa69c8	2.0314837e-05
213	0x36b156b7	5.285106e-06
214	0xb8b128dd	-8.447629e-05
215	0x372576ce	9.862428e-06
216	0x36fd3799	7.54646e-06
217	0x37bce444	2.251764e-05
218	0x391c0120	0.00014877738
219	0xb8027414	-3.110252e-05
220	0xb701d46f	-7.73846e-06
221	0xb938edb2	-0.00017636156
222	0xb887cf60	-6.475928e-05
223	0x38211f96	3.8414808e-05
224	0xb71874ca	-9.087098e-06
225	0x37a10521	1.9195084e-05
226	0xb85074a1	-4.9699684e-05
227	0x3678dd1f	3.708359e-06
228	0x3762a971	1.3510101e-05
229	0xb7a70bff	-1.9913537e-05
230	0x36a60f98	4.949001e-06
231	0xb810a92d	-3.4489833e-05
232	0x3627e288	2.5016798e-06
233	0xb6f2cbb9	-7.2358785e-06
234	0x374f5da1	1.2359961e-05
235	0x37c4d9b7	2.3466402e-05
236	0xb625fbc2	-2.4733458e-06
237	0x37d6b698	2.5595815e-05
238	0x367cfe2f	3.769888e-06
239	0x3608d6ad	2.0390537e-06
240	0x36ceb77e	6.1606397e-06
241	0x38374a3f	4.3699747e-05
242	0xb5436be5	-7.280017e-07
243	0xb8d5e399	-0.00010199025
244	0xb8dd524b	-0.000105534295
245	0x374cd87b	1.2209751e-05
246	0xb7d17e70	-2.4973619e-05
247	0x382a33ab	4.0579278e-05
248	0x376ef804	1.4243651e-05
249	0x382ad652	4.073076e-05
250	0x37a6c609	1.988096e-05
251	0xb7457ec5	-1.1771631e-05
252	0x37f5db50	2.9308401e-05
253	0xb8160a35	-3.5772293e-05
254	0x3811402b	3.4630455e-05
255	0x383ce3b2	4.503475e-05

0.bias f4 [16]
0	0xb9e570b2	-0.00043762248
1	0xbbcae379	-0.0061916676
2	0xba6a8ba8	-0.0008947202
3	0xbb70f3da	-0.003676644
4	0xba57bdec	-0.00082298997
5	0xbab8cff7	-0.0014100064
6	0xbb6e427c	-0.0036355546
7	0xbaf62126	-0.001877819
8	0xbae7e16c	-0.0017691082
9	0xbb54aceb	-0.00324517
10	0xbb1ebbb1	-0.002422076
11	0xb956565b	-0.000204408
12	0xbe14816d	-0.14502497
13	0xba8b62a8	-0.001063426
14	0xbaf90a66	-0.0019000291
15	0xbbe41930	-0.0069610104

2.weight f4 [32, 16, 4, 4]
0	0xb80f3e62	-3.4151955e-05
1	0xb7900f9b	-1.7173405e-05
2	0xb61874ff	-2.2717866e-06
3	0x3794e2a0	1.7748505e-05
4	0xb60975f6	-2.0483253e-06
5	0x3809a77a	3.281932e-05
6	0x3798c956	1.8213566e-05
7	0x36740841	3.6363638e-06
8	0x388a1554	6.5843255e-05
9	0x382d98b3	4.1388626e-05
10	0x37854db0	1.5891012e-05
11	0x373dda41	1.1316094e-05
12	0x37eeb41c	2.845568e-05
13	0xb69261a4	-4.362506e-06
14	0xb6abd760	-5.12127e-06
15	0xb702c57a	-7.794582e-06
16	0x37213d7e	9.610665e-06
17	0x37066200	8.00984e-06
18	0xb7967341	-1.7935063e-05
19	0xb59ee903	-1.1839733e-06
20	0xb70d1eda	-8.411438e-06
21	0xb7c69efc	-2.3677472e-05
22	0xb847eccd	-4.7665835e-05
23	0xb83bdc8c	-4.4789675e-05
24	0xb78344e4	-1.5648497e-05
25	0x38117f60	3.468932e-05
26	0xb8921bc8	-6.966997e-05
27	0xb77f74bc	-1.5226364e-05
28	0xb7c9a1a3	-2.4036335e-05
29	0xb6f9ea48	-7.448052e-06
30	0xb87bc04f	-6.0022165e-05
31	0xb8851ed5	-6.347677e-05
32	0x3866db6c	5.5040626e-05
33	0x37b7b356	2.189881e-05
34	0xb6bafc10	-5.572576e-06
35	0x36e4056f	6.795562e-06
36	0x376044ba	1.3367442e-05
37	0x379411b2	1.7651215e-05
38	0xb7ed596d	-2.8294244e-05
39	0xb7165675	-8.960827e-06
40	0xb70b30c2	-8.296398e-06
41	0x3683893f	3.920082e-06
42	0xb72bdbd7	-1.024358e-05
43	0xb78c3fe9	-1.6719061e-05
44	0x36a13693	4.804527e-06
45	0x3729ca2d	1.0120258e-05
46	0x36e27376	6.7487663e-06
47	0xb71d0020	-9.357958e-06
48	0xb8d051e3	-9.9334655e-05
49	0xb78ffe8e	-1.7165465e-05
50	0xb91269e9	-0.000139631
51	0xb8fd7b3d	-0.00012086935
52	0xb9cb20d9	-0.0003874365
53	0xb98c0f36	-0.00026714214
54	0xb90e78c3	-0.00013587163
55	0x374a6808	1.206436e-05
56	0xb8a39913	-7.800958e-05
57	0xb90fdc75	-0.0001371967
58	0xb7dc80ac	-2.6285961e-05
59	0x38790ef1	5.938014e-05
60	0xb866e5fe	-5.505047e-05
61	0xb8aea613	-8.3279e-05
62	0xb8f44ae4	-0.00011648776
63	0xb90e0047	-0.00013542279
64	0x38251424	3.9357823e-05
65	0x38513684	4.9880255e-05
66	0x3841f253	4.6240468e-05
67	0xb7ee1270	-2.8380397e-05
68	0x391dd1ba	0.00015050816
69	0x37d3719d	2.5206065e-05
70	0x37943526	1.7667724e-05
71	0xb7f69104	-2.9393013e-05
72	0xb98a047c	-0.00026324752
73	0xb9a7b5e7	-0.0003198825
74	0xb992d178	-0.00028003356
75	0xb95dd1aa	-0.00021154308
76	0xb8d4681f	-0.00010128342
77	0xb8c444a4	-9.3587936e-05
78	0xb909a22a	-0.00013125749
79	0xb8f9e26e	-0.00011915421
80	0xba08af74	-0.0005214133
81	0xb9a49408	-0.0003139081
82	0xba02d59c	-0.0004990937
83	0xb9981787	-0.00029009228
84	0xb955e8c2	-0.00020399972
85	0xba13e70f	-0.00056420354
86	0xb9ff0beb	-0.0004864627
87	0xb9d3f5e3	-0.00040428256
88	0x3961c130	0.0002152964
89	0x397c7a0e	0.00024078062
90	0x3977f636	0.00023647476
91	0x392b6ef5	0.00016349166
92	0xb9e9f3a8	-0.0004462276
93	0xb9de1a74	-0.0004236285
94	0xb9c92f71	-0.00038373054
95	0xb9d455dc	-0.0004049976
96	0xb7e6b2ec	-2.7501454e-05
97	0xb7a6465c	-1.9821506e-05
98	0x3869100e	5.556648e-05
99	0x39649f89	0.00021803206
100	0x39ee9499	0.0004550561
101	0x3a1510b4	0.0005686388
102	0x3a02c96d	0.0004989121
103	0x39a0ebd1	0.00030693275
104	0x3812f2bc	3.5035177e-05
105	0x38e95b8a	0.00011127356
106	0x38a1ceb4	7.71558e-05
107	0x37e08f7b	2.6769694e-05
108	0xb7e1acb2	-2.6902508e-05
109	0xb84f4419	-4.9416067e-05
110	0xb81e274b	-3.770673e-05
111	0xb8509a2c	-4.973465e-05
112	0x3964c7b6	0.00021818173
113	0xb6b3977a	-5.35225e-06
114	0xb394f804	-6.936901e-08
115	0x37ac66b4	2.0551823e-05
116	0x37593f77	1.29489845e-05
117	0x3792030b	1.7405973e-05
118	0x377bc275	1.5006041e-05
119	0xb84f8c81	-4.94835e-05
120	0xb792c5b7	-1.7496624e-05
121	0xb78a0afd	-1.6455999e-05
122	0xb736bf62	-1.0892605e-05
123	0xb8145142	-3.5361627e-05
124	0xb750d53c	-1.2447414e-05
125	0xb6335c86	-2.6726934e-06
126	0xb84e9724	-4.9254988e-05
127	0xb852f789	-5.0298437e-05
128	0x38586dea	5.160078e-05
129	0x37b9a81a	2.2131997e-05
130	0x37660760	1.3710785e-05
131	0x381f4f82	3.79826e-05
132	0x384f1daa	4.9380273e-05
133	0xb73c1ac0	-1.1211901e-05
134	0x38468ff2	4.734094e-05
135	0xb7a9cb85	-2.0241141e-05
136	0xb7a8cfe5	-2.0123969e-05
137	0xb783e2b7	-1.572199e-05
138	0xb71a503c	-9.197796e-06
139	0xb78f2912	-1.7066053e-05
140	0xb7dda38c	-2.642141e-05
141	0xb80c35e3	-3.3428787e-05
142	0xb7ef23b4	-2.8507646e-05
143	0xb702632e	-7.771696e-06
144	0x396f7abf	0.00022838543
145	0x3945ca78	0.0001886281
146	0x38f1c605	0.000115286595
147	0x3859631c	5.1829134e-05
148	0xb7087355	-8.1330845e-06
149	0xb78c3b27	-1.6716845e-05
150	0x3665dc4a	3.4251884e-06
151	0xb7204df9	-9.554898e-06
152	0xb8801dc5	-6.1090606e-05
153	0xb8ea83c5	-0.000111825335
154	0xb9497dd3	-0.00019215727
155	0xb7a5f8b2	-1.978534e-05
156	0xb7d348c2	-2.518704e-05
157	0xb808a3b3	-3.2577384e-05
158	0xb813c821	-3.5233916e-05
159	0xb881f954	-6.19764e-05
160	0x389cc2bd	7.4749325e-05
161	0xb6b4d642	-5.389361e-06
162	0x375a4a41	1.3011101e-05
163	0x38378530	4.375464e-05
164	0x37952f1c	1.7784121e-05
165	0x37036c25	7.833388e-06
166	0x37a1a401	1.9269066e-05
167	0x38886afd	6.5049135e-05
168	0xb789b122	-1.6414157e-05
169	0x370c753d	8.371947e-06
170	0x3838958d	4.40083e-05
171	0xb7c5da5f	-2.3585917e-05
172	0xb7272d44	-9.964515e-06
173	0xb841a6da	-4.617018e-05
174	0xb83d20b2	-4.509156e-05
175	0xb69a8ee0	-4.6061905e-06
176	0xb6d84886	-6.4457445e-06
177	0xb6750285	-3.6509311e-06
178	0xb6bd26c7	-5.637153e-06
179	0xb66779e5	-3.4492634e-06
180	0xb793d69b	-1.7623699e-05
181	0xb798d570	-1.8219202e-05
182	0xb6b0ce93	-5.269257e-06
183	0xb6e1a960	-6.7252404e-06
184	0xb73429c6	-1.0738562e-05
185	0xb70611f1	-7.9912e-06
186	0xb66c792d	-3.5237274e-06
187	0x35334833	6.678776e-07
188	0xb6ddeb9e	-6.6137427e-06
189	0x35703b43	8.9493204e-07
190	0x36bf261a	5.696679e-06
191	0x354047f7	7.1630296e-07
192	0xba031738	-0.0005000713
193	0xba1a0e55	-0.00058767694
194	0xb987d10a	-0.00025904953
195	0xb9cce5a1	-0.00039081
196	0x38f932e1	0.00011882722
197	0xb9c9f323	-0.00038518858
198	0xb981a933	-0.0002473086
199	0xba9f96f8	-0.001217573
200	0xb98e8efa	-0.00027190876
201	0xb89c4e0c	-7.453197e-05
202	0xb9387cbd	-0.00017594076
203	0xb80fcdb1	-3.4285422e-05
204	0xb9c03d04	-0.00036666554
205	0xb8a9af39	-8.091186e-05
206	0xb8a40159	-7.8203804e-05
207	0xb8bd02e0	-9.012758e-05
208	0xb6ae9af4	-5.203643e-06
209	0xb73060b6	-1.0512935e-05
210	0x36e9b993	6.965545e-06
211	0xb70ee1e1	-8.516451e-06
212	0xb61c9a6c	-2.3335697e-06
213	0xb734f8ae	-1.0786736e-05
214	0xb675bbca	-3.6617153e-06
215	0xb7306007	-1.0512776e-05
216	0xb660f266	-3.3519696e-06
217	0xb514ce26	-5.543428e-07
218	0xb69bf519	-4.647893e-06
219	0x36649290	3.4059958e-06
220	0x34b0ff9e	3.296854e-07
221	0xb655ba9a	-3.184809e-06
222	0x3370bbbf	5.605011e-08
223	0xb6d5d4c7	-6.372665e-06
224	0x3791f03f	1.739722e-05
225	0x38581da0	5.1526004e-05
226	0x38706365	5.7313027e-05
227	0x37865018	1.6011341e-05
228	0x36f6ad0b	7.351516e-06
229	0x36608a09	3.3458948e-06
230	0xb79ef0a9	-1.8947134e-05
231	0x35584514	8.056679e-07
232	0xb5ee5bea	-1.7759132e-06
233	0xb82b719d	-4.0875388e-05
234	0xb6b99828	-5.531143e-06
235	0xb6e9b30f	-6.9647863e-06
236	0xb8019415	-3.089391e-05
237	0xb7a039e8	-1.9100451e-05
238	0xb7ee9d68	-2.8445109e-05
239	0xb63efc81	-2.8459183e-06
240	0xb7f2330d	-2.887242e-05
241	0xb6be49de	-5.6710405e-06
242	0x3724b00f	9.816154e-06
243	0x378bae50	1.6651262e-05
244	0xb7e26950	-2.699034e-05
245	0xb601c159	-1.933504e-06
246	0xb681443f	-3.8524445e-06
247	0xb689326f	-4.0887894e-06
248	0xb751d7ef	-1.2507647e-05
249	0xb783d7df	-1.571694e-05
250	0xb838bd25	-4.4045173e-05
251	0x365cb3ef	3.288729e-06
252	0xb76a0c6a	-1.3950377e-05
253	0xb83fd6b2	-4.57379e-05
254	0xb5ee0b90	-1.7735747e-06
255	0xb6a204a8	-4.8285183e-06

2.bias f4 [32]
0	0xbab73111	-0.0013976415
1	0xb9d7860d	-0.0004110787
2	0xbad05bbe	-0.0015896482
3	0xb9f1d44a	-0.0004612527
4	0xbb0d3ca6	-0.0021551042
5	0xb9559b88	-0.00020371203
6	0xba07ee3b	-0.00051853404
7	0xbb0c703b	-0.00214292
8	0xbb033850	-0.0020022579
9	0xb9c567fc	-0.00037652242
10	0xba6647e1	-0.00087845145
11	0xba1fd4d3	-0.0006097082
12	0xbb0536fd	-0.0020326965
13	0xbaf19ab8	-0.0018432951
14	0xba894ba4	-0.0010474813
15	0x3fd48f29	1.6606189
16	0xb936a9f6	-0.00017420188
17	0xba5727fd	-0.0008207558
18	0xbad83b0b	-0.0016497088
19	0xbaa736c6	-0.0012757413
20	0xbadaa84b	-0.0016682235
21	0xba4345aa	-0.00074490404
22	0xb9db5576	-0.00041834608
23	0xba34626d	-0.00068811217
24	0xb8e73d33	-0.000110263376
25	0xbaad7e93	-0.0013236575
26	0xba05b6a6	-0.0005100764
27	0xb9dfa4cf	-0.00042656666
28	0xb9c21539	-0.00037018376
29	0xba10dd3b	-0.000552613
30	0xbb0bf621	-0.002135642
31	0xba2de7ae	-0.0006633949

5.weight f4 [100, 2048]
0	0xb5979354	-1.1293255e-06
1	0xb583c3ca	-9.817243e-07
2	0x34adc48f	3.2366776e-07
3	0xb508cace	-5.095907e-07
4	0x329f2a4e	1.8529274e-08
5	0x3526da97	6.215791e-07
6	0xb53a2141	-6.933879e-07
7	0x346648af	2.1446861e-07
8	0x3536b5a8	6.806463e-07
9	0xb28342fe	-1.5280872e-08
10	0x35672250	8.6104137e-07
11	0x339e51af	7.3723065e-08
12	0x3532c4bb	6.659645e-07
13	0x35786a03	9.2541467e-07
14	0x352e3361	6.489482e-07
15	0x347241e3	2.2561976e-07
16	0x34e78b3b	4.3128406e-07
17	0x3522fa1a	6.071365e-07
18	0xb4670c60	-2.1518053e-07
19	0xb44bbe36	-1.8975047e-07
20	0xb55aac15	-8.146174e-07
21	0xb44700e1	-1.8533639e-07
22	0x34f598c0	4.5745946e-07
23	0xb48d3c30	-2.630709e-07
24	0xb53a5fd5	-6.9429854e-07
25	0x32908064	1.6822192e-08
26	0xb4967d5d	-2.803089e-07
27	0xb28a1839	-1.607633e-08
28	0xb4b9328c	-3.4495713e-07
29	0xb4a1be45	-3.0127026e-07
30	0xb50b2af7	-5.184406e-07
31	0x35811b5b	9.61921e-07
32	0xb59c6709	-1.1652893e-06
33	0xb5ad6d10	-1.2921246e-06
34	0xb51be065	-5.8068537e-07
35	0xb489ae28	-2.5644954e-07
36	0x3519c5f0	5.728498e-07
37	0x348754eb	2.5207495e-07
38	0xb45511aa	-1.9843597e-07
39	0xb5d4dd44	-1.5859628e-06
40	0xb53a7013	-6.945349e-07
41	0x34975af1	2.819211e-07
42	0xb5245be7	-6.1228496e-07
43	0xb57ddd2c	-9.457169e-07
44	0x3384b4ad	6.179594e-08
45	0x34f12294	4.4914907e-07
46	0xb48e7427	-2.6534073e-07
47	0x3563ff23	8.493536e-07
48	0x356c3b8c	8.8003503e-07
49	0x346a2428	2.1806102e-07
50	0x359f4215	1.1865656e-06
51	0x33f12908	1.12299006e-07
52	0xb3adaafa	-8.087041e-08
53	0x3438adf2	1.7199616e-07
54	0xb5cac3b5	-1.5107131e-06
55	0x34b5a408	3.3833226e-07
56	0x35888511	1.0171517e-06
57	0x3409ec1b	1.2845014e-07
58	0xb45208c2	-1.956096e-07
59	0xb4e03c5a	-4.1767163e-07
60	0xb58968c9	-1.0237792e-06
61	0xb2acc835	-2.0114479e-08
62	0x34c57cee	3.6785008e-07
63	0x34cf3ab0	3.8599455e-07
64	0x359d63e6	1.1726486e-06
65	0xb55e98d8	-8.292386e-07
66	0x35a1745d	1.2029301e-06
67	0xb4ae378d	-3.2450444e-07
68	0xb50bad0a	-5.203334e-07
69	0xb5674659	-8.6156575e-07
70	0xb5937225	-1.0985574e-06
71	0x346645bf	2.1445793e-07
72	0xb4cf7bd5	-3.8646854e-07
73	0x33a1de8e	7.537629e-08
74	0xb5cc40b2	-1.5218013e-06
75	0xb51abd54	-5.764498e-07
76	0x3522e5d7	6.0684164e-07
77	0xb5523b3d	-7.83173e-07
78	0x358d4b66	1.0527262e-06
79	0xb580883a	-9.57639e-07
80	0xb57b59f0	-9.363566e-07
81	0x3520f33c	5.99586e-07
82	0x35619495	8.4035247e-07
83	0x3498fef6	2.8497715e-07
84	0x34ef0376	4.4519737e-07
85	0xb59a5a24	-1.1500128e-06
86	0x319c14f8	4.5425814e-09
87	0xb499f55f	-2.8677002e-07
88	0xb540d04b	-7.182868e-07
89	0x3344c0be	4.5810104e-08
90	0x34970880	2.8132126e-07
91	0xb58fd72c	-1.0716954e-06
92	0xb4d311e4	-3.931483e-07
93	0x33aead94	8.13408e-08
94	0x358b7e60	1.0393087e-06
95	0xb5ab9c0a	-1.2785906e-06
96	0x358e2d59	1.0593022e-06
97	0xb489b15a	-2.564728e-07
98	0x33aa5a4c	7.932667e-08
99	0xb5c75bf5	-1.4853418e-06
100	0xb5b6d376	-1.36216e-06
101	0xb55a07ca	-8.1222663e-07
102	0xb47bd7d9	-2.3454722e-07
103	0x344ac59f	1.888461e-07
104	0x359811a7	1.133002e-06
105	0xb4a883c6	-3.1388316e-07
106	0x3564d752	8.524995e-07
107	0xb5abad10	-1.2790861e-06
108	0x35204e4f	5.97186e-07
109	0xb5b1f08f	-1.3257539e-06
110	0xb5b80bd2	-1.3712508e-06
111	0x353fac6b	7.1403946e-07
112	0xb56455cf	-8.5061487e-07
113	0xb54a559a	-7.537543e-07
114	0xb561f7a4	-8.4179396e-07
115	0xb4f9ec75	-4.655191e-07
116	0x34c05b32	3.582914e-07
117	0x35103707	5.3724256e-07
118	0xb5988a46	-1.1365125e-06
119	0xb3c367ff	-9.099312e-08
120	0xb5952a16	-1.1113614e-06
121	0xb59879f9	-1.1360381e-06
122	0xb4b88c58	-3.4374784e-07
123	0xb408ebc4	-1.2751758e-07
124	0x34c0f6f9	3.5942483e-07
125	0x34bde0b2	3.536748e-07
126	0x3442db66	1.8147475e-07
127	0x35586fd2	8.062899e-07
128	0xb4d69dcc	-3.9975419e-07
129	0xb4e38ef2	-4.238605e-07
130	0x35804fa9	9.559927e-07
131	0xb42ab4cc	-1.5898257e-07
132	0x352ed8fd	6.513581e-07
133	0xb55f64f2	-8.322087e-07
134	0x35337142	6.684751e-07
135	0x352739a6	6.229624e-07
136	0x35354886	6.753329e-07
137	0xb5984df4	-1.134757e-06
138	0xb5f1b33a	-1.8008061e-06
139	0xb47bb253	-2.344107e-07
140	0xb524ea05	-6.1435304e-07
141	0x356ef08a	8.901194e-07
142	0xb50b2fb4	-5.185095e-07
143	0xb539caed	-6.9213166e-07
144	0xb42eb26e	-1.6269925e-07
145	0xb5b1798a	-1.32229e-06
146	0xb59d3c15	-1.1714898e-06
147	0x351f9e69	5.9462633e-07
148	0x33ceb562	9.625616e-08
149	0xb2a5937d	-1.9275598e-08
150	0xb5101d7d	-5.368709e-07
151	0x34b57e64	3.3805838e-07
152	0xb55670de	-7.9885456e-07
153	0x344c549c	1.9029761e-07
154	0x33dbf1ab	1.0241941e-07
155	0x33ccd274	9.5377715e-08
156	0xb58dd777	-1.0568027e-06
157	0xb5be2bae	-1.4168816e-06
158	0xb567e94e	-8.639371e-07
159	0xb5b30258	-1.3337221e-06
160	0xb5b3ec70	-1.3405352e-06
161	0xb537254c	-6.8227087e-07
162	0xb4edc20b	-4.4285875e-07
163	0xb46ac745	-2.1865442e-07
164	0xb57278cc	-9.032781e-07
165	0xb59156a3	-1.0828556e-06
166	0xb52a2788	-6.338746e-07
167	0x35270539	6.221995e-07
168	0x352156c6	6.0103446e-07
169	0x35938da4	1.0993576e-06
170	0x350c887f	5.235269e-07
171	0x351031de	5.3716747e-07
172	0xb486397b	-2.5001268e-07
173	0xb58ac2b2	-1.0338465e-06
174	0x339072d7	6.726412e-08
175	0x35860773	9.985946e-07
176	0xb5056f05	-4.9707916e-07
177	0xb3c75fd5	-9.2840914e-08
178	0xb5b16293	-1.3216217e-06
179	0x3578e47f	9.2719705e-07
180	0xb5bcd54e	-1.4069171e-06
181	0xb52790a5	-6.2422833e-07
182	0xb3d0fe46	-9.732007e-08
183	0xb5539662	-7.882246e-07
184	0xb294e863	-1.7335145e-08
185	0xb55d878a	-8.252615e-07
186	0x35a99d32	1.2637231e-06
187	0xb58475cb	-9.869049e-07
188	0xb3274040	-3.8941153e-08
189	0xb5b4b652	-1.3464107e-06
190	0x332d7f3f	4.039543e-08
191	0x3570972c	8.962695e-07
192	0xb560e39d	-8.3777724e-07
193	0xb4bfe2b2	-3.5741465e-07
194	0xb433cbdb	-1.6744836e-07
195	0xb4164f29	-1.3998637e-07
196	0x34245f66	1.5308396e-07
197	0x3585c3e1	9.96628e-07
198	0xb4cd50c6	-3.8242996e-07
199	0xb434fcf3	-1.6855829e-07
200	0xb5988d86	-1.1366071e-06
201	0xb579edd3	-9.310581e-07
202	0xb58dc38a	-1.0562228e-06
203	0x33fc87ba	1.1759353e-07
204	0x317bbf7e	3.6634158e-09
205	0x35830596	9.761886e-07
206	0x3483751c	2.448586e-07
207	0xb51584d1	-5.57001e-07
208	0xb5148d08	-5.5339524e-07
209	0xb4145352	-1.3813886e-07
210	0xb55e169f	-8.273436e-07
211	0x348db3f5	2.6394233e-07
212	0xb52abfb0	-6.3608877e-07
213	0xb5934c5e	-1.0974579e-06
214	0xb4913248	-2.704494e-07
215	0x33a67bcc	7.752496e-08
216	0xb4a34ea0	-3.0418323e-07
217	0xb407bae4	-1.2640845e-07
218	0xb5cff9a8	-1.5495361e-06
219	0xb53c453c	-7.0136207e-07
220	0xb5c971ef	-1.5008826e-06
221	0x35aac81b	1.2724225e-06
222	0x354155ea	7.2023124e-07
223	0xb5b5c211	-1.3542032e-06
224	0xb59166eb	-1.0833295e-06
225	0xb5ac392a	-1.2831636e-06
226	0x350f923a	5.348444e-07
227	0x33ee1d54	1.10880734e-07
228	0xb5c4f220	-1.4673606e-06
229	0xb500cbd2	-4.7980313e-07
230	0x3563a4c8	8.480388e-07
231	0xb49aefbe	-2.885917e-07
232	0xb5aefe8e	-1.3038095e-06
233	0x3467026e	2.1514435e-07
234	0x359d3a56	1.171439e-06
235	0x358e246f	1.0590428e-06
236	0xb429c7a1	-1.5811976e-07
237	0xb4f9eea4	-4.6553498e-07
238	0x333db50a	4.4169646e-08
239	0x353f0f36	7.117518e-07
240	0x34dc27cd	4.1007152e-07
241	0xb5a64e17	-1.2390691e-06
242	0x351a3f06	5.746118e-07
243	0x3559e68c	8.117429e-07
244	0xb5a1ea4a	-1.2063622e-06
245	0xb585723f	-9.942522e-07
246	0x353e3afb	7.0866344e-07
247	0x34ab05f5	3.1855566e-07
248	0xb59f0615	-1.1848193e-06
249	0x345f247c	2.0781766e-07
250	0x35404311	7.162317e-07
251	0x34954dad	2.780993e-07
252	0x353e5c81	7.0915127e-07
253	0x34bbaf30	3.495893e-07
254	0x3480cef3	2.3992433e-07
255	0x351db292	5.874691e-07

5.bias f4 [100]
0	0xb69cf184	-4.6772784e-06
1	0x3e209304	0.15681082
2	0xb91cdb00	-0.00014958903
3	0x3f585f7a	0.84520686
4	0xb9bd85ef	-0.00036148677
5	0xb90d4164	-0.00013471168
6	0xb9a0222c	-0.00030543038
7	0xb702bef8	-7.793067e-06
8	0xb701c3d4	-7.734594e-06
9	0x3ff40a8f	1.9065722
10	0xba759435	-0.0009368093
11	0x392d325c	0.00016517326
12	0xb980cfb2	-0.00024568808
13	0x3f69866d	0.9122074
14	0xb9acf823	-0.00032991273
15	0xb9a7e2c1	-0.00032021667
16	0xbaf8c8f7	-0.0018980791
17	0x3f036e58	0.51340246
18	0x3cdf5a58	0.027264759
19	0x3f34eb31	0.70671374
20	0xb9ea7f47	-0.00044726787
21	0xb9c1fc1d	-0.00036999668
22	0xb6ad86cd	-5.1714946e-06
23	0xba0b6d7a	-0.00053187425
24	0xb948ecf0	-0.00019161752
25	0xba1c208d	-0.0005955778
26	0xb99ebede	-0.00030278316
27	0xb6d08b25	-6.2150816e-06
28	0xb9fa3a42	-0.0004772712
29	0xbba7d2cb	-0.005121564
30	0xba42434a	-0.00074105395
31	0x3a750a76	0.0009347567
32	0xb8e1af80	-0.000107615255
33	0xb992d38b	-0.00028004902
34	0xb8704ec5	-5.729382e-05
35	0x391a490f	0.00014713801
36	0x3ee41dc2	0.44553953
37	0xb925325f	-0.00015754391
38	0xb9b4beb5	-0.00034474363
39	0xb90f8223	-0.00013686022
40	0xb9e8865f	-0.00044350603
41	0x3f42e4e4	0.7613051
42	0x3d9e66ec	0.077344745
43	0xb9a8697d	-0.00032122052
44	0xb69dcf05	-4.703065e-06
45	0xb9ca4fb7	-0.00038587835
46	0x3f44b01f	0.7683124
47	0xb6d1d6f2	-6.2537083e-06
48	0xbc8ab427	-0.016931606
49	0x3e738081	0.23779489
50	0xbd829d0d	-0.06377611
51	0xb6d0f07e	-6.22688e-06
52	0xb9f28b86	-0.0004626179
53	0xb9ea7913	-0.00044722165
54	0x3eadfb16	0.33980626
55	0x3f38b907	0.7215733
56	0xb90a0e02	-0.00013165924
57	0x3e5599a3	0.20859389
58	0xba2c0a9e	-0.00065628614
59	0xba56b763	-0.0008190779
60	0xb698078a	-4.5308307e-06
61	0xb99df77e	-0.0003012977
62	0xb95c9810	-0.00021037483
63	0xbaa124e9	-0.0012294325
64	0xb6c00781	-5.7229195e-06
65	0xb912c333	-0.00013996362
66	0x3edb8a26	0.42878836
67	0x37898f73	1.6398471e-05
68	0xbf59f9cd	-0.8514679
69	0xb9961a4a	-0.00028629816
70	0xb87b2c99	-5.9884598e-05
71	0xba69f453	-0.0008924652
72	0xba6944d2	-0.00088984997
73	0x3f88677b	1.065658
74	0xb93bd1ca	-0.00017911862
75	0xb6b83a19	-5.490391e-06
76	0xb9581735	-0.0002060801
77	0xbdc67fac	-0.0969232
78	0xba6ed69c	-0.0009110959
79	0xba09ab86	-0.0005251694
80	0xba4dbfdd	-0.0007848719
81	0x392fa7bf	0.00016751791
82	0x3fa124a0	1.2589302
83	0x3915ebdf	0.00014297616
84	0x3d6828fd	0.056679714
85	0x3ee08599	0.43851927
86	0xbb1e98ff	-0.002420008
87	0xba82f841	-0.0009992198
88	0xb73af71b	-1.1143998e-05
89	0xb6a6d775	-4.972268e-06
90	0xb9917903	-0.00027746716
91	0x3ee699c8	0.450392
92	0xb6a4a44e	-4.9067085e-06
93	0x3c93081a	0.017948199
94	0xb6c07d61	-5.736642e-06
95	0xbc625dc4	-0.013816301
96	0x3e2518ed	0.1612279
97	0x36b7e9fd	5.481065e-06
98	0xb6a780d5	-4.991986e-06
99	0x3f3691e3	0.71316355

7.weight f4 [10, 100]
0	0xb63f6d3e	-2.8524805e-06
1	0xbd1fa03d	-0.038971175
2	0x34338176	1.6717772e-07
3	0x3f012291	0.5044337
4	0xb7208751	-9.568249e-06
5	0x35925e1d	1.0905238e-06
6	0x38a418a2	7.8247176e-05
7	0x364e5f64	3.0751917e-06
8	0x36390e92	2.757563e-06
9	0x3e910b17	0.28328773
10	0xb9cd5511	-0.00039164026
11	0xb612a743	-2.1853054e-06
12	0xb8270c6c	-3.982747e-05
13	0x3f215b73	0.63030165
14	0xb93c175f	-0.00017937784
15	0xb64bc7c0	-3.0365627e-06
16	0xb98c30a9	-0.00026739136
17	0x3e48a191	0.19592883
18	0x3c16d66b	0.009206395
19	0xbd98b07e	-0.07455538
20	0xb95dd632	-0.00021155996
21	0xb89d7321	-7.507788e-05
22	0xb681bbaa	-3.8663466e-06
23	0xb89b9bd8	-7.420004e-05
24	0xb7d191cd	-2.4982635e-05
25	0xb90199fc	-0.00012359762
26	0xb8854fe0	-6.356812e-05
27	0xb6451300	-2.9366347e-06
28	0xb8803980	-6.114226e-05
29	0xb9dde12a	-0.00042320165
30	0x3a5fc79a	0.0008536518
31	0xb74d690f	-1.2243413e-05
32	0x36e41f65	6.7985843e-06
33	0xb851ab40	-4.9988972e-05
34	0x383342a8	4.2739004e-05
35	0xb586067a	-9.985663e-07
36	0x3d4c9844	0.0499499
37	0xb7d19fe3	-2.4989195e-05
38	0xb7941feb	-1.7657838e-05
39	0xb79185d4	-1.7347666e-05
40	0x39e8ee9b	0.00044428263
41	0x3db21c1f	0.0869677
42	0x3d22ad18	0.039715856
43	0xb80cd950	-3.358099e-05
44	0xb60b9bc1	-2.0803275e-06
45	0xb7ef2ad4	-2.8510964e-05
46	0x3ea13659	0.31486776
47	0xb6565ffc	-3.1944355e-06
48	0xbdab78da	-0.0837266
49	0x3dee6e72	0.116421595
50	0xbc99fd6d	-0.0187976
51	0xb41bbc19	-1.450393e-07
52	0xb7bc9b85	-2.2483766e-05
53	0xb86519f0	-5.462201e-05
54	0x3d4503b2	0.048099227
55	0x3dca7d57	0.09887188
56	0xb7f5cc8c	-2.9301526e-05
57	0xbe02d5e0	-0.127769
58	0xb8a3faaf	-7.819139e-05
59	0xb9bc16bc	-0.00035875093
60	0xb697ceff	-4.524248e-06
61	0xb47d4bf1	-2.3590088e-07
62	0xb83fdc15	-4.5742916e-05
63	0x356b7a5e	8.772239e-07
64	0xb6433178	-2.908606e-06
65	0xb75f2fad	-1.3302936e-05
66	0x3e3e6fc3	0.18597321
67	0x3536f305	6.8153923e-07
68	0xbe8e3e18	-0.2778175
69	0xb5600389	-8.3451647e-07
70	0xb79d0a3f	-1.872063e-05
71	0xb9069c0e	-0.00012837371
72	0xb86b66c0	-5.612406e-05
73	0x3d07fb58	0.033198684
74	0xb834ee53	-4.31373e-05
75	0x3627a822	2.4982805e-06
76	0xb6aea46f	-5.2047467e-06
77	0xbcbebc7e	-0.02328324
78	0xb8a6abbd	-7.9474856e-05
79	0xb8008051	-3.0637082e-05
80	0xb82a4e98	-4.0604355e-05
81	0xb52c1a0d	-6.41129e-07
82	0x3ee39269	0.4444764
83	0xb6a7edf3	-5.004689e-06
84	0xbd340321	-0.043948296
85	0x3e28f5e5	0.16500051
86	0xbab1c43f	-0.0013562514
87	0xb9726400	-0.00023116171
88	0xb5971a5e	-1.125805e-06
89	0x3689f211	4.1110984e-06
90	0xb81ce67f	-3.7407965e-05
91	0xbd7f493d	-0.062325705
92	0xb5907d52	-1.0765309e-06
93	0xbc1e1f17	-0.009650967
94	0x363c4187	2.8052325e-06
95	0xbcbda411	-0.023149522
96	0xbda63ada	-0.08116694
97	0xb5426efe	-7.2432147e-07
98	0xb5a48c87	-1.2259851e-06
99	0x3bac37f1	0.005255692
100	0xb634ef6e	-2.6961457e-06
101	0xbd1eafc4	-0.038741842
102	0x380bf5da	3.336915e-05
103	0xbdb2cd63	-0.08730581
104	0x394e1a11	0.00019655401
105	0x35957c13	1.1137475e-06
106	0xb89fe3f9	-7.624174e-05
107	0xb67726dd	-3.682849e-06
108	0x353bacb9	6.9914273e-07
109	0x3eaa30dd	0.33240405
110	0x38767ef3	5.87692e-05
111	0xb6133a84	-2.1938768e-06
112	0xb8268d52	-3.97091e-05
113	0xbe164e24	-0.14678246
114	0x3848ce73	4.7875987e-05
115	0xb945ad27	-0.00018851888
116	0xb9bc2c24	-0.00035891042
117	0x3e8a3fca	0.27001792
118	0xbc269e8a	-0.010169635
119	0xbdfb54a7	-0.122720055
120	0x396d1dc8	0.00022613176
121	0xb7bfbc85	-2.285676e-05
122	0xb63bc313	-2.797872e-06
123	0x3a312b71	0.00067584874
124	0xb7d1aa00	-2.4993904e-05
125	0x3a7c14a0	0.00096161105
126	0xb88550db	-6.356995e-05
127	0x36e82d80	6.9194357e-06
128	0xb880881b	-6.128867e-05
129	0xb9de6404	-0.00042417657
130	0xb8e5169c	-0.00010923782
131	0xb8a6b836	-7.949809e-05
132	0xb8939a93	-7.038298e-05
133	0xb84ee046	-4.93231e-05
134	0xb7ee55cf	-2.8411769e-05
135	0xb5be9087	-1.4198166e-06
136	0xbe218909	-0.15774931
137	0xb7d1499a	-2.4949015e-05
138	0xb8bb5c8d	-8.934094e-05
139	0xb792159f	-1.7414624e-05
140	0xb907aa93	-0.00012938147
141	0xbe6945bc	-0.22780508
142	0xbcf219b7	-0.029553277
143	0xb8b40e85	-8.585773e-05
144	0xb67ebb0b	-3.7957823e-06
145	0x398f5638	0.00027339323
146	0xbd021221	-0.03175557
147	0x36b2ffca	5.334591e-06
148	0xbda48571	-0.080332644
149	0xbdc9fdfc	-0.09862897
150	0x3de1f9c8	0.1103397
151	0xb65c719c	-3.2848684e-06
152	0xb7bc194c	-2.2423126e-05
153	0x374cc587	1.2205338e-05
154	0xbe81d87e	-0.25360483
155	0x3dddb003	0.10824587
156	0xb7eb5aa7	-2.8056396e-05
157	0xbe069b78	-0.13145244
158	0x3975ce3d	0.0002344185
159	0xb91c90ae	-0.00014931217
160	0xb6949818	-4.4284498e-06
161	0xb44c1ad0	-1.9008735e-07
162	0xb83fcaa0	-4.5726658e-05
163	0x38c763f6	9.5076786e-05
164	0x3621410f	2.4028739e-06
165	0xb75dbd34	-1.3216679e-05
166	0xbe32ac17	-0.1744846
167	0x353516ad	6.746075e-07
168	0xbca5bc3a	-0.020231355
169	0xb55d2f95	-8.2398157e-07
170	0x38ed8ced	0.0001132729
171	0xb906c2b2	-0.00012851765
172	0xb7f67762	-2.9381077e-05
173	0x3dd64f91	0.10464395
174	0xb834f40d	-4.3142634e-05
175	0xb692d780	-4.3762266e-06
176	0xb6a64c8d	-4.956097e-06
177	0xbc5b4854	-0.013383944
178	0xb9888826	-0.0002604138
179	0x37fe6bc3	3.032934e-05
180	0xb82a76d2	-4.064182e-05
181	0xb4b725a9	-3.4113808e-07
182	0xbda1ed22	-0.079065576
183	0xb716c3fa	-8.986326e-06
184	0x3ed92287	0.42409155
185	0xbe27fe4a	-0.16405597
186	0xb9f34d0d	-0.0004640598
187	0xb9893622	-0.00026171008
188	0xb69e8f42	-4.7254443e-06
189	0xb6185d5b	-2.2704105e-06
190	0xb81b8ab9	-3.7084075e-05
191	0xbd6de8c5	-0.058083314
192	0xb5bbc296	-1.3989218e-06
193	0xbc1c5a79	-0.009543055
194	0xb5aaa908	-1.2715182e-06
195	0x3e539f21	0.20666172
196	0xbda0cfa8	-0.07852107
197	0xb53c669c	-7.0184774e-07
198	0xb5750b34	-9.1285915e-07
199	0x3c4472ef	0.011990293
200	0x3680fc00	3.844034e-06
201	0x3eb19d18	0.34690166
202	0x356f5559	8.9158635e-07
203	0xbd52b699	-0.05144367
204	0xb7209bb9	-9.573e-06
205	0x3595f762	1.1173363e-06
206	0x3883def4	6.288095e-05
207	0xb6098409	-2.0491445e-06
208	0xb674f5fa	-3.650201e-06
209	0xbe29c8e5	-0.16580541
210	0x3a0eeb6f	0.00054519525
211	0xb61baf55	-2.3198857e-06
212	0xb82684cb	-3.9701157e-05
213	0xbc820397	-0.015870852
214	0x38a95565	8.074454e-05
215	0x361ebcbd	2.3653695e-06
216	0xb984aaed	-0.00025304352
217	0xbe0e06a2	-0.13869718
218	0x3c5adfb7	0.013359002
219	0xbd9f92a2	-0.0779164
220	0x38e2ffd8	0.000108241744
221	0xb89d77d5	-7.508664e-05
222	0xb614de28	-2.218303e-06
223	0xb896a247	-7.182784e-05
224	0xb7d088f5	-2.4859308e-05
225	0xb901d5d9	-0.00012382063
226	0xb8831546	-6.250529e-05
227	0xb63e2df7	-2.8338961e-06
228	0xb86d4f6c	-5.657917e-05
229	0xb9de16b4	-0.00042360055
230	0xb8e21807	-0.00010780995
231	0xb7899953	-1.640307e-05
232	0x36fc1af3	7.5133225e-06
233	0x381f72b7	3.801539e-05
234	0xb847ae83	-4.7607824e-05
235	0xb56b0fe2	-8.7567435e-07
236	0x3e914265	0.28370968
237	0xb7d19b83	-2.4987157e-05
238	0x3516e8bb	5.621802e-07
239	0xb646defa	-2.9634089e-06
240	0xb830fd07	-4.219732e-05
241	0x3e7ddbfa	0.24790946
242	0x3d1bb3c8	0.03801325
243	0x392a3704	0.00016232958
244	0x35c6bc84	1.4807015e-06
245	0xb7efe5cb	-2.8598026e-05
246	0xbd0f54a6	-0.034992836
247	0xb5ad09b0	-1.2892324e-06
248	0xbdae7ece	-0.0852028
249	0x3de2d3a4	0.110755235
250	0xbd413b23	-0.047175538
251	0xb613123b	-2.1915318e-06
252	0xb7bcf968	-2.2527485e-05
253	0xb82b0dfd	-4.0782605e-05
254	0x3d9fdf1c	0.078062266
255	0x3dda294e	0.106524095

7.bias f4 [10]
0	0xbe7db935	-0.24777682
1	0xbdbaa3b1	-0.09113253
2	0xbc622437	-0.01380258
3	0x3e8011da	0.2501362
4	0xbe0e7493	-0.13911657
5	0x3e19c605	0.15016945
6	0xbe637f60	-0.22216558
7	0x3deb88c0	0.11500692
8	0xbd4f78ab	-0.050652187
9	0x3e7f51b1	0.24933507
