models/non_seq_trained/l_2/more_mnist_small_2.pth (torch, 668111 bytes, 8 tensors)

0.weight f4 [16, 1, 4, 4]
00000000: be68 e4bb 9ce8 bdbb 7444 06bc 16d0 debb
00000010: f25f f7bb 347c e6bb bf40 94bb 045c 3bbb
00000020: 23a1 6a3a 005a 18bb 3c30 8eb9 5cc4 1aba
00000030: bd90 1e36 acfd 91bb 4748 7fba 1b65 f9ba
00000040: e5bf bcba b3c7 ff3a 1584 80bb 35d2 eabb
00000050: 62c9 35bb 91b1 53ba f5f8 04b9 831e e4ba
00000060: 2a80 ddbb 5640 62ba 9602 34ba de81 37bb
00000070: 171e 50bc f592 3dbc 1a82 71bc 8f27 42bc
00000080: 84b8 ccbb b3f1 72bb 0dea 14ba d1ca a6ba
00000090: a83e 40bb 08c6 91ba 3008 58bb f873 50bb
000000a0: 7983 21ba 8179 46bb 35c7 7fbb cb43 52bb
000000b0: b229 06bb 10bd a9ba c0a2 48bb 62c7 25bb
000000c0: 140c 283c db06 cb3c deb5 bc3c db3f b03b
000000d0: af29 8c3b 5f7d 9c3b 9b73 b13b f808 84bb
000000e0: e4e7 8dbb 5c68 9dbb ec16 12bc 4682 47bc
000000f0: 9ef3 55ba 0233 bd3b 8a2a 3f3b 3dd7 a53a
00000100: 7fcc 1d39 bc20 dc3c 81b6 103d 41d4 413d
00000110: 3288 f3ba b6b4 2d3d 6929 3e3d 0c1c 6c3d
00000120: 9f61 41bc 0206 af3c 6c5a e83c a2a9 0a3d
00000130: ccaa 5fbc aa9a debb f531 b4bb 7b08 9dba
00000140: 635b dcbb a4f3 3dbb 6267 503b 6035 51bc
00000150: 3d41 67bb 9a94 f63b e368 9d3c 602f 8abb
00000160: 9075 87bb 3fcf 513c 77b1 a13c 1c76 f239
00000170: 3b81 8cbb b491 76ba ce5b 2abb dbd6 febb
00000180: 7a81 8dba 60e0 4d3b fa95 223b 67a4 733b
00000190: 9909 563b bbc1 003b a7a0 5f3b e4f4 513b
000001a0: 2044 813b be82 8339 e3ae 213b 086f a53a
000001b0: dd6b 03bb 78c5 7ebb fd4e c13a e22d 993a
000001c0: dacb 59ba 54df 7bba b350 be38 bb1a 953a
000001d0: 68fc eeb9 dfc2 8eba 1b4b 87ba 18c5 ebb9
000001e0: e965 37ba bbc7 bfba 01cf c3ba f7c2 83b9
000001f0: 83eb 7eba 1060 95ba 177f 9aba 9872 4639
00000200: 36f3 c2bb b2c1 daba dd05 fab9 4f91 013b
00000210: fc70 be3b f53d 2bbc 4a9d f03a b85e dd3a
00000220: c544 f6bb afc9 e33b de37 3bbc 7c08 65bb
00000230: d5d3 393b 6603 0eba 3e56 19bc 3866 093c
00000240: 8777 343c 0e95 dd3a eef4 a03b ffb5 a43b
00000250: f474 99bb 1199 1cbd 40ff 02bd 9f14 51bc
00000260: ccdf 25bc 630b 1ebd ab04 efbc 3b03 40bb
00000270: 8385 b1bc 7c08 3dbd 1ae2 e6bc c742 89b9
00000280: 179e 1fbc d67e c6bb 0b2a a0bb a025 3c3c
00000290: 5389 a7bc b3ca 31bc b100 87bc 7f95 873b
000002a0: 7169 dbbb 391f 133b 89f0 01bc d572 ce3b
000002b0: 4777 3d3c 34bc b33c 4e81 453c a232 473c
000002c0: 1b1e ab3c db26 ba3c 4e38 723c 2f28 c939
000002d0: 99be 4f3d 3140 683d c66c 213d 3841 b53b
000002e0: 0c1d 743d 2534 713d c9b9 123d 79d5 0f3b
000002f0: 50ef 0f3d e612 0e3d ca83 7d3c ef5d 0d3a
00000300: 3528 84ba ea58 a138 51d4 f4ba 0583 1cbb
00000310: 77a3 92ba fc3f f1ba f5d4 edba e353 24ba
00000320: 7ca6 eaba b8d4 80ba 8593 e9ba e8a6 823a
00000330: 0535 4fba 1fbc 2dba 1831 0cba 4717 a5ba
00000340: 04eb 28bc 8773 cdbb 66ca f6ba 0f8d 853a
00000350: 5d82 11bb 521e 073b addb 863b f687 013b
00000360: 7933 0d3c db05 793c 2a0e a63b 5320 d73b
00000370: 62f3 c8ba 1a99 96b9 c568 c9bb 838b 84bb
00000380: 8db2 9fba a7a3 c1ba ba6a 9fba 40d8 ecba
00000390: 0133 deba 6a40 c1ba 6d5c e0ba 45f4 c5ba
000003a0: d448 9cb9 8312 5fba 12b9 d4ba 3354 9eba
000003b0: 8a96 84b9 1b62 28ba c333 28ba 68f5 43ba
000003c0: 1945 e6bc 0d5d 1ebd a58d 16bd 3cfd cebc
000003d0: ca3d bfbc c40d 8ebc ef1e 0bbc 8058 e5bb
000003e0: d978 d0bc c8ff 85bc 97e7 f3ba 5370 d9bb
000003f0: 3894 efbb 3840 083c 013a 4d3c fddf 36bb
-0.006970494 -0.0057955515 -0.008195031 -0.006799708 -0.0075492794 -0.007033849 -0.00452432 -0.002858878
0.0008950403 -0.0023247004 -0.00027120288 -0.00059038936 2.3628083e-06 -0.004455289 -0.0009738248 -0.0019027324
-0.0014400451 0.0019514471 -0.0039219954 -0.007166172 -0.0027738442 -0.00080754707 -0.00012681245 -0.0017404113
-0.006759663 -0.00086308026 -0.00068668404 -0.002800099 -0.0127024865 -0.011570682 -0.014740491 -0.011850252
-0.006247582 -0.0037070333 -0.0005680628 -0.0012725239 -0.002933422 -0.001112164 -0.0032963865 -0.0031807404
-0.00061612536 -0.0030284824 -0.0039028649 -0.0032083865 -0.002047163 -0.0012950022 -0.0030614585 -0.0025295843
0.010256786 0.024783542 0.02303594 0.005378706 0.00427743 0.0047756876 0.0054153926 -0.0040293895
-0.004330622 -0.0048037004 -0.008916598 -0.012177056 -0.0008161607 0.005773903 0.0029169642 0.0012652647
0.00015048867 0.026871078 0.0353303 0.04732156 -0.0018580018 0.042408668 0.04642621 0.057643935
-0.01180306 0.02136517 0.028363429 0.03385318 -0.013651561 -0.0067933397 -0.0054991194 -0.0011980677
-0.0067247613 -0.0028984332 0.0031799902 -0.012769073 -0.0035286688 0.007525039 0.019215053 -0.0042170733
-0.0041338876 0.012805759 0.019737942 0.00046245835 -0.0042878664 -0.0009405867 -0.0025994661 -0.0077770776
-0.0010796033 0.0031414255 0.0024808631 0.003717685 0.003265953 0.0019646722 0.0034122856 0.0032036835
0.0039448887 0.00025083678 0.002467089 0.0012621591 -0.0020053305 -0.0038875025 0.0014748272 0.0011686648
-0.00083082693 -0.00096081686 9.0749374e-05 0.0011375764 -0.00045582955 -0.0010891816 -0.0010322066 -0.0004496954
-0.0006996082 -0.0014631668 -0.0014939011 -0.00025131527 -0.0009724425 -0.0011396427 -0.0011787143 0.00018925441
-0.005949403 -0.0016689806 -0.00047688084 0.0019770449 0.0058118086 -0.010451783 0.0018357423 0.001688919
-0.007515522 0.006951533 -0.011426894 -0.0034947684 0.0028355021 -0.00054173765 -0.009358941 0.008386187
0.011014826 0.0016905384 0.0049120104 0.0050265784 -0.0046831314 -0.038231913 -0.031981707 -0.012761264
-0.010124158 -0.038585078 -0.02917703 -0.00292988 -0.021670109 -0.04615067 -0.028183986 -0.0002618043
-0.009742281 -0.0060576005 -0.0048878244 0.01148358 -0.020451223 -0.01085155 -0.016479822 0.0041376944
-0.006695919 0.002244903 -0.007930883 0.00630031 0.0115640825 0.021940328 0.012054754 0.012158068
0.020888379 0.022723606 0.014783932 0.00038367647 0.050718877 0.056701843 0.039410375 0.0055314563
0.059598014 0.05888762 0.03582171 0.0021947308 0.035140336 0.03468599 0.0154733155 0.00053927203
-0.0010082783 7.69364e-05 -0.0018678998 -0.0023881805 -0.0011187632 -0.001840591 -0.0018145131 -0.00062686036
-0.0017902399 -0.000982902 -0.0017820454 0.0009967955 -0.0007904324 -0.00066274585 -0.0005347892 -0.0012595438
-0.010309938 -0.0062698754 -0.001882863 0.0010189133 -0.0022202947 0.0020617438 0.004115543 0.0019764877
0.008618229 0.01519915 0.0050676065 0.0065651326 -0.0015331323 -0.000287243 -0.0061465227 -0.0040449514
-0.001218395 -0.0014773504 -0.0012162544 -0.0018069819 -0.0016952456 -0.0014743928 -0.0017117389 -0.0015102705
-0.000298089 -0.00085095334 -0.0016229472 -0.0012079537 -0.00025289162 -0.000642331 -0.00064164045 -0.0007475228
-0.02810912 -0.03866296 -0.036756177 -0.025267236 -0.023344893 -0.017340548 -0.008491262 -0.0069990754
-0.02544825 -0.016357318 -0.0018608448 -0.0066357045 -0.00731137 0.008316092 0.012526036 -0.0027904504

0.bias f4 [16]
00000000: f43b 5bbd c504 91bd 7c19 07bd 9a8d c13d
00000010: adc5 803e e29b c53d f372 b73c 5dba 9cbc
00000020: 096d b1bd bc43 d53e fee1 0f3e 0ead 903e
00000030: d0c5 acbc cf0b d0bd 9470 59bc e475 bd3e
-0.053523973 -0.07080988 -0.03298329 0.094508365 0.25150815 0.09648873 0.02239368 -0.019131834
-0.08663375 0.4165324 0.14051053 0.2825703 -0.021090418 -0.10158502 -0.01327147 0.37004006

2.weight f4 [32, 16, 4, 4]
00000000: 821d 733b 32c8 483c 8764 a03c 1d6e 0e3b
00000010: 9230 933c 5c10 c23d 38f1 e23c 6442 88bc
00000020: 875a 21bd a865 4bbb 160b 72bc 76b3 78bc
00000030: 609d 05bc c17b ce3b cc5a 8f3c d880 fcba
00000040: 64bf 1d3c 7586 f53c 8762 80b9 13b3 a13b
00000050: 07df 62bb f097 193e a788 023e 2c67 3cbb
00000060: 992a a0ba 62fd 203e 3e7f 053e 77db 08bb
00000070: 9514 f439 5005 353b 7c1d b83b 5ca3 333a
00000080: 7335 b9bc 33fc af3b c64a c83d ac65 603b
00000090: d143 f8bb f19b 653d 5b36 863e 904b e13b
000000a0: 2a13 493b f3d3 443c bc66 193d 5c91 8dbc
000000b0: 6044 41b8 59ee d2b9 4d4c c2b6 a349 273a
000000c0: da8c ca3d 4dba cc3c 5a39 fbbc 93f7 e3bd
000000d0: e123 be3d 986a 9abe 5eba 10be d57f 373d
000000e0: 1267 8a3c 7e8d 73bd bbef a33c b26f cabd
000000f0: 5f2e 353e 4492 cebd 9f0d 4dbe c6ef 853d
00000100: bd24 debc af53 47be 86d7 03be 4bbc 24bd
00000110: d4c8 ce3d 96c1 0f3e 0d38 ed3d 4e84 69bd
00000120: 1e9b 073d fde9 063e 39bb bdbc d295 b6bd
00000130: 595d c93d 4bdb b03b e8e2 01bd 3f05 843e
00000140: d32e 0a3e 9e96 3bbe 02e8 053d 2678 91bd
00000150: 175a f7bd b20d 89bd f8cb 913d b343 dbbd
00000160: 655f b73c 1dd6 11be 7672 cbbd 8ef7 49bb
00000170: 3243 2c3e 8d27 fc3d ffd6 043e 3f74 873e
00000180: 283b 9c3b 0eb2 a7bc 1c8a c7bc d181 b33c
00000190: 89b0 69bd e9bb 8dbd a622 9dbd ceab 263d
000001a0: d156 a03b 413f 063c 72e9 7d3b 0822 32bb
000001b0: 7daa 123d 5765 37bd 2783 03bd 889f 8f3d
000001c0: e921 e9ba 42a9 483c e7e2 553c 718a 153b
000001d0: ad59 803b e5ae ba3d eaa0 2f3d 2b36 d7b4
000001e0: 432a 20bb eaaf b63d 6f57 a83d f451 9f39
000001f0: 428c d63a 1617 a03b 2b51 0d3b fc25 9339
00000200: f461 c3bc 267f 0e3c d583 fd3c 182e 67b8
00000210: 0f5d a3bb 06ec 343e b65d 423e c17c 563b
00000220: 6fbb 19bc f706 173d f172 193e c698 d3ba
00000230: 6ed2 813c 15cb 293c b055 bb3a 7444 823b
00000240: b923 dc3d 0672 d9bd feee b1be 4820 ec3d
00000250: f2dd 553e aee5 4fbe 235b a4be a1f4 3a3e
00000260: 6d18 b13d f6e6 6abe 9d8b 33be eec6 5b3e
00000270: 4317 963e 056e 753d 5456 82bc eef1 7d3e
00000280: af3f 3e3e c058 113e 02fe 653e faa8 a23e
00000290: 057a 4d3b 26c7 fdbd 6835 10be 230a 343d
000002a0: 0702 b73d 945f 23bc 7897 8cbe a44e 153e
000002b0: 6c16 253e 5c99 f13b c313 8c3d 6638 723e
000002c0: f289 413e e442 23be 7103 3a3e ee52 623e
000002d0: 27eb 803d 11a6 31be e50b b23e 9557 833e
000002e0: c849 2c3d c9df 09be aada 113d 8e93 75bc
000002f0: 128a 8c3e 3a4d 2abd 97a2 8a3d d071 8d3e
00000300: 2878 b0bb 8a69 9a3d 859f b43a a585 52bd
00000310: 7928 bd3c 6574 533e 6348 ac3d cdd5 a3bd
00000320: c1ac 0dbc 9823 603d ed13 cb3b 1d15 2dbd
00000330: e596 1eba b710 363b f0b4 cbb9 1eaf a9bb
00000340: b62b 23bd 6296 713d 5a06 a73d c4c9 ad3c
00000350: 309e acb9 b442 093e f11d 653e 3a0e af3d
00000360: 78db 88bd 9ad7 90bd ac3c 9d3d e498 573c
00000370: f004 89bc 0cda 20bd 5beb 7abd 5425 17bd
00000380: cc18 4f3a c731 2f3d 3645 623b 12df 9cba
00000390: 31f1 38ba 7de9 663e 11a1 a33d eae2 2ebb
000003a0: 9059 86b9 f342 563d 74cf 543d aec6 67bb
000003b0: a458 04b8 f7b0 a2ba 4dcb 8a39 1e10 81b8
000003c0: 0987 1f3e 6714 7f3b c668 92bd a5c7 953d
000003d0: c01d 6e3d 0842 71be e25e cabe ab54 25bc
000003e0: 4112 333d f172 a1be 5d19 e0be a7ff da3c
000003f0: cbdb a73e 6a73 983d b7c5 883d 4fc1 c43e
0.0037096445 0.0122547615 0.019579185 0.0021733113 0.017967496 0.094757766 0.027702913 -0.01663322
-0.039392974 -0.0031035934 -0.014773151 -0.015179506 -0.008155197 0.0063013737 0.01749935 -0.0019264473
0.009628151 0.02997134 -0.0002448747 0.0049346774 -0.0034617798 0.14999366 0.12747441 -0.0028748019
-0.0012219726 0.15721658 0.1303682 -0.0020882764 0.0004655464 0.0027621575 0.005618749 0.00068526505
-0.022608494 0.0053706407 0.09779887 0.0034240289 -0.0075764437 0.05605692 0.26213345 0.006875463
0.0030681589 0.012013423 0.03745149 -0.017281227 -4.6078465e-05 -0.00040231904 -5.790533e-06 0.0006381517
0.098901466 0.024991179 -0.030666996 -0.111312054 0.09284187 -0.3015945 -0.14133593 0.044799645
0.01689485 -0.05946111 0.020011773 -0.098845854 0.1769347 -0.10086492 -0.20024727 0.06539874
-0.027117128 -0.19465517 -0.12875184 -0.040218633 0.10096899 0.14038691 0.115829565 -0.05701094
0.033106916 0.13175197 -0.023160564 -0.08915295 0.09832258 0.0053972355 -0.031710535 0.25785252
0.13494425 -0.18319175 0.032691963 -0.071029946 -0.1207773 -0.06692065 0.07118982 -0.10706272
0.022384355 -0.14241834 -0.09933941 -0.003081772 0.16822508 0.12312231 0.1297264 0.26455876
0.004767794 -0.020470645 -0.024357848 0.021912487 -0.057053123 -0.06920607 -0.07672624 0.04069119
0.004893162 0.008193792 0.003874388 -0.0027180929 0.03580712 -0.04477438 -0.0321075 0.0701285
-0.0017786595 0.012247385 0.013054586 0.0022818113 0.00391694 0.0911539 0.04287807 -4.0086283e-07
-0.0024439252 0.08920272 0.08219802 0.00030387903 0.0016368704 0.0048855646 0.0021563272 0.00028066325
-0.023850419 0.008697307 0.030946651 -5.511762e-05 -0.0049854587 0.17668161 0.1898106 0.0032728168
-0.009383067 0.036871877 0.14985253 -0.0016143552 0.015847411 0.01036336 0.0014292505 0.0039754454
0.10749001 -0.10617451 -0.3475265 0.11529595 0.20885447 -0.2030246 -0.32100782 0.18257381
0.08647237 -0.22939667 -0.17533727 0.21462604 0.29314622 0.059919376 -0.015910305 0.2479932
0.18578981 0.14194012 0.22460178 0.31769544 0.0031353247 -0.123915 -0.14082873 0.04395498
0.089359336 -0.009971518 -0.2745931 0.1458078 0.16121835 0.007373018 0.06839707 0.23654327
0.18900278 -0.15943485 0.18165375 0.22101948 0.06294852 -0.17348506 0.347747 0.25652757
0.04206255 -0.13464274 0.035608925 -0.014988793 0.2744909 -0.041577555 0.06769293 0.27625895
-0.0053854175 0.07539661 0.0013780451 -0.051396985 0.023090588 0.2064987 0.08412244 -0.07999764
-0.008647145 0.054721445 0.0061974437 -0.042256463 -0.0006049707 0.002778096 -0.00038853986 -0.0051783463
-0.039836608 0.058981307 0.08155508 0.021214373 -0.00032924255 0.13404351 0.22374703 0.085476354
-0.06682485 -0.07072373 0.07677588 0.013159011 -0.016725987 -0.039270446 -0.06125961 -0.036900833
0.00079001184 0.04277208 0.0034526116 -0.0011968336 -0.0007054983 0.22550006 0.07989705 -0.0026685544
-0.000256252 0.05230994 0.051955655 -0.0035366225 -3.1553805e-05 -0.0012412359 0.00026472882 -6.1542014e-05
0.15578856 0.0038922073 -0.0714889 0.0731347 0.05813384 -0.23560345 -0.39525515 -0.010090987
0.04371858 -0.31533006 -0.4376935 0.026733233 0.32784876 0.074438885 0.06678336 0.38428733

2.bias f4 [32]
00000000: fb18 06be 50c0 c6bd 3f5b 67bd ae57 383b
00000010: 3ed2 81bd 31c4 c3bd 8de7 12be b7b2 ebbd
00000020: 4c3b b8bd a54b a6bd 671a f2bd c5fd 24bc
00000030: bddb 96bd 4c8e b6bd 1e0c 74bd 678d 64bd
00000040: 6e50 95bd 57c9 9abd c8ea b63d 3466 f9bc
00000050: 358f d4bd ff4b 4cbe a353 fdbd c919 dabc
00000060: e0bf 10bb fd09 31be dd56 6fbe 8d7b 09be
00000070: 1cea 2fbc 12ac c5bd a89b c8bd ead0 f1bd
-0.13095467 -0.097046494 -0.056483503 0.0028128433 -0.06338929 -0.09558905 -0.14346142 -0.115086965
-0.08995685 -0.08119897 -0.11821442 -0.010070269 -0.073661305 -0.0891386 -0.05958187 -0.055798914
-0.07290731 -0.07557934 0.089315 -0.030444242 -0.10378877 -0.19950865 -0.12369468 -0.026623623
-0.0022087023 -0.17288966 -0.2337298 -0.13426037 -0.010736968 -0.096519604 -0.09795314 -0.11807425

5.weight f4 [100, 1568]
00000000: e3b9 47bc 5efa 9abb 5787 aabd 511c 56bd
00000010: 8dab 9dbd b071 88bd 0390 f1bc 4add aa3b
00000020: 638d f53c 9b5e 423c bfc4 cdbd dbcc afbc
00000030: 7c7a 81bc d497 9d3b 81ff 2e3c 5ef3 223c
00000040: 432d aabb 4245 3bbc dbcb a3bd b099 543d
00000050: a801 1d3c a333 c1bb 6f08 153d 4c89 af3d
00000060: 200a 013c 6458 1d3d ea2b 0bbc e33e ad3c
00000070: fd07 263c 671d 953d 8381 4fbd fd81 84bd
00000080: e78b 2e3d 4080 ff3c 6e85 91b8 760e e33b
00000090: c2a6 8f3c 048c a63b 7062 17bb 03d5 503b
000000a0: 4c58 52bc 46b9 59bc 41ae 1b3d 7b77 7bbc
000000b0: 8eec d43a b328 b1ba ce2b 08bb 50fa 54bb
000000c0: 3d03 57bc 1d3f 34bb fa05 d03c 79c9 02bd
000000d0: 10ec a8bc e572 64bc 44b7 fdbb bbc8 65bc
000000e0: f222 a9bd d798 463c 935a c53c 3b2a 21bb
000000f0: c311 d73b e77d 283c bfb1 f7bc 75f0 85bd
00000100: 3fed 7c3c 821a 983c 214c ca3d fd28 7abd
00000110: 0f21 78bd 4dea b43b 1be6 80bb 9de6 0fbe
00000120: b2c0 fd3d 21ea 523a 5144 07bd a693 0a3e
00000130: ffbb 33bc 4426 a4bd 2c96 a43d 8baa d63d
00000140: 5f72 b2bb abab 983c 1d98 183d 971d 273d
00000150: e142 67bd ad5c 893a ee0d 553c 3f9c 0cbc
00000160: c87b c8bc 6226 2c3c c0ac 47bd 0067 e8bc
00000170: 7a4b 4b3c d29d 6abd 48d3 713c 9f68 033c
00000180: a7cd 9dbc 8c5d e93a 70d6 d53c 1051 3b3d
00000190: 32b3 033d c03a 3f3d 3cc5 bc3c 0285 933d
000001a0: f272 f73c 9154 86bd f51e 47bd a783 8dbc
000001b0: 1d59 0b3c 1142 23bc db41 393c 9105 123d
000001c0: 4e46 47bd d548 9cbc b058 8ebc b170 613d
000001d0: e5ff 70bd 2cd9 e83c 0434 213d b5fc b63c
000001e0: be8a 51bd 1ae2 d63d 4aac e63d 9465 253d
000001f0: 452c 53bb 91bf 293d e40d 93bd 2239 17bd
00000200: 7958 53bc 5a7e 3ebd 28ec 943d 26e3 d33c
00000210: 7520 2abd d720 e9bc bcf6 17be 1c84 07be
00000220: 02cd b43c 2894 f7bc 6280 71bc 4114 393d
00000230: 2768 94ba 7506 3f3c caf0 69bc 1cee 053d
00000240: 69e4 92bc 060e 13bc d602 e23c a430 23bc
00000250: bb4d e5bb 75da 2fbc d356 ccbb 84d3 713c
00000260: 1f62 f83b 4b64 d3bc ee04 6a3c 936b 143b
00000270: 2a01 833a b3c3 1f3c fac4 67bc 6e1f 2fbb
00000280: 47b4 663c 7808 863c 6a3c 693c 093d 68bb
00000290: b5f8 263b a44a 863c 0315 903b 26d9 633c
000002a0: 37a5 513c e177 353c 8da5 423c 0799 8abc
000002b0: bfd3 b5bc d5fe ccbc ac1f a23c b726 66bc
000002c0: 56a9 a2bc 0498 533b 7a5c 9fbb 515d 033c
000002d0: f61b d8bb 354a a03c 9125 c4bc 8ddf cbbc
000002e0: 2630 b23c bf8b 33bc bfca ca3b c2c8 163c
000002f0: ebe0 813b 3a35 ffbb 5d78 333b a172 87bc
00000300: 4483 ae3c b682 7f3b a66e 953c 8f24 923c
00000310: bce9 b13c d1be 863a 619a 233b ed6b 1dbc
00000320: 8adc 963a aec4 f43b c5e8 843c c67f f2bb
00000330: e119 0e3c 4e84 dabd 0f3c f3bd be0d 1b3d
00000340: 8300 443d e33d bdbc 4010 86bc 5f82 2f3c
00000350: fa34 af3a ffa2 173d b3c2 03bc c847 4bbe
00000360: f358 003d cc36 1fbc 714c 613c 1304 ff3c
00000370: 5460 e63c d0d9 c13c 7b51 25bc 9565 153c
00000380: 4085 9abb 5900 963c 5c66 3c3d d60f f23c
00000390: 59ca 9bbc 3260 c1bd 8181 b3bb 1a18 773c
000003a0: 6963 7a3c 6ab6 10be b4a1 4ebd 8098 2abc
000003b0: 9959 bf3b 3ad6 8abc a4d5 283d 5b5d 9f3c
000003c0: eef5 ce3c 2a64 abbb 639f 933b 336d 983c
000003d0: 0567 383d 7ef8 86bd fb7c e9bd 80fe 3a3d
000003e0: 52df dabc 7d41 08bc de10 9abc b83e 8d3c
000003f0: c61a 6bbd de8c c8bc 650a 02bc 012f 67bc
-0.012190315 -0.004729553 -0.08326595 -0.0522731 -0.07698736 -0.06662309 -0.029487615 0.005214368
0.029974645 0.011863376 -0.10047292 -0.021459987 -0.015805475 0.004809359 0.010681034 0.009945719
-0.005193384 -0.011430087 -0.07997867 0.05190438 0.009582914 -0.005896048 0.036384996 0.08571109
0.007875949 0.038414374 -0.008494357 0.02114815 0.0101337405 0.07280999 -0.05066062 -0.06470106
0.04261389 0.031189084 -6.938992e-05 0.006929214 0.017535571 0.005082609 -0.0023099445 0.0031865246
-0.012838434 -0.013288802 0.03800798 -0.015348311 0.0016244815 -0.0013516158 -0.0020778063 -0.003249783
-0.013123331 -0.0027503439 0.025393475 -0.03193042 -0.020620376 -0.013943409 -0.007742794 -0.014024909
-0.082586184 0.012121401 0.02409104 -0.0024591822 0.0065633967 0.010283924 -0.030236123 -0.06540004
0.015437423 0.018567327 0.09877802 -0.061074246 -0.060578402 0.005521095 -0.0039336807 -0.14052816
0.12390269 0.0008045752 -0.033024136 0.13532886 -0.010970115 -0.08015111 0.080364555 0.10481747
-0.005445763 0.018636545 0.03725444 0.040799703 -0.056460265 0.001047989 0.013003809 -0.008582174
-0.024473086 0.010507198 -0.04874873 -0.028369427 0.012408132 -0.057279415 0.014759846 0.008020549
-0.019263102 0.0017804368 0.026103228 0.045731604 0.032153316 0.046686888 0.023043267 0.072031036
0.030206177 -0.065590985 -0.048613507 -0.01727469 0.008505133 -0.009964482 0.011307205 0.03564984
-0.048651032 -0.019077698 -0.017376274 0.05503911 -0.05883779 0.028423868 0.039356247 0.022337297
-0.051157705 0.10492344 0.1126333 0.040380076 -0.0032222432 0.041442458 -0.07180384 -0.03691972
-0.0128995115 -0.046507217 0.07271606 0.025865149 -0.04153486 -0.028458042 -0.14840215 -0.1323399
0.022070412 -0.030222014 -0.0147400815 0.04518533 -0.0011322544 0.011659254 -0.0142786 0.032697782
-0.01793118 -0.008975511 0.027589243 -0.009960327 -0.0069977916 -0.010733237 -0.006235936 0.014759902
0.0075800563 -0.02580466 0.014283402 0.0022647127 0.0009994854 0.009751248 -0.014146084 -0.0026721614
0.014081067 0.01636146 0.014235595 -0.003543677 0.002547783 0.016393013 0.004397036 0.013906753
0.012795738 0.011075945 0.011880291 -0.016918672 -0.022195695 -0.025023857 0.019790493 -0.014047316
-0.019856136 0.0032286653 -0.004863319 0.008017854 -0.00659513 0.019566635 -0.023943694 -0.02488687
0.021751475 -0.010958611 0.00618872 0.009203138 0.00396358 -0.0077883275 0.0027384975 -0.016534152
0.021302827 0.0038987822 0.018241238 0.017839698 0.021717899 0.0010280256 0.0024963843 -0.009608251
0.0011509818 0.007469735 0.016224274 -0.0074004857 0.008673162 -0.10669766 -0.1187669 0.037854902
0.04785205 -0.023100799 -0.01636517 0.010712235 0.0013367229 0.03702068 -0.008042025 -0.19851601
0.03133483 -0.009717654 0.013751135 0.031129872 0.028122105 0.023663431 -0.010090227 0.009118457
-0.0047155917 0.018310713 0.045996055 0.029548567 -0.019017385 -0.09442176 -0.0054780846 0.01508143
0.01528249 -0.14132085 -0.05044718 -0.010412335 0.0058395383 -0.016947854 0.04121937 0.019453695
0.025263753 -0.0052304463 0.0045050844 0.018606758 0.045020122 -0.06590365 -0.11400791 0.045652866
-0.026717816 -0.008316395 -0.018806871 0.01724182 -0.05739858 -0.024481233 -0.007937049 -0.014110328

5.bias f4 [100]
00000000: 592a 153e 1784 a73d 42c0 3dbd 10a3 18be
00000010: a4bb b73d b674 ffbb d06c 4f3e bfe4 cb3d
00000020: 7f0d 13bd 9b1f 273e 19da 8bbc f868 703e
00000030: 2c34 ee3d c19e 3c3e 4c1b da3b 0f47 ef3d
00000040: 2189 963d 71f1 97bd 61aa 30bc d934 363e
00000050: 0c66 13bd 6b98 c13d f0ee 013e 57d7 233e
00000060: 5633 79be 49a7 bf3d 82dc 84bc 254c 3dbe
00000070: 2d6e c53d 0054 cfbc 39bc 12bd 976c ad3d
00000080: 75d5 f9bc c3d6 403e b267 3abd 043d cfbc
00000090: d299 d2bb becc 5ebd ddd9 b8bc af1d 05be
000000a0: fa24 09bd 6243 cc3d 52c0 9fbd caa2 523c
000000b0: 88c8 523d 5a9c b83d 7164 c0bc ecf9 7a3e
000000c0: 7849 65bc 5a9d 8a3d bd86 c1bc fd7b 0fbd
000000d0: da6f 0bbd 0a04 1f3e d373 3b3e 1452 443e
000000e0: 06d8 d23d 7d49 0bbd c506 8f3d 82ba 833d
000000f0: f628 ddbc 87ae 3b3d 5175 f0bc b860 dd3d
00000100: 996b 233d 855c 783e 33fb 5abd 1bb6 683d
00000110: aa7a 80bc 988c 5f3e 51df b2bc 71ae 0f3e
00000120: a8ad 813e 6d89 49bd 5b4a d9bc b5b8 6b3d
00000130: 4c4c d1bc bd93 9a3d 243b 72be a9ef 86bd
00000140: 30c4 153e 40da f8bc a02f 4abe 9d52 ce3d
00000150: 9777 d3bd 2607 37bd 941a b5bb c934 c33d
00000160: e139 14bd 5df7 fd3d e34c bebd 9edb 103e
00000170: 3e44 023e c269 213e 4cdd 6e3e 5144 df3c
00000180: f996 8c3c 6625 d63d 85e3 7e3e a943 d0bb
0.14566936 0.08179491 -0.04632593 -0.14905953 0.089713365 -0.0077958954 0.20256352 0.09955739
-0.035901543 0.1632065 -0.01707177 0.23477542 0.11631045 0.18419935 0.006656086 0.11683475
0.07350374 -0.07419098 -0.010782809 0.17793597 -0.03598599 0.094528995 0.12688804 0.16000114
-0.2433599 0.09358079 -0.016218428 -0.18486078 0.09640155 -0.025308609 -0.035824034 0.084679775
-0.030497292 0.18831925 -0.045509048 -0.02529765 -0.006427028 -0.054394476 -0.022564823 -0.12999605
-0.03348253 0.0997379 -0.07800354 0.012856195 0.051460773 0.09014197 -0.023485394 0.245094
-0.013994567 0.06768294 -0.023623819 -0.035030354 -0.034042217 0.15528885 0.18305902 0.19171935
0.102951095 -0.03400563 0.06983713 0.06432058 -0.02699707 0.04582074 -0.029352816 0.10809463
0.039897535 0.24254043 -0.05346222 0.056814294 -0.01568349 0.21830976 -0.021835001 0.14031388
0.25327802 -0.049203325 -0.026524713 0.057549197 -0.025549076 0.0754771 -0.23655373 -0.0658868
0.14625621 -0.030377507 -0.1974473 0.10074351 -0.10325544 -0.04468455 -0.00552685 0.09531552
-0.03618801 0.124006964 -0.09292009 0.14146277 0.12721345 0.15763 0.23326606 0.027254255
0.017161833 0.10456352 0.2489148 -0.006355722

7.weight f4 [10, 100]
00000000: 3725 593d 3ea7 78bc 8804 aebd 1cd8 d83e
00000010: 0815 fbbd 9ee8 72bd 5af3 9e3b 50cb b6bd
00000020: d193 edbd 0d36 c13d c809 adbc 589e 3cbe
00000030: 8c19 3cbe db13 30be 972e 9f3d 8d33 df3c
00000040: 5832 7cbd fae0 33bc 6baa 88bd e788 4cbe
00000050: d5e2 483c b9df 03bc fd9d d6bd 4ca2 13be
00000060: 8b2b b73d 93c1 2c3d 2c52 96bd f317 54be
00000070: f11c 14be 426b 78bd dcd1 a83d bba4 01be
00000080: c0cd 013e 0267 86bd d7f9 053d 58bf 013d
00000090: fe9a 8ebd 67c4 0bbe 4055 9f3d f3e7 503c
000000a0: 3439 853e b983 35bd db7b 83be ac88 a0bd
000000b0: 2442 d3bd 0600 9abd 87c9 f6bc a59a fcbd
000000c0: 2064 95bd 2cca aa3c d1bf 78bd 0b66 39bd
000000d0: a8fe 62be e496 d8bd 741d 063c 8136 fdbd
000000e0: d734 26bd 3ca3 bdbd 470a 63bd 4104 c03d
000000f0: 1c1b 25bd 096a 8c3c ca39 21bd 529f 333e
00000100: b218 0abe 6b66 7fbd b22c 2a3e c447 fdbd
00000110: 4400 adbd ea52 05be 4173 0bbd 88e5 8cbd
00000120: 7bac 57be 5233 e4bc 6bd3 5d3e b774 b1bd
00000130: be33 c03c 76e8 263e 8a0a 883e 0447 3e3f
00000140: 6c52 53bd 7d16 94bc 2259 033f 110a ccbc
00000150: 217f fb3e 6fb1 cb3b 5120 483d 3777 bd3c
00000160: 713b eaba bc5c ccbd 1cf5 efbc f3cb 5dbd
00000170: 61eb 05bd 6f64 10bd 46d9 92bd 6acc b9bd
00000180: 719b 4a3d 4c70 bbbd 766c 39bd 82ac 863d
00000190: 972f 603d dac6 7abc 5697 aebd de8a 50bd
000001a0: 6364 7d3e e95e b93c 7ec1 9c3b 8715 e43d
000001b0: 88a3 b13d 35b5 d4bd 3dbc 5d3c 527c 0dbe
000001c0: bd90 3cbe ca20 913c 6c3d 03bd c597 2fbd
000001d0: f787 7cbd 9d32 54bc c097 8ebd f2ee 803c
000001e0: d859 9cbc 4ef2 11bd f16f 62be b35f e4bc
000001f0: 275d 48bc 449d ec3b 1c75 57bd 09af 4f3f
00000200: 422c 253e c0ee 753d 2d3a 463d 4eeb 00be
00000210: cd00 93bd 679a a23d 0aa6 823d 13dd 153d
00000220: 16c1 8fbd c12c 0cbe e85b 28bd 0a19 603c
00000230: b089 cbbd fd16 37be e57e 83be c88a 833d
00000240: dcef d3bd 15d7 99bd 52ad b9bc f0c6 293f
00000250: f2d1 2ebd abba a93c bbe2 cb3b 117c 1e3d
00000260: 7bb8 63be 0030 143d 8d9d dfbb e493 7cbd
00000270: 406c 2bbd 1abb aebb 95b6 68bd 8a0e 173d
00000280: 33e1 1d3d d962 943c 064a a13c f15f 6cbe
00000290: ee37 7fbe 2beb 7cbd 7263 e1bd d817 bc3d
000002a0: 28d0 6c3b ec0d 04be 597f 9f3c 39a8 89bd
000002b0: 0d70 08be 4bc5 e3bc 5150 4e3d ac4b 6f3f
000002c0: cc27 513c 82f4 5bbe 0a5f b3bc c390 1fbe
000002d0: 892b 03be 54b6 1d3d 8eff d5bd 26dd 8abd
000002e0: 033e a9bc 1d24 cc3b ba61 1bbd 8e6e c23c
000002f0: 0d9a a0bd c5b3 513e 93d1 e23c e751 5ebd
00000300: 0645 513f 3dfc dcbd fad0 86bd 9f5c b9bd
00000310: 8a3d 94be 2050 e0bd c8c6 dabb b34c 2b3d
00000320: f897 4d3d b4c4 7abc ba0c aebd 9e4d 52bd
00000330: 8493 fabd dc8b fb3c 309f 9e3b c8c2 91bc
00000340: 9e78 313e 7699 2ebe e608 d9bc 6b07 b63d
00000350: 9e93 3cbe 7dd8 24be eafb 75bd af64 35bd
00000360: be0b 7bbd 241f 1cbb 6582 993c 0eb7 003e
00000370: f1d2 d0bc 81cc 15bd b14f a5bd 8383 603e
00000380: af6c b53d 37e9 2ebe 115a 8f3e ad18 54be
00000390: 366a 023e bc32 93bd 0740 a2bd 9fbb 01be
000003a0: 33ec 93bd 2007 66bd ee77 123d 7eb6 19bc
000003b0: 8e48 91bd 4d17 0cbe e4f4 083d 5038 963c
000003c0: d44e c3bd d4c3 bb3c 1360 83be fa99 873d
000003d0: c8ee d3bd c6ce d83e 4df6 4f3c d6ae fdbd
000003e0: 9ace 403d d546 aa3c 4975 84bd 3691 743d
000003f0: 38e8 243f 251c d2bd 942f bdbd c6a0 f9bd
0.053014006 -0.015176592 -0.08496958 0.42352378 -0.12259871 -0.059303872 0.004850787 -0.089254975
-0.11600459 0.094341375 -0.021122828 -0.18419778 -0.1836912 -0.17195074 0.07772558 0.027246261
-0.06157145 -0.010978932 -0.0667313 -0.19974099 0.012261112 -0.008048945 -0.104793526 -0.1441738
0.08943852 0.042176794 -0.07339892 -0.20712261 -0.14464165 -0.060649164 0.082431525 -0.12660496
0.12676144 -0.06562616 0.03270897 0.03167662 -0.06963156 -0.1364914 0.07779932 0.0127506135
0.26020205 -0.044315074 -0.25680432 -0.07838568 -0.1031535 -0.07519536 -0.030125393 -0.123341836
-0.07294488 0.020848356 -0.060729805 -0.04526333 -0.22167456 -0.10575655 0.008185733 -0.123639114
-0.040577736 -0.0925965 -0.055429723 0.09375811 -0.040309057 0.017140405 -0.039361753 0.17541245
-0.13485983 -0.062353533 0.16618612 -0.12367204 -0.08447316 -0.1301991 -0.03404546 -0.06879717
-0.2106189 -0.027856503 0.21662681 -0.0866484 0.023462173 0.16299614 0.2657054 0.7432711
-0.051592276 -0.01807713 0.5130788 -0.024907144 0.4912043 0.00621622 0.048858944 0.023128135
-0.0017870498 -0.09978625 -0.029291682 -0.05414958 -0.032695178 -0.03525203 -0.07170348 -0.09072192
0.049464647 -0.09152278 -0.045269452 0.06575872 0.054732885 -0.015306199 -0.08524959 -0.050913684
0.24745326 0.022628265 0.0047838083 0.111369185 0.08673769 -0.10386125 0.013533649 -0.13816956
-0.18414588 0.01771583 -0.032041 -0.042869348 -0.061653104 -0.01295152 -0.06962538 0.015738938
-0.01908581 -0.03563147 -0.22113015 -0.027877664 -0.0122292405 0.007220896 -0.05260192 0.8112646
0.16130164 0.060042143 0.048395324 -0.12589762 -0.07177887 0.07939606 0.06379326 0.036587786
-0.0701925 -0.13688947 -0.041103274 0.013677845 -0.09938371 -0.17879863 -0.2568275 0.06422955
-0.10348484 -0.07511727 -0.022665653 0.6631918 -0.04268069 0.020718893 0.0062220967 0.038692538
-0.22238342 0.03617859 -0.0068242014 -0.061664477 -0.041851282 -0.005332363 -0.05681475 0.0368791
0.038544845 0.01811354 0.019688617 -0.23083474 -0.24923679 -0.06174771 -0.11005296 0.09184235
0.0036134813 -0.12895936 0.019469904 -0.06721539 -0.13323994 -0.027804038 0.050369564 0.9347484
0.012765836 -0.21479991 -0.021895904 -0.15582566 -0.12809576 0.03850396 -0.10449134 -0.06780462
-0.020659452 0.006229891 -0.037934996 0.023734357 -0.07841883 0.20478733 0.027687823 -0.054277327
0.81745946 -0.10790298 -0.06582828 -0.09050869 -0.289532 -0.10952783 -0.0066765286 0.041821193
0.050193757 -0.015305687 -0.08498521 -0.051343553 -0.122351676 0.030706339 0.004840754 -0.017793074
0.17331168 -0.17050728 -0.0264935 0.088881336 -0.18415686 -0.16098209 -0.060054697 -0.044285472
-0.061290495 -0.0023822272 0.018738935 0.1256983 -0.02549121 -0.036571983 -0.080718406 0.21925168
0.088586204 -0.17081152 0.27998403 -0.20712538 0.12735829 -0.07187411 -0.079223685 -0.12669228
-0.07222786 -0.05615914 0.035758905 -0.009381888 -0.07093917 -0.13680764 0.03343667 0.018337399
-0.0953652 0.022920527 -0.25659236 0.066211656 -0.10348278 0.42345256 0.012693 -0.12386863
0.04707203 0.020785728 -0.06467683 0.059708796 0.6441684 -0.102592744 -0.092375904 -0.12188868

7.bias f4 [10]
00000000: 3b20 79be 485c 71be 9a98 41bd 14e8 09be
00000010: c5a1 d33d c4d6 823e 5850 9bbd 4b50 00be
00000020: e2c9 4b3e b608 c73d
-0.24328701 -0.23570359 -0.047264673 -0.13467437 0.103335895 0.25554478 -0.07583684 -0.1253063
0.19901231 0.09718458
