models/non_seq_trained/l_2/more_cifar_small_2.pth (torch, 862159 bytes, 8 tensors)

0.weight f4 [16, 3, 4, 4]
-0.059936523 -0.026327282 0.033739526 0.066225186 -0.074779995 -0.032057345 0.040045846 0.076618075
-0.07671863 -0.032333247 0.039501704 0.07615436 -0.062063076 -0.02625808 0.03286164 0.062948644
-0.072522394 -0.033165213 0.028472476 0.064224556 -0.083256096 -0.0363581 0.03867661 0.07722814
-0.08284734 -0.034492634 0.039524596 0.07792752 -0.06629244 -0.027680226 0.03323205 0.06455315
-0.06556878 -0.027194094 0.03336912 0.066819854 -0.07859714 -0.03268151 0.04093366 0.076940686
-0.07811772 -0.032603417 0.040014178 0.0773979 -0.061650947 -0.025145657 0.03327583 0.06440591
0.1473274 0.16107896 0.15583311 0.14247046 0.19481847 0.20868084 0.20149039 0.18749408
0.17507194 0.18841407 0.18288016 0.16522676 0.11974438 0.13500147 0.12856144 0.10957101
-0.069574684 -0.08177331 -0.08267924 -0.07227703 -0.09486104 -0.10664156 -0.113429554 -0.10253942
-0.11867008 -0.13235535 -0.138102 -0.12700406 -0.10445428 -0.114160605 -0.11886497 -0.11021632
-0.060897354 -0.073075265 -0.071662195 -0.055325706 -0.09576723 -0.10736359 -0.114262186 -0.097278126
-0.107004054 -0.12418845 -0.13076212 -0.11483891 -0.084848724 -0.09567363 -0.10115695 -0.08929347
-0.052206025 -0.074692905 -0.07596342 -0.056848727 -0.08695884 -0.1122219 -0.1100289 -0.08537589
-0.09084531 -0.11738268 -0.11870973 -0.095668875 -0.060976744 -0.08360587 -0.090430774 -0.07125131
-0.042507995 -0.06393546 -0.06521196 -0.050019637 -0.07367187 -0.099013865 -0.09672507 -0.07580934
-0.071986526 -0.09879068 -0.0991674 -0.08027761 -0.04038681 -0.06251923 -0.06923339 -0.053968873
-0.04874851 -0.067187205 -0.067917675 -0.0534445 -0.08074054 -0.10453366 -0.10102866 -0.079878695
-0.08154603 -0.10441002 -0.106685884 -0.089549676 -0.050849903 -0.07029602 -0.078415655 -0.063757904
0.045058213 0.07404903 0.07030311 0.04375673 0.08754213 0.123504974 0.117880054 0.08011148
0.08298116 0.1187343 0.1140799 0.07582348 0.03190654 0.061417297 0.060967945 0.034715243
0.06587924 0.09900308 0.094898395 0.06593009 0.11406895 0.15285209 0.14607766 0.107141525
0.10673838 0.14768736 0.1399682 0.09963818 0.053884547 0.087123044 0.084208004 0.05675113
0.08252819 0.119398125 0.11486391 0.081085525 0.13583633 0.18233408 0.17431256 0.12835221
0.12858373 0.17295726 0.16701923 0.121440105 0.07011752 0.10666391 0.10516299 0.07123728
-0.027101679 -0.049795985 -0.04672383 -0.025189212 -0.062305234 -0.0939561 -0.08805943 -0.049838446
-0.062213607 -0.09266053 -0.08794014 -0.04645479 -0.031588353 -0.050546028 -0.048497602 -0.01824182
-0.030043323 -0.052965235 -0.047538657 -0.02520695 -0.06386888 -0.09351461 -0.08374292 -0.04929585
-0.06110206 -0.09230397 -0.08466348 -0.042321034 -0.033578746 -0.05091882 -0.044394817 -0.015349103
-0.03720606 -0.05698477 -0.04884455 -0.028849473 -0.06919605 -0.10031314 -0.08905154 -0.05428749
-0.06686323 -0.09475971 -0.08882662 -0.049798533 -0.03485689 -0.052758437 -0.048165374 -0.019626543
0.05079517 0.07065031 0.061132133 0.03638547 0.092771634 0.12029096 0.10806387 0.071195744
0.0921637 0.11741174 0.10690911 0.074112564 0.04882017 0.05861577 0.062036972 0.04524071
00000000: 0080 75bd 50ac d7bc 7532 0a3d 12a1 873d
00000010: 4126 99bd 904e 03bd 1d07 243d f0e9 9c3d
00000020: a81e 9dbd de6f 04bd 8acc 213d d1f6 9b3d
00000030: da35 7ebd 2f1b d7bc ed99 063d 38eb 803d
00000040: 9f86 94bd 3fd8 07bd 1c3f e93c 2a88 833d
00000050: 2c82 aabd 3bec 14bd 5d6b 1e3d c929 9e3d
00000060: deab a9bd 2648 0dbd 8be4 213d 7798 9f3d
00000070: 55c4 87bd a4c1 e2bc 541e 083d 7134 843d
00000080: ed48 86bd 26c6 debc 0fae 083d d9d8 883d
00000090: 8af7 a0bd 0cdd 05bd 0eaa 273d 1493 9d3d
000000a0: 2ffc 9fbd 298b 05bd e8e5 233d ca82 9e3d
000000b0: b485 7cbd 44fe cdbc 3d4c 083d 3fe7 833d
000000c0: fedc 163e e2f1 243e b792 1f3e c7e3 113e
000000d0: 7e7e 473e 6eb0 553e 7f53 4e3e 73fe 3f3e
000000e0: 0f46 333e 9eef 403e f044 3b3e 3431 293e
000000f0: 8b3c f53d d33d 0a3e 9ca5 033e c466 e03d
00000100: 2c7d 8ebd c478 a7bd bc53 a9bd fb05 94bd
00000110: 8146 c2bd e466 dabd c14d e8bd 3000 d2bd
00000120: 4d09 f3bd 2988 07be 9c6a 0dbe 5a0d 02be
00000130: 20ec d5bd 09cd e9bd 7a6f f3bd 18b9 e1bd
00000140: 816f 79bd 7ca8 95bd a1c3 92bd 359d 62bd
00000150: 9c21 c4bd 71e1 dbbd 4b02 eabd c139 c7bd
00000160: f124 dbbd 8456 febd 81e6 05be aa30 ebbd
00000170: 2bc5 adbd 89f0 c3bd 602b cfbd 7fdf b6bd
00000180: fcd5 55bd 98f8 98bd b692 9bbd 36da 68bd
00000190: 7a17 b2bd 98d4 e5bd d556 e1bd 8ed9 aebd
000001a0: 1b0d babd 5566 f0bd 161e f3bd 0bee c3bd
000001b0: c0c2 79bd 8e39 abbd c533 b9bd 35ec 91bd
000001c0: dd1c 2ebd 98f0 82bd d98d 85bd 64e1 4cbd
000001d0: 47e1 96bd c8c7 cabd cb17 c6bd ed41 9bbd
000001e0: ac6d 93bd c552 cabd 4718 cbbd 9668 a4bd
000001f0: a46c 25bd 150a 80bd 3cca 8dbd 770e 5dbd
00000200: 85ac 47bd 7299 89bd 6c18 8bbd 9fe8 5abd
00000210: 4c5b a5bd be15 d6bd 1de8 cebd 7197 a3bd
00000220: 9b01 a7bd ecd4 d5bd 217e dabd d265 b7bd
00000230: fd47 50bd 5cf7 8fbd 6398 a0bd 8193 82bd
00000240: f68e 383d 05a7 973d 14fb 8f3d 423a 333d
00000250: 4a49 b33d 2df0 fc3d 196b f13d 7d11 a43d
00000260: 07f2 a93d f82a f33d b9a2 e93d 5749 9b3d
00000270: 6fb0 023d b490 7b3d 86b9 793d 9231 0e3d
00000280: b2eb 863d 20c2 ca3d 175a c23d 5b06 873d
00000290: fb9c e93d 4285 1c3e 6295 153e 046d db3d
000002a0: a799 da3d 5b3b 173e d353 0f3e 1a0f cc3d
000002b0: 0bb6 5c3d 916d b23d 3f75 ac3d df73 683d
000002c0: 8a04 a93d 0187 f43d c53d eb3d 2b10 a63d
000002d0: ae18 0b3e c9b5 3a3e fe7e 323e c36e 033e
000002e0: 74ab 033e b51b 313e 1707 2b3e 97b5 f83d
000002f0: c699 8f3d 9c72 da3d b25f d73d dae4 913d
00000300: 5704 debc e0f6 4bbd 7d61 3fbd 9b59 cebc
00000310: c633 7fbd 0e6c c0bd 8158 b4bd 6623 4cbd
00000320: b2d3 7ebd cec4 bdbd f619 b4bd 6147 3ebd
00000330: ca62 01bd 5a09 4fbd 6ca5 46bd df6f 95bc
00000340: 6a1d f6bc 13f2 58bd e5b7 42bd ce7e cebc
00000350: b0cd 82bd 9684 bfbd 6881 abbd 72ea 49bd
00000360: 2746 7abd dd09 bdbd 0c64 adbd d258 2dbd
00000370: de89 09bd 4190 50bd 57d7 35bd ce7a 7bbc
00000380: 6265 18bd dd68 69bd 3911 48bd bb55 ecbc
00000390: a9b6 8dbd fa70 cdbd a760 b6bd 8f5c 5ebd
000003a0: 97ef 88bd 6111 c2bd bbea b5bd 8cf9 4bbd
000003b0: 19c6 0ebd 3b19 58bd 0e49 45bd d8c7 a0bc
000003c0: 990e 503d 1cb1 903d b065 7a3d ee08 153d
000003d0: 0eff bd3d 1b5b f63d 9750 dd3d 13cf 913d
000003e0: 52c0 bc3d 9175 f03d 2af3 da3d 54c8 973d
000003f0: a9f7 473d 1717 703d 7b1a 7e3d 534e 393d

0.bias f4 [16]
-0.5652749 -0.14924763 -0.04499537 -0.8093322 1.9941527 1.6360896 -0.6895988 -0.53182757
-0.7958181 -0.023830738 -0.007101288 -0.0020743683 1.2205056 1.7621312 -0.009584654 -0.0077844234
00000000: dbb5 10bf 5fd4 18be 114d 38bd 6530 4fbf
00000010: 6540 ff3f 626b d13f 8c89 30bf da25 08bf
00000020: bcba 4bbf ae38 c3bc ecb1 e8bb 20f2 07bb
00000030: 8739 9c3f 848d e13f f408 1dbc 7a14 ffbb

2.weight f4 [32, 16, 4, 4]
-0.005254653 3.9217866e-05 0.0075916774 0.009293568 0.0005036939 0.008291451 0.0011698726 -0.0015543733
0.015734348 0.0022989411 -0.014237022 -0.017218761 0.0137038445 -0.003612459 -0.012416215 -0.00049273495
-0.003448782 -0.00043844525 -0.004048369 -0.0011778586 0.001323908 0.0057104784 -0.0023114218 0.000626289
0.00034440838 0.0023672788 -0.00020793735 7.66493e-05 -0.00041691252 0.0004975465 0.0003203165 -0.000853033
0.14835854 0.19436279 0.023585342 -0.040821597 0.17510971 -0.016225282 -0.097636566 -0.12208735
-0.036727738 -0.1309272 -0.09521418 -0.028408162 -0.08975629 -0.08760278 -0.014368423 0.044243857
-0.03269977 -0.07684795 -0.14388005 0.0015130216 -0.22860894 -0.052958783 0.0147001 0.1346825
-0.046996485 0.16402182 0.24196169 0.19915494 0.014023024 0.12165681 0.07626962 -0.004885406
0.17115174 0.3469126 0.1944634 -0.03514574 0.36192733 -0.02801592 -0.2455765 -0.2961377
-0.08783157 -0.36410412 -0.28590712 -0.12882604 -0.1765207 -0.21158578 -0.07460567 -0.0009216219
-0.007909343 -0.20208962 -0.23611441 0.040301874 -0.45268512 -0.28841537 -0.04259098 0.13699561
-0.13299268 0.15066925 0.21735932 0.13752015 0.06682721 0.08158329 -0.060366217 -0.26606557
-0.023120366 -0.0038076446 0.04395891 0.07220266 0.037675433 0.085548356 0.07153233 0.015715646
0.088741034 0.028641967 -0.0010549126 -0.015333793 -0.0033775782 -0.015441079 -0.013218704 -0.0027829625
0.009258017 0.005482778 0.0044256537 -0.0026590703 0.002352636 -0.0045167096 0.0014755453 -0.011107958
0.0015312079 0.0003932057 0.0068746028 0.00035185256 -0.000883059 -0.0011736085 0.011308158 0.017104574
0.0041346485 -0.0029908107 -9.777735e-05 -0.0047826846 0.001979438 0.00015882937 -0.007800238 0.00026084925
0.00050524995 -0.0012675767 -0.0049282676 -0.0010768473 -0.0010805838 0.0012920927 -0.0027362527 0.0031639638
0.00028396235 -7.83656e-05 -5.4695414e-05 -6.723736e-05 -7.418263e-05 5.0909417e-05 -4.3404598e-05 7.287853e-05
-1.3643448e-05 0.00016926204 0.00021518883 0.0003513169 -4.533183e-05 9.67973e-05 8.8723136e-05 0.00026218925
-0.00060427876 -7.411303e-05 0.0013572902 0.0013712528 0.0004395398 0.0023397235 0.0005639884 0.000114515686
0.0029479007 0.0005052981 -1.1944031e-06 -0.00011958 -6.3090905e-05 -0.00011159211 -0.000118478856 -3.20021e-05
9.160716e-05 -0.00010417744 -0.00011222375 -8.868628e-05 -0.00017658055 -0.0001700093 -3.737669e-05 -7.470221e-05
-0.00020658826 -4.1716914e-05 9.732732e-05 0.0001276429 -4.924083e-06 3.3814566e-05 0.00010622339 7.976634e-05
0.027557017 0.007255793 0.019873062 0.05256666 -0.012009477 -0.089002445 -0.051728923 -0.039347615
-0.006424353 -0.036479264 -0.047125347 -0.04752675 -0.0027362052 -0.045562036 -0.07064512 -0.084090635
-0.046737343 -0.094259895 -0.05285993 0.014576002 -0.12683624 -0.13690534 -0.018551394 -0.043978877
0.016140511 0.013592451 0.025105096 -0.02495315 0.024124457 -0.04127058 -0.046941306 -0.10358659
0.0017363068 -8.066781e-05 -0.00015640436 -8.4969266e-05 -6.291103e-05 -1.9396222e-05 -0.00019156786 -8.443876e-05
0.00013191426 5.1176296e-05 4.4253466e-05 -7.417444e-05 -0.00011679166 -1.2375478e-05 4.5176508e-05 0.00015696396
-0.00022537909 -9.747478e-06 0.00017885197 5.3312697e-06 -7.2256305e-05 -0.00013040446 -1.8549521e-05 -4.7905705e-05
-2.9318686e-05 -5.400022e-05 -0.00043253365 -0.00018891819 -5.40427e-05 -0.00017156413 -0.0002399596 -0.0001372608
00000000: 392f acbb dd7d 2438 9bc3 f83b 0d44 183c
00000010: 530a 043a ded8 073c 6956 993a 1dbc cbba
00000020: 52e5 803c d5a9 163b 6642 69bc 5c0e 8dbc
00000030: 1786 603c 01bf 6cbb 616d 4bbc e22a 01ba
00000040: f604 62bb 20df e5b9 2ea8 84bb 6062 9aba
00000050: fb86 ad3a f71e bb3b 397b 17bb 8b2d 243a
00000060: b691 b439 5924 1b3b c209 5ab9 c8be a038
00000070: 0d95 dab9 c86d 023a 27f0 a739 139e 5fba
00000080: 4deb 173e 0a07 473e 0c36 c13c 8c34 27bd
00000090: f64f 333e e2ea 84bc aef5 c7bd ef08 fabd
000000a0: d36f 16bd c811 06be a7ff c2bd 3cb8 e8bc
000000b0: 25d2 b7bd 1669 b3bd 8969 6bbc 0c39 353d
000000c0: 32f0 05bd 7562 9dbd 4b55 13be 9550 c63a
000000d0: 7618 6abe 4feb 58bd b0d8 703c 36ea 093e
000000e0: 637f 40bd 56f5 273e cec4 773e 46ef 4b3e
000000f0: d3c0 653c 3527 f93d 3f33 9c3d c115 a0bb
00000100: 6742 2f3e 879e b13e 6a21 473e fbf4 0fbd
00000110: 8a4e b93e a581 e5bc 6878 7bbe 5c9f 97be
00000120: 0ae1 b3bd db6b babe 6b62 92be f9ea 03be
00000130: d8c1 34be f1a9 58be dcca 98bd 0099 71ba
00000140: 3096 01bc 95f0 4ebe fac7 71be 9413 253d
00000150: 58c6 e7be 2eab 93be e173 2ebd 9448 0c3e
00000160: 3c2f 08be 0a49 1a3e 7193 5e3e 15d2 0c3e
00000170: b4dc 883d 2415 a73d 9142 77bd bf39 88be
00000180: ec66 bdbc ad89 79bb 420e 343d fdde 933d
00000190: 8e51 1a3d fa33 af3d 8b7f 923d 19be 803c
000001a0: dcbd b53d 8fa2 ea3c fe44 8aba 973a 7bbc
000001b0: 5c5a 5dbb 94fc 7cbc 4393 58bc 5d62 36bb
000001c0: f0ae 173c e0a8 b33b 1305 913b cc43 2ebb
000001d0: af2e 1a3b e800 94bb 1667 c13a 27fe 35bc
000001e0: d0b2 c83a 2d27 ce39 5944 e13b da78 b839
000001f0: 167d 67ba c4d3 99ba da45 393c e41e 8c3c
00000200: f27b 873b 7a01 44bb d10d cdb8 11b8 9cbb
00000210: 75b9 013b 6f8b 2639 2499 ffbb 98c2 8839
00000220: c072 043a d124 a6ba 4e7d a1bb 0025 8dba
00000230: 60a2 8dba 705b a93a b452 33bb 815a 4f3b
00000240: c8e0 9439 3658 a4b8 c168 65b8 c801 8db8
00000250: 7f92 9bb8 9287 5538 550d 36b8 5dd6 9838
00000260: 2ae6 64b7 ef7b 3139 50a4 6139 f530 b839
00000270: af22 3eb8 a8ff ca38 df10 ba38 7276 8939
00000280: 7668 1eba 216d 9bb8 1ae7 b13a 9cbb b33a
00000290: 0972 e639 0c56 193b 9fd8 133a 2428 f038
000002a0: 9131 413b fb75 043a 614f a0b5 06c7 fab8
000002b0: ac4f 84b8 8f06 eab8 da77 f8b8 fe39 06b8
000002c0: 381d c038 d679 dab8 ab59 ebb8 16fd b9b8
000002d0: 7b28 39b9 8644 32b9 eac4 1cb8 72a9 9cb8
000002e0: 9d9f 58b9 32f9 2eb8 351c cc38 e1d7 0539
000002f0: 8d39 a5b6 1dd4 0d38 40c4 de38 3a48 a738
00000300: 41bf e13c 01c2 ed3b d5cc a23c 2350 573d
00000310: 66c3 44bc ea46 b6bd b5e1 53bd f72a 21bd
00000320: 6183 d2bb 486b 15bd 8206 41bd 69ab 42bd
00000330: e851 33bb 429f 3abd 64ae 90bd b637 acbd
00000340: a86f 3fbd 550b c1bd a783 58bd 2fd0 6e3c
00000350: 5ce1 01be ea30 0cbe 18f9 97bc 3223 34bd
00000360: 1b39 843c dfb2 5e3c 34a9 cd3c 8c6a ccbc
00000370: a7a0 c53c 570b 29bd 8745 40bd 3525 d4bd
00000380: ca94 e33a 332c a9b8 7a00 24b9 8731 b2b8
00000390: 1aef 83b8 12b5 a2b7 9bdf 48b9 b714 b1b8
000003a0: 7752 0a39 21a6 5638 cc9c 3938 198e 9bb8
000003b0: 0cee f4b8 46a0 4fb7 e87b 3d38 b196 2439
000003c0: bd53 6cb9 1989 23b7 368a 3b39 42e3 b236
000003d0: 4f88 97b8 2ebd 08b9 cb9a 9bb7 5cee 48b8
000003e0: 66f1 f5b7 4b7e 62b8 afc5 e2b9 5718 46b9
000003f0: e8ab 62b8 e5e5 33b9 aa9d 7bb9 aaed 0fb9

2.bias f4 [32]
-0.23163894 -0.13411945 -0.025316887 -0.09152746 -0.059933957 -0.11032543 0.23021846 -0.11109096
-0.13895114 -0.24426366 -0.1778491 0.00074009324 -0.15075564 -0.16340278 0.59117794 0.61910224
-0.008935916 -0.31820995 -0.13402115 -0.015624835 0.32656872 -0.102846935 -0.14141692 0.01264592
-0.17374593 -0.20429641 -0.13522622 0.0029050203 -0.048951976 -0.013822639 -0.16962223 -0.10473024
00000000: c232 6dbe 9c56 09be 5c65 cfbc c072 bbbd
00000010: 4f7d 75bd 4df2 e1bd 63be 6b3e a883 e3bd
00000020: 3549 0ebe 4120 7abe 131e 36be d102 423a
00000030: b05f 1abe 0f53 27be 7057 173f 7c7d 1e3f
00000040: f367 12bc 6aec a2be d73c 09be 4fff 7fbc
00000050: 0434 a73e 6aa1 d2bd 99cf 10be d530 4f3c
00000060: 74ea 31be 1433 51be be78 0abe 2762 3e3b
00000070: de81 48bd 5a78 62bc 73b1 2dbe cf7c d6bd

5.weight f4 [100, 2048]
0.029133981 -0.014029718 -0.0028277342 0.007756247 0.011148485 -0.004530526 -0.0057558445 0.017391935
-0.0037121375 -0.03661035 -0.031143218 -0.02283038 -0.010354185 0.038612157 0.033229414 -0.0043468624
0.035445753 0.017826341 -0.017173838 0.019428601 -0.012273956 -0.0289346 -0.030193722 -0.03645164
0.011322387 -0.0082956245 0.0100635 -0.028449045 -0.024397386 -0.05652663 -0.039824918 0.01969531
-0.004452263 0.05004077 -0.015864601 -0.033128522 -0.024537759 -0.0014701464 0.0013042459 0.018918552
0.028791834 -0.00026121037 -0.014954469 -0.029576913 0.00012056493 0.06717888 -0.013523195 0.05929563
-0.0671244 -0.009237746 -0.041901812 -0.016939182 -0.004483055 -0.012393342 0.035734046 0.013188827
-0.042355236 -0.0032117006 0.003390581 -0.05520836 -0.016185256 -0.022078099 -0.019218395 0.020368012
-0.0072739995 -0.010084969 -0.0064225616 -0.013477631 -0.019779397 -0.0039023408 -0.010127716 -0.009230625
-0.0023078 -0.025130035 -0.018252175 -0.018659411 -0.023029905 0.00660218 0.0058223587 -0.007532073
-0.016451757 -0.0148668485 -0.0031501902 0.007997198 0.025138682 -4.128874e-05 -0.0006508301 0.010119569
-0.015223758 -0.0018734443 -0.015967976 0.0019845231 0.0071087996 -0.005735707 -0.011574134 0.0035556185
-0.02158267 -0.022291094 -0.029238714 -0.023155713 -0.003101992 -0.043476246 -0.018275417 -0.004294063
-0.010095873 -0.011487627 -0.028617203 -0.025861157 -0.023520187 -0.029799901 -0.0041163987 -3.025666e-05
0.013621399 0.013036545 -0.0015577314 0.011202914 0.008679272 0.0021864474 -8.3138264e-05 0.001373302
0.010782216 0.014678664 -0.010668297 -0.006333273 -0.011194346 -0.006586827 0.002663643 0.001420801
0.007129324 -0.016358634 0.014016244 7.3634736e-05 -0.00012752065 0.0014125485 0.006401031 0.0055796523
-0.014934301 -0.014709674 -0.002909245 -0.0076589147 -0.029663946 -0.0015067622 -0.012344902 -0.0148048205
0.0077509684 -0.017095959 -0.019227445 -0.011733018 -0.020951174 0.0056340243 -0.014269937 -0.030717827
0.00028606615 -0.019612307 -0.014990561 -0.029793572 -0.026523512 -0.004050355 -0.0029156108 -0.019120596
0.0032117341 -0.008661565 -0.016560705 -0.0013426723 -0.020068139 -0.0035129741 -0.009132782 -0.015901407
-0.0011269185 -0.034252387 0.0025887943 -0.006912659 -0.011281387 0.0067839776 -0.028209468 0.0029113244
0.00037792855 -0.014769953 -0.0023305144 -0.0033781617 -0.002532513 -0.017667312 -0.003157469 0.013327018
0.0021251312 0.003637666 -0.006628345 -0.03291109 -0.027118959 -0.007110285 0.0022184164 -0.0055691353
0.00784256 0.00019711602 0.0080089625 0.0013244561 0.015154985 -0.004621399 -0.03896617 -0.016114023
0.000921479 0.0036861135 0.020453772 -0.044860408 -0.025114298 0.002779816 -0.02751345 -0.018778436
-0.029571312 -0.042480953 0.009472936 -0.016355447 -0.027974885 0.0029644438 -0.046446066 -0.01611
-0.0007101389 -0.04942613 -0.02614998 -0.04120928 -0.06215184 -0.02332765 -0.011080504 0.0021565203
0.004721956 -0.071665056 0.030234115 -0.011158979 0.03514841 -0.015028062 0.005104559 -0.042119548
0.0009029799 -0.032680277 0.04315848 -0.03333087 -0.022180887 0.009875401 -0.04338279 -0.018100899
-0.007683924 0.0018203626 -0.018211816 -0.006255461 0.026975857 -0.04985692 0.0039344234 0.0048852153
0.007096164 -0.01304564 -0.030228157 0.0059756045 -0.00030812644 -0.027745266 -0.008337624 0.014142425
00000000: 63aa ee3c e7dc 65bc 8251 39bb 1e28 fe3b
00000010: 23a8 363c cf74 94bb 869b bcbb 8879 8e3c
00000020: 5547 73bb bcf4 15bd 1020 ffbc c706 bbbc
00000030: 99a4 29bc c827 1e3d 911b 083d 2070 8ebb
00000040: 912f 113d 8c08 923c 26b0 8cbc bb28 9f3c
00000050: b418 49bc 4108 edbc d358 f7bc 514e 15bd
00000060: 8881 393c 5fea 07bc 61e1 243c f90d e9bc
00000070: 07dd c7bc 7888 67bd 741f 23bd 0f58 a13c
00000080: 4ae4 91bb 8df7 4c3d 7bf6 81bc c6b1 07bd
00000090: 6903 c9bc edb1 c0ba 3bf3 aa3a 14fb 9a3c
000000a0: dadc eb3c 10f3 88b9 9703 75bc 484b f2bc
000000b0: ced7 fc38 1595 893d 6490 5dbc f9df 723d
000000c0: 8478 89bd ea59 17bc 3ca1 2bbd 0ac4 8abc
000000d0: 97e6 92bb 720d 4bbc dd5d 123d f315 583c
000000e0: af7c 2dbd 657b 52bb 8334 5e3b 2922 62bd
000000f0: f196 84bc 21dd b4bc e56f 9dbc d1da a63c
00000100: bb5a eebb 6d3b 25bc 5a74 d2bb 48d1 5cbc
00000110: 6708 a2bc 6abe 7fbb b8ee 25bc 0c3c 17bc
00000120: 763e 17bb 81dd cdbc 9685 95bc 9fdb 98bc
00000130: 36a9 bcbc 1a57 d83b 7cc9 be3b 9ccf f6bb
00000140: d6c5 86bc 1594 73bc 6c73 4ebb ae06 033c
00000150: a3ef cd3c 722d 2db8 789c 2aba 8ccc 253c
00000160: 126d 79bc 5c8e f5ba 46cf 82bc c60e 023b
00000170: eff0 e83b 99f2 bbbb 70a1 3dbc 6105 693b
00000180: 24ce b0bc d09b b6bc 0786 efbc 0db1 bdbc
00000190: ca4a 4bbb 2614 32bd 54b6 95bc 36b5 8cbb
000001a0: 2969 25bc 9a36 3cbc a06e eabc c7da d3bc
000001b0: 68ad c0bc ec1e f4bc dbe2 86bb afcf fdb7
000001c0: 4a2c 5f3c 3c97 553c cb2c ccba 6d8c 373c
000001d0: 8133 0e3c 804a 0f3b 845a aeb8 5e00 b43a
000001e0: e4a7 303c c77e 703c 15ca 2ebc 5887 cfbb
000001f0: 7d68 37bc 4fd6 d7bb 8490 2e3b 2c3a ba3a
00000200: 1b9d e93b 8b02 86bc 63a4 653c 596c 9a38
00000210: 10b7 05b9 4325 b93a bdbf d13b 84d5 b63b
00000220: 00af 74bc d800 71bc 08a9 3ebb a2f7 fabb
00000230: ce01 f3bc 8d7e c5ba 4642 4abc eb8f 72bc
00000240: d6fb fd3b d30c 8cbc e082 9dbc d83b 40bc
00000250: cca1 abbc 9f9d b83b 74cc 69bc f4a3 fbbc
00000260: 26fb 9539 fda9 a0bc f89a 75bc a611 f4bc
00000270: d647 d9bc d7b8 84bb d513 3fbb cca2 9cbc
00000280: f57b 523b 3de9 0dbc 51aa 87bc 9bfc afba
00000290: f065 a4bc ed39 66bb aaa1 15bc ab43 82bc
000002a0: 1cb5 93ba 3b4c 0cbd c3a8 293b 9683 e2bb
000002b0: 91d5 38bc 214c de3b 8b17 e7bc ebcb 3e3b
000002c0: b624 c639 acfd 71bc 8bbb 18bb 2664 5dbb
000002d0: 85f8 25bb 0abb 90bc 8aed 4ebb 9159 5a3c
000002e0: c945 0b3b e965 6e3b 9732 d9bb c7cd 06bd
000002f0: 9428 debc 65fd e8bb da62 113b 4b7d b6bb
00000300: 157e 003c eeb0 4e39 0638 033c 5f99 ad3a
00000310: 9d4c 783c 1b6f 97bb fe9a 1fbd 8e01 84bc
00000320: 698f 713a b992 713b ab8e a73c 8cbf 37bd
00000330: 80bc cdbc 932d 363b e363 e1bc 3cd5 99bc
00000340: 893f f2bc 8200 2ebd 6034 1b3c dcfb 85bc
00000350: 962b e5bc 1d47 423b 3b3e 3ebd 1ef9 83bc
00000360: 9d28 3aba 0e73 4abd 7c38 d6bc 10cb 28bd
00000370: ee92 7ebd a119 bfbc 018b 35bc 6854 0d3b
00000380: a3ba 9a3b 21c5 92bd 89ad f73c 26d4 36bc
00000390: c7f7 0f3d 4338 76bc 2544 a73b 8c85 2cbd
000003a0: f5b5 6c3a c1db 05bd f2c6 303d f385 08bd
000003b0: b1b4 b5bc 6fcc 213c 27b2 31bd 5648 94bc
000003c0: 6dc9 fbbb 3c99 ee3a f230 95bc 9cfa ccbb
000003d0: 79fc dc3c c536 4cbd 56ec 803b 2814 a03b
000003e0: f086 e83b 61bd 55bc 0aa1 f7bc 01cf c33b
000003f0: 088c a1b9 0a4a e3bc 889a 08bc a1b5 673c

5.bias f4 [100]
-0.031995002 0.15236656 -0.07394767 -0.008126938 0.037542686 -0.061291285 -0.0054424517 -0.029374348
0.048206076 -0.066776395 0.13835782 -0.017665822 -0.015787397 0.011331177 0.207118 -0.01983347
0.15599759 0.07455929 0.09609632 -0.032621723 -0.11100175 -0.07139426 0.010023944 -0.09026696
-0.018448157 -0.035308696 -0.007208786 -0.058773864 -0.009403545 -0.031336553 -0.081266634 -0.035696276
0.26836842 0.01481762 -0.041058272 0.093443595 0.07825935 0.050387364 0.12946635 0.08904638
0.047849145 -0.02648894 0.041255467 -0.021475807 -0.055461064 -0.008403723 0.06691341 -0.013714347
0.25404784 0.2135562 -0.043860544 -0.03686728 0.043402504 -0.06906612 0.030163856 -0.018382234
-0.07733788 -0.037519615 -0.062247526 0.21187192 -0.05952438 -0.023039546 -0.036314998 -0.028333379
-0.026082661 -0.028715432 0.20034721 0.039020818 0.012533918 -0.060387097 -0.062496673 -0.06437441
-0.0099077085 -0.026292332 -0.064343795 -0.065050766 -0.03815046 -0.055777818 -0.038989514 0.015176913
-0.047797173 0.083318755 -0.003922367 -0.06454474 -0.011131237 0.072922096 -0.059153985 -0.0122624235
-0.035245195 -0.019533996 -0.066072635 -0.030154528 -0.057764485 -0.03650395 -0.0727 0.028703485
0.047990788 -0.057510156 -0.0516797 -0.033166453
00000000: 310d 03bd fb05 1c3e e071 97bd d926 05bc
00000010: 5cc6 193d 920c 7bbd 9856 b2bb 79a2 f0bc
00000020: bc73 453d 10c2 88bd acad 0d3e eab7 90bc
00000030: 9254 81bc 67a6 393c be16 543e cd79 a2bc
00000040: d5bd 1f3e 8bb2 983d 26ce c43d 5b9e 05bd
00000050: e354 e3bd 2737 92bd 783b 243c e2dd b8bd
00000060: 9720 97bc da9f 10bd ae37 ecbb ddbc 70bd
00000070: 5411 1abc c25a 00bd 1f6f a6bd 4236 12bd
00000080: 9667 893e 9ac5 723c b82c 28bd 5b5f bf3d
00000090: 7046 a03d fb62 4e3d d492 043e f35d b63d
000000a0: 77fd 433d 55ff d8bc 7efb 283d 08ee afbc
000000b0: 242b 63bd c5af 09bc e609 893d 24b2 60bc
000000c0: 8f12 823e 7aae 5a3e 1da7 33bd 2502 17bd
000000d0: d3c6 313d 8a72 8dbd 311a f73c 5796 96bc
000000e0: 5363 9ebd 2bae 19bd 43f7 7ebd f4f4 583e
000000f0: d6cf 73bd 6ebd bcbc 09bf 14bd 671b e8bc
00000100: 4eab d5bc a03c ebbc d227 4d3e 4bd4 1f3d
00000110: 105b 4d3c 7658 77bd 83fc 7fbd bbd6 83bd
00000120: f153 22bc 0463 d7bc aec6 83bd 5639 85bd
00000130: a843 1cbd 4877 64bd 78b3 1fbd 96a8 783c
00000140: f8c6 43bd 06a3 aa3d 3387 80bb 0830 84bd
00000150: cb5f 36bc 2e58 953d 734b 72bd 55e8 48bc
00000160: 445d 10bd c205 a0bc 1751 87bd a106 f7bc
00000170: 749a 6cbd 2a85 15bd bde3 94bd 9223 eb3c
00000180: fd91 443d c58f 6bbd 18ae 53bd 8cd9 07bd

7.weight f4 [10, 100]
0.19707698 0.08819806 -0.016753297 0.24452765 0.20254849 -0.059395958 -0.002114559 0.45946285
-0.1601479 -0.024133662 -0.13822454 -0.036903616 -0.03151607 -0.037877616 0.088135265 -0.06474617
0.027975688 0.19289623 -0.023592608 0.12279881 0.00010390961 -0.074634 -0.025309483 -0.15879585
-0.079362206 -0.33293232 0.3461627 -0.03369964 -0.1910653 0.3028619 0.5132024 -0.0064585945
0.019261679 -0.01927526 -0.2985261 -0.2588189 0.17516623 -0.14311317 -0.07346562 0.124277
0.25722712 -0.06934515 -0.05824535 0.32222354 -0.045579117 -0.058036167 0.16701356 -0.010692263
-0.27232602 0.27921095 -0.13400212 -0.070682086 -0.0010200269 -0.10301534 -0.06570423 -0.026726777
-0.07824869 -0.049203087 -0.057887588 -0.11318617 -0.20163561 -0.17739671 -0.09234036 -0.048225857
0.011647032 -0.0849624 0.23864293 -0.07612287 0.0218832 -0.07876284 -0.031509206 0.109045714
-0.06777506 0.16615388 -0.08117821 0.51505333 -0.06439318 -0.06950791 -0.07225416 0.048679173
-0.08864013 0.12547594 -0.12490385 -0.07791582 0.20621453 0.26466715 0.0064240946 -0.09764573
-0.035761707 0.27518415 -0.048541747 -0.050899297 -0.06480666 0.011678366 0.15001209 -0.07488583
0.36081812 -0.07233938 -0.10301668 -0.032259516 -0.21514554 -0.26757926 0.02208266 -0.07772443
0.22670777 0.36172834 -0.010409704 -0.17978014 0.15163866 -0.15674241 -0.1485509 -0.04882611
-0.13223098 -0.19280936 -0.08613328 -0.11361865 -0.19923966 0.20890057 -0.05251575 -0.0690178
0.45708057 -0.10303724 -0.15517753 0.49744794 0.06986444 0.23454773 -0.015261734 -0.046872236
-0.1110459 -0.1028298 -0.123111814 -0.059186406 -0.21898356 -0.08479699 -0.119327836 -0.10014579
-0.16789728 0.079656556 -0.25044256 -0.22807455 -0.08373924 0.4853269 -0.06387463 -0.11037173
-0.066364676 0.10572143 0.22167602 -0.030850563 -0.1244444 -0.1233572 0.16872106 -0.043929964
-0.1393372 0.27726096 -0.084117934 -0.1330542 0.3684054 0.03334937 0.37827274 -0.118954845
-0.18772885 -0.15095305 -0.0849047 -0.121606536 -0.006399025 -0.07899705 -0.10645673 -0.038917355
-0.11298355 0.2656989 0.49246854 -0.072254874 -0.0688767 0.11632354 -0.07593343 -0.26464537
0.40963033 -0.03115387 -0.082482524 0.21063848 -0.08644596 -0.07882209 -0.042456668 -0.060713872
0.14873004 -0.03801064 0.17606881 -0.24395837 -0.09638294 -0.19076651 -0.110661425 -0.06537231
-0.061833523 -0.10807511 -0.28394237 0.27239788 -0.19731137 -0.08043815 -0.12684008 -0.09797092
0.19255544 0.07720916 -0.007236319 -0.036097217 -0.21963653 -0.022170391 -0.03432945 -0.09952779
0.012711552 -0.03944285 0.20278993 0.0013207969 0.24370608 -0.03211791 0.028612344 -0.08811968
0.22494711 -0.08207934 -0.008578659 -0.019245159 -0.07175535 -0.053132024 0.01219316 -0.12913838
-0.049641464 -0.03218295 -0.042460304 -0.1378465 0.050988074 -0.07222331 -0.06759072 -0.04354882
0.15364191 -0.012071075 -0.019002162 0.075374365 0.13717014 -0.009304185 0.061386082 0.26974314
-0.03578379 -0.09688874 -0.092468604 0.14142048 -0.026135035 -0.05447636 -0.033982806 -0.00448512
0.08411104 -0.016003877 -0.042116888 -0.049295675 0.085869595 -0.043163884 -0.0070282943 -0.031306256
00000000: 8cce 493e 2fa1 b43d 363e 89bc 7565 7a3e
00000010: df68 4f3e 2d49 73bd 6a94 0abb b73e eb3e
00000020: d0fd 23be f5b3 c5bc bc8a 0dbe 3f28 17bd
00000030: ff16 01bd 8f25 1bbd 4380 b43d a499 84bd
00000040: 452d e53c 9786 453e 4945 c1bc f17d fb3d
00000050: 0cea d938 b6d9 98bd d555 cfbc 619b 22be
00000060: a788 a2bd 1b76 aabe 3d3c b13e a208 0abd
00000070: 9fa6 43be b710 9b3e 3c61 033f 9ea2 d3bb
00000080: abca 9d3c 26e7 9dbc 6ad8 98be e983 84be
00000090: c75e 333e 428c 12be 2575 96bd f184 fe3d
000000a0: 46b3 833e d404 8ebd ad92 6ebd 7cfa a43e
000000b0: 2bb1 3abd 55b7 6dbd 9a05 2b3e 9a2e 2fbc
000000c0: 516e 8bbe bdf4 8e3e da37 09be c5c1 90bd
000000d0: 6cb2 85ba b5f9 d2bd f08f 86bd 1df2 dabc
000000e0: d940 a0bd 2d89 49bd 891b 6dbd 27ce e7bd
000000f0: 9179 4ebe 7ca7 35be f11c bdbd 7a88 45bd
00000100: 31d3 3e3c c400 aebd d05e 743e 4fe6 9bbd
00000110: 6644 b33c 694e a1bd cc0f 01bd 5c53 df3d
00000120: a7cd 8abd 3e24 2a3e c340 a6bd 89da 033f
00000130: 92e0 83bd 2a5a 8ebd fdf9 93bd d063 473d
00000140: f588 b5bd c47c 003e 97cd ffbd 5492 9fbd
00000150: e729 533e 7482 873e 3681 d23b 7cfa c7bd
00000160: de7a 12bd f0e4 8c3e b6d3 46bd c87b 50bd
00000170: 5bb9 84bd 9e56 3f3c c59c 193e be5d 99bd
00000180: 27bd b83e ab26 94bd 69fa d2bd 8e22 04bd
00000190: 1d4f 5cbe 2600 89be b2e6 b43c fc2d 9fbd
000001a0: 1526 683e 7534 b93e 778d 2abc 4918 38be
000001b0: 2a47 1b3e 1581 20be ba1d 18be e3fd 47bd
000001c0: 8f67 07be d16f 45be a566 b0bd e5b0 e8bd
000001d0: 7b05 4cbe 08ea 553e c11a 57bd 3459 8dbd
000001e0: 7706 ea3e 3005 d3bd dce6 1ebe 7fb1 fe3e
000001f0: 1615 8f3d 482d 703e 5a0c 7abc 1afd 3fbd
00000200: 086c e3bd 6e98 d2bd 0c22 fcbd 726d 72bd
00000210: 3a3d 60be 0baa adbd 2762 f4bd 3c19 cdbd
00000220: 44ed 2bbe fa22 a33d 023a 80be 608c 69be
00000230: 7b7f abbd c47c f83e b4d0 82bd 930a e2bd
00000240: 34ea 87bd 7a84 d83d 0aff 623e 52ba fcbc
00000250: b5dc febd b3a2 fcbd 37c5 2c3e e8ef 33bd
00000260: 69ae 0ebe 26f5 8d3e 0646 acbd 5c3f 08be
00000270: a29f bc3e 5999 083d f7ac c13e 999e f3bd
00000280: fe3b 40be 7093 1abe 84e2 adbd d90c f9bd
00000290: eaae d1bb 35c9 a1bd fc05 dabd ce67 1fbd
000002a0: eb63 e7bd b009 883e d624 fc3e 5dfa 93bd
000002b0: 3a0f 8dbd 093b ee3d fc82 9bbd 997f 87be
000002c0: 11bb d13e 6736 ffbc 99ec a8bd 9db1 573e
000002d0: 940a b1bd 7a6d a1bd 0be7 2dbd 1caf 78bd
000002e0: b04c 183e 0bb1 1bbd 624b 343e 39d0 79be
000002f0: 6b64 c5bd 4c58 43be 75a2 e2bd ebe1 85bd
00000300: 2645 7dbd 7c56 ddbd e560 91be bc77 8b3e
00000310: fe0b 4abe c2bc a4bd 5ee2 01be faa4 c8bd
00000320: 412d 453e d61f 9e3d a51e edbb adda 13bd
00000330: 66e8 60be ae9e b5bc 0a9d 0cbd 3ad5 cbbd
00000340: 1d44 503c d38e 21bd 2aa8 4f3e 971e ad3a
00000350: 168e 793e 128e 03bd 6f64 ea3c 1778 b4bd
00000360: 8958 663e 3719 a8bd 818d 0cbc 06a8 9dbc
00000370: 78f4 92bd f7a0 59bd d2c5 473c da3c 04be
00000380: d954 4bbd 45d2 03bd dbea 2dbd a227 0dbe
00000390: dfd8 503d d1e9 93bd 016d 8abd 3f60 32bd
000003a0: 4e54 1d3e c2c5 45bc 6caa 9bbc e05d 9a3d
000003b0: 5476 0c3e 9570 18bc f96f 7b3d c61b 8a3e
000003c0: 0692 12bd 9b6d c6bd 2e60 bdbd 88d0 103e
000003d0: 2419 d6bc 9b22 5fbd 8e31 0bbd eaf7 92bb
000003e0: 6942 ac3d 901a 83bc c282 2cbd 43ea 49bd
000003f0: 66dc af3d 9dcc 30bd 9b4d e6bb fd3a 00bd

7.bias f4 [10]
-0.08015566 -0.26904634 -0.12480834 0.20858636 0.15185116 0.053062618 0.18437606 0.010888384
-0.307964 0.17321278
00000000: a728 a4bd 71c0 89be 849b ffbd aa97 553e
00000010: df7e 1b3e 3058 593d 14cd 3c3e 3165 323c
00000020: 75ad 9dbe b15e 313e
