models/non_seq_trained/l_2/more_cifar_small_1.pth (torch, 862159 bytes, 8 tensors)

0.weight f4 [16, 3, 4, 4]
00000000: d7e1 01bd 4630 183d 5e52 093e 6f3c 013e
00000010: d515 dcbd 857d 8cbc 2320 053e 8002 2b3e
00000020: 1ddf 17be 284d cabd 1d18 353d dea2 fb3d
00000030: c9b5 dfbd 1d8f 07be 874c 18bd 78b0 443d
00000040: 8fe9 56bd a473 8d3c 0e3d fb3d 7b37 063e
00000050: f3a4 03be aa54 16bd 9f88 ed3d c4ad 2c3e
00000060: 4362 25be ba31 efbd ac1c 023d ba87 fd3d
00000070: 001b 01be fb94 1cbe c889 4fbd bb76 423d
00000080: 1ae2 1dbd 3876 f63c a02e f83d 63b7 053e
00000090: 006f dcbd c90c b5bc 4eb7 ee3d c75e 2c3e
000000a0: 0698 0ebe 3163 c4bd f658 173d 2bfc 003e
000000b0: 3343 dabd 8b7e 07be b1db 1abd 8393 543d
000000c0: 2b69 003e 3b9f 1b3e 1b4c 1e3e 1212 063e
000000d0: 4e16 393e 5796 543e 209b 513e 0725 353e
000000e0: 67f2 2d3e 9ccf 423e 94bc 403e f586 303e
000000f0: 5439 003e 3672 113e b536 183e 5302 143e
00000100: c969 8cbd 8220 99bd 1acd 8abd db22 73bd
00000110: 2e63 adbd 7009 bfbd 8d7c c1bd 7f08 b2bd
00000120: 234a ccbd 5cec dfbd 2f44 e3bd b718 cebd
00000130: 9af0 c6bd ce8f d5bd c11b c6bd 9071 9fbd
00000140: cad2 edbc 132d 2cbd 753d 2dbd 8070 aebc
00000150: 1d39 8ebd eec8 b6bd f2ca c6bd 8f76 a8bd
00000160: a085 c4bd 4942 e8bd e8e3 f5bd 1b39 cebd
00000170: 6760 a8bd 6e77 c5bd e273 c3bd 497d 90bd
00000180: bad1 af3d 1db1 173e 3a3f ce3d 4c11 943b
00000190: 7f14 133e eb7d f33d f3c8 cf3b e24e 9dbd
000001a0: ab7d a73d 6006 e6ba 87e3 efbd 6edc 12be
000001b0: 00cd 24bc 9603 c5bd b49c 1abe 8182 e7bd
000001c0: 74d9 b13d b529 0e3e 5075 b43d dbf3 94bb
000001d0: 6a8c 113e 310a d33d 5b42 16bc d2b9 b2bd
000001e0: a9bc a73d 512b 7cbc 3e2a 01be d135 1dbe
000001f0: 7176 9bbc b98a d5bd febf 21be c59d ecbd
00000200: 6cf5 9e3d 19f6 003e 6330 a93d 2176 07bc
00000210: 7452 173e 601a e03d e4e2 96bb d0ed a2bd
00000220: 04be ba3d 5606 083b 46b4 e0bd 43b9 07be
00000230: f2f8 8dbb f523 acbd cc92 02be 12be bdbd
00000240: 09b3 3e3b e44f bd3b 7468 6cbc 015e 08bd
00000250: cc4a 413b 4a2e 5e3b 8f90 6439 a623 80bb
00000260: cd58 39bc ae4a cc3a f6b4 433c e05c 5b3c
00000270: 5828 debc cf91 25bc 2bf6 373c a8df 523c
00000280: 859f 663d cbe9 803d 5e1f 2e3d d338 963c
00000290: 82cb 753d 566b 883d 1cdd 853d aba0 6d3d
000002a0: 2dbe 303d 4b0d 883d c829 9f3d 06b2 a23d
000002b0: ba4a 253c 7e22 043d 31e7 623d 0735 753d
000002c0: aaaf fc3d b8f4 073e 3466 ec3d dd4c a43d
000002d0: 42cf 073e f06f 1d3e b3be 143e 98ae 013e
000002e0: ec25 f13d bbca 113e 30f2 183e 1045 123e
000002f0: 1f0f 903d 82d4 be3d e368 de3d 0528 d63d
00000300: ccfa 40bd 088f 54bd cae2 6cbd 8482 34bd
00000310: 47ca 37bd f464 2fbd 8280 38bd 8af8 0cbd
00000320: fb78 03bd 248a 0cbd f7a9 0abd e6c8 c8bc
00000330: 4a69 87bc 71ae c2bc 7b28 2ebc 2ead a3bb
00000340: 8b55 99bc 6fba b9bc 8689 e4bc c45e 93bc
00000350: 82a9 82bc 4621 46bc ca92 9fbc 1fdb dabb
00000360: 9756 c6bb f26d c3bb bdc2 f6bb e742 b43b
00000370: 1c4c 113c 1e24 dd3a 6b4b 8e3c 8f5c e03c
00000380: 3884 ff3c 2a76 f73c b66b c33c 7d4e f83c
00000390: 8344 e43c 282c 0e3d a69b e53c f90c 183d
000003a0: 971b 143d ee7e 1d3d a0f2 193d c171 403d
000003b0: 30c1 543d cd07 3e3d aa80 7a3d 8f2b 8c3d
000003c0: 1843 9bbc c1f3 bb3c ea4c a73c 2680 093a
000003d0: 296b b63c 2742 993d 2e8d 9b3d 2633 393d
000003e0: 3049 093d a326 ab3d 112e cd3d d884 7c3d
000003f0: 9735 763c 6e32 2e3d 9a79 443d 7c00 fc3c
-0.03170952 0.037155412 0.13410327 0.1262071 -0.10746352 -0.017149696 0.1300054 0.16700172
-0.14831205 -0.09877998 0.04421245 0.12286924 -0.10923345 -0.13238187 -0.037182357 0.048019856
-0.052468833 0.017267056 0.12267505 0.13107102 -0.12855892 -0.036701836 0.11598324 0.16863161
-0.16150765 -0.116794065 0.031765625 0.123794034 -0.12607956 -0.15291207 -0.050668508 0.04747651
-0.038545705 0.030085668 0.12118268 0.13058238 -0.10763359 -0.022100823 0.11656056 0.1683303
-0.1392518 -0.09589232 0.036950074 0.12596194 -0.106573485 -0.13231866 -0.03780717 0.05189849
0.12540118 0.1519746 0.1545872 0.13092831 0.18074915 0.20760475 0.20469332 0.17689906
0.16987 0.19024509 0.18821937 0.17238982 0.12521869 0.14203724 0.14864619 0.14454012
-0.068561144 -0.074769035 -0.06777401 -0.059359413 -0.08466183 -0.09327972 -0.09447584 -0.08693027
-0.09975078 -0.10933754 -0.11096989 -0.10063308 -0.0971386 -0.10427819 -0.096732624 -0.07785332
-0.029031176 -0.042035174 -0.042294938 -0.021293879 -0.06944487 -0.08925043 -0.097066775 -0.08225738
-0.095957994 -0.11340768 -0.1200636 -0.10069486 -0.08221512 -0.0964192 -0.09543587 -0.07055146
0.08584924 0.14813657 0.10070653 0.0045186635 0.14363287 0.11889251 0.0063410937 -0.07681061
0.08178266 -0.0017549507 -0.11713319 -0.143419 -0.010058641 -0.096198246 -0.1509884 -0.113041885
0.08684054 0.13883097 0.08811438 -0.0045456714 0.1421372 0.10304678 -0.009171094 -0.08726849
0.08190281 -0.015391187 -0.1261377 -0.1535256 -0.018977376 -0.1042685 -0.15795895 -0.1155353
0.07761654 0.12593879 0.08261182 -0.00826791 0.14777547 0.10942531 -0.004604684 -0.079555154
0.09118274 0.002075573 -0.109718844 -0.13254265 -0.004332655 -0.08405296 -0.12751311 -0.09264769
0.0029098412 0.005777346 -0.0144292 -0.033292774 0.0029494045 0.0033902102 0.00021797627 -0.0039104996
-0.011312676 0.0015586221 0.011945 0.013388842 -0.027118847 -0.010105564 0.011228125 0.012870707
0.056304473 0.062945925 0.042510383 0.018337643 0.060008533 0.06661098 0.06536314 0.058014553
0.043150116 0.066431604 0.07771641 0.079441115 0.010088617 0.032259457 0.055396263 0.059865024
0.12338193 0.13276947 0.11542931 0.08022473 0.13262656 0.15374732 0.14525871 0.12664258
0.11774811 0.14237492 0.14936137 0.14284158 0.07034134 0.093178764 0.10859849 0.10456852
-0.04711418 -0.051894218 -0.05783347 -0.044069782 -0.04487064 -0.042820886 -0.04504443 -0.034416713
-0.032097798 -0.03431143 -0.033853497 -0.024509858 -0.016529698 -0.02376482 -0.0106297685 -0.00499501
-0.018717548 -0.022671906 -0.027897608 -0.017989524 -0.015949968 -0.012092894 -0.019479174 -0.0066789533
-0.006052803 -0.0059640342 -0.007530539 0.0055011394 0.008868244 0.0016871726 0.017369946 0.027387885
0.031190977 0.030207712 0.023855072 0.030310864 0.0278647 0.03471008 0.02802832 0.037121747
0.036159124 0.038451128 0.0375849 0.046983484 0.05194205 0.04639416 0.06115786 0.06844246
-0.018952891 0.02294338 0.020422418 0.0005245231 0.022267895 0.07483321 0.07595287 0.045214795
0.033517063 0.08356979 0.10018552 0.061650127 0.015027425 0.042528562 0.04796753 0.03076195

0.bias f4 [16]
00000000: e682 83bf 23af 7ebf cb76 86bf 4afa 4abf
00000010: e0a1 14bf ec32 bb3e 3893 9cbf d5c2 98bf
00000020: 2009 96bf 6a1e 8dbf b3c7 8bbf 6f19 2cbf
00000030: 7b94 f33e bdf2 373f 0df8 0d3f 64c5 6fbf
-1.0274322 -0.9948599 -1.0505003 -0.7928816 -0.580595 0.36562288 -1.2232428 -1.1934458
-1.1721535 -1.1024907 -1.0920318 -0.6722631 0.4757422 0.71854764 0.5545662 -0.9366057

2.weight f4 [32, 16, 4, 4]
00000000: 856f 1a3d f076 803d bd01 9a3d 1ab4 bc3d
00000010: 5864 9a3c f9ed 81bb 766b 04bd 93b3 18bc
00000020: bb53 a1bd dc3a e2bd b329 f5bd de32 fabc
00000030: b18e efbd 86b0 68bd 39d5 54bd 2bda 3abc
00000040: d863 55bd dd61 6dbd 124b 9bbd bc59 68bd
00000050: f2c5 a2bc 30f0 68bc 6299 aebc 12ca 80bc
00000060: f42a 1d3d 0c62 013d fd33 353d 4df8 5a3d
00000070: 8fd9 873d 4591 873d 3c48 953d 4d11 ac3d
00000080: 176c 743e 64e4 7d3d 855e 963c 5a02 c43c
00000090: f0e2 213d b226 62bc f5b7 c43a d599 703d
000000a0: 9565 85bd dbc7 323b 651f a93d f05d e83c
000000b0: 591b 873c 9b47 963d 8bf5 a33c d276 833c
000000c0: 47c0 233d 9396 66bd 50f2 3fbd f7e3 743d
000000d0: b7cd 66be 6ff7 dfbd 5394 513b 55d8 163d
000000e0: e40e 6bbd 6467 dd3d bc9c ef3d e49a 193d
000000f0: ea55 7b3d a8b1 b23d 7807 053c 429b c0bd
00000100: 61dd 65bd e8a5 74bd a8a8 18bd 253b 47bd
00000110: b246 09bd 97c6 113c 2e3f 523b ef14 83bb
00000120: ec64 193d 268c a83c 4ba2 9fbb 2907 0abc
00000130: d6c4 30bc d715 f7bb 4a64 cbbb 776b 73bc
00000140: ad88 2cbd f94d 3fbe cded 09be 9f4b 343d
00000150: edeb dabe efc0 2cbe dc5d 553c 387f 943d
00000160: 0399 843b b491 4c3e 17f2 6b3e f33d c43d
00000170: 3204 0d3e 086b a43d 9b8f 473b 131a 23be
00000180: a969 afbd 534e bc3b fd51 863d 1e01 963d
00000190: 6537 e13d 4fab 393e e805 933d e9c9 8cbc
000001a0: 9ad4 cd3e bdd9 a73d f40e e5bc b88f 89bd
000001b0: 1336 d7bc de65 bbbd a5e7 bcbd d1e5 4cbd
000001c0: c899 6e3d 6a5d 5b3d 7260 693d 5dca 453d
000001d0: ac1a d83d bd86 733d 65c1 2c3d eb3c b43c
000001e0: d1dc e6bc d34b ddbc d1c8 ed3b 8365 953c
000001f0: 58cc a03c a32f d73d e1d7 8a3d 4b1b 413d
00000200: 8881 5f3e 61db ea3d 1e38 4e3d 52ea 5ebc
00000210: d6ce 1b3d fbbd 97bc d809 7f3b 6a03 993b
00000220: 03aa 90bd e12a e5bd 4b5f c7bb 645e 83bb
00000230: 6f66 a8bd 747a 7bbd 163e 23bd 9e2a 36bc
00000240: 8040 f23d 0df5 9b3d e6f7 7d3d 6694 213d
00000250: 0d75 b139 5aad d7bc a944 ee3a 280b 413c
00000260: a7f7 98bd 39c3 fdbc 8479 98bb b59b 083d
00000270: 1f9a f8bc 7a6e 59bc f1f8 fcbc 683b c6bc
00000280: ae7b a1bc 7fce f2bc 0bcb 433e b414 423e
00000290: 149c 88bb e047 1e3e 3eb2 8f3d c136 0b3c
000002a0: e75c 863d b4b8 fbbb c891 94bd 957d 54bd
000002b0: 63fa 04be 1ac1 0fbe e583 d4bd eab2 7cbd
000002c0: 1231 b53d d4d1 bc3d e8f9 06be 1eca 22be
000002d0: ae03 333e 5a1f a63c ee60 cebd e1a3 09be
000002e0: 015c 15be 2b71 2ebe eede 1dbe 08dc e5bd
000002f0: c242 1ebe 28e2 abbd 1a5d 42bd 2ef6 cabc
00000300: f4bd 153e 339c 8d3d f904 6f3d 13db a83d
00000310: f1b6 e3bc cf99 b5bb 21fc c93b 1983 f13c
00000320: cf69 12bc 5a3c 033c 3605 2aba 09a0 653c
00000330: b572 6cbb 5faf 7f3b 3800 f7bc 9ce7 f83b
00000340: 575a d1bc 6e6b c7bc e976 15bd 1bca e9bc
00000350: b250 8bbc f1a7 aabc 9023 83bc 53e9 15bd
00000360: 6c1d 69bc be47 8dbb ef8a 82ba 4d07 4dbc
00000370: 9404 78bb d7e5 61ba d695 3a3b 42d0 38bc
00000380: 5171 b63d d2f3 213e c560 e9bc 0674 00be
00000390: 8cda 5f3e 7cca 573d 5672 b7bd 19e0 eabd
000003a0: 3c93 19be 6aca 60be ddc5 34be be4b edbd
000003b0: 2938 4ebe c812 eebd d723 09bd 9466 963c
000003c0: e89b 153d 2498 ff3c 3aa7 413b c946 c03c
000003d0: b508 8ebb e207 7ebb c9bc dfbc 2175 4c3c
000003e0: 6813 77bd afed 98bd de67 84bd bf39 17bc
000003f0: 5c09 afbd 598a acbd 94fc 48bd b5ff 2dbd
0.03770401 0.062726855 0.07519863 0.09214039 0.018846676 -0.003965136 -0.032329045 -0.009320158
-0.078772984 -0.11046383 -0.11970844 -0.030541833 -0.11697138 -0.05680897 -0.051961157 -0.011404554
-0.05209717 -0.057954658 -0.07582678 -0.056726202 -0.019869778 -0.014217421 -0.021313373 -0.015721355
0.03837104 0.031587645 0.044239033 0.053459454 0.06633293 0.06619505 0.07289168 0.08401737
0.23869358 0.06198539 0.018355617 0.023926903 0.039523065 -0.013803171 0.0015008437 0.058740456
-0.06513516 0.0027279768 0.08257941 0.028365105 0.016492533 0.073378764 0.020014545 0.016047869
0.03997829 -0.056295943 -0.046861947 0.059787717 -0.22539411 -0.10935866 0.0031979277 0.036827404
-0.057387248 0.10810736 0.116998166 0.03750123 0.06136123 0.087252915 0.0081194565 -0.09404613
-0.056119327 -0.059728533 -0.037270218 -0.04864039 -0.033514686 0.008897445 0.0032081115 -0.004000298
0.037449762 0.02057464 -0.0048716418 -0.008424559 -0.010789117 -0.0075404453 -0.0062070237 -0.014857165
-0.04212253 -0.18682088 -0.1346962 0.04401743 -0.42758122 -0.16870473 0.013022866 0.072508276
0.0040465607 0.19977456 0.23041569 0.095821284 0.13771132 0.08028227 0.0030450586 -0.15927915
-0.08565075 0.0057466417 0.06558607 0.07324432 0.10996894 0.18131755 0.07178861 -0.017186122
0.40201265 0.08195827 -0.027961232 -0.06716865 -0.026270902 -0.09150289 -0.0922387 -0.050023858
0.058252126 0.053555883 0.056976743 0.04828869 0.10551962 0.05945467 0.042176623 0.022001704
-0.028181465 -0.027013695 0.007256605 0.018236881 0.019628689 0.10507133 0.06779457 0.04714517
0.21826756 0.114676245 0.050346486 -0.013605671 0.03803905 -0.018523207 0.003891578 0.0046695964
-0.07063677 -0.11189819 -0.006084358 -0.004009055 -0.08222663 -0.061396077 -0.03985413 -0.011118559
0.11828709 0.07615099 0.062003992 0.039448164 0.0003384728 -0.026327778 0.0018178421 0.011782445
-0.07469111 -0.030976878 -0.0046531577 0.03335162 -0.030346928 -0.013270969 -0.030880423 -0.024198249
-0.019712295 -0.02963948 0.19120423 0.1895321 -0.0041689966 0.15457106 0.07016419 0.008496941
0.065606885 -0.0076819304 -0.07254368 -0.051877577 -0.1298614 -0.14038506 -0.103767194 -0.061694063
0.0884725 0.09219709 -0.13181269 -0.15897414 0.17481872 0.020278621 -0.100770816 -0.13441421
-0.14585878 -0.17035358 -0.15417072 -0.11223608 -0.15455154 -0.08392745 -0.04745207 -0.02477559
0.14623243 0.06914558 0.05835435 0.0824491 -0.027797194 -0.005542017 0.0061640893 0.029481458
-0.00893636 0.008009994 -0.0006485762 0.014015206 -0.0036079113 0.0039014441 -0.030151471 0.0075959694
-0.025555773 -0.024343219 -0.036490355 -0.028538754 -0.017006252 -0.020832034 -0.016008168 -0.03659947
-0.014228206 -0.004311531 -0.0009959618 -0.012513948 -0.0037844526 -0.00086173177 0.0028470657 -0.011280121
0.08908332 0.15815666 -0.028488526 -0.1254426 0.21860713 0.05268334 -0.08957355 -0.114685245
-0.14997572 -0.21952215 -0.17653604 -0.11586712 -0.20138611 -0.11624676 -0.033481445 0.01835946
0.036525637 0.031200476 0.0029549138 0.023471253 -0.004334534 -0.0038762023 -0.0273117 0.012479098
-0.06032124 -0.074672095 -0.064651236 -0.009230076 -0.08546707 -0.08424825 -0.049069002 -0.04248019

2.bias f4 [32]
00000000: e1fa bdbe ce18 80be 58d6 cebd 5aa3 dbbe
00000010: 6421 77be 58fa bbbe aa55 d63e 5e66 5fbe
00000020: 6eaa 53be 7402 88be ba99 cdbe 431f c1bd
00000030: d74f b0be c91d 87be 6dca 2b3f 0d9c a43f
00000040: eec5 e23e cb43 d2be 392c 2abe 1a6e 873e
00000050: 498b 0d3e 0b5f c0be 1741 8ebe 73bb 863f
00000060: 3f74 babe dd9c 75be f404 3bbe 9006 b2bd
00000070: 4507 ccbe b405 d5be 2641 05bf 57cb 90be
-0.37105468 -0.25018924 -0.100994766 -0.42898065 -0.24133831 -0.36714435 0.41862231 -0.21816394
-0.20670483 -0.26564372 -0.40156347 -0.09429791 -0.34435913 -0.26389912 0.6710575 1.2860123
0.44291633 -0.41067347 -0.16618432 0.26451188 0.13822664 -0.37572512 -0.27784035 1.0525955
-0.36416814 -0.2398562 -0.18263608 -0.08692658 -0.39849296 -0.41605914 -0.52052534 -0.28280136

5.weight f4 [100, 2048]
00000000: 8c42 e6bc 7ca3 ef3c a1ab 163c 3aaf 523d
00000010: 11b4 2d3d 79d4 173c cb84 a63c 6904 fb3c
00000020: 9211 d6b9 ba68 3d3c a6c5 9cbd 4a5a d3bc
00000030: 84d0 2a3d 9afa 353b 735c 233c 5c0c 74bc
00000040: 93b5 973c c9d0 093d 25ed cd3c b7e6 8e3c
00000050: 867a c6bd 8ba4 783d eb5f f3bb 33bd c2bc
00000060: 367f 21bc a0d2 86bb 47a9 353d 290b 63bc
00000070: 069b 89bd b4cb 5cbd 40a9 06bd b7f6 22bc
00000080: ec45 d1bc 4020 fa3b d1a7 f2bc 86d8 d8bc
00000090: 3b12 fa3b 0db9 483b eefb 09bd b60b e2bc
000000a0: 25d2 e63c 36f0 b23c 2ce0 0f3e e4c7 bc3d
000000b0: 69cb 033c 8df5 89bc 6c80 85bd 1e72 4cbc
000000c0: 275e b33c a0b0 283d ee81 053c b326 c8bb
000000d0: 0b4b 3a3d 8f87 3c3c 228d 8ebb 54be 81bd
000000e0: 9161 f539 5130 0d3d 241d dfb7 9b3a 573d
000000f0: c2a7 583b 5b21 1fbd ce5f 6a3c ea71 f43c
00000100: e65f d93c f21e 22bd 000a 353b 72ff f1ba
00000110: f9fc 773b 00ea 983c 5bcf 97bc 7879 c03c
00000120: 1f11 d93d 2664 14bd cba5 d5bb 5687 eb3c
00000130: 54f5 163d 9484 a7ba 2d1a 99bc c9a5 ab3c
00000140: a736 4b3d 60cb 353c e534 d13b e925 323d
00000150: d89a d23a 9802 44bd bd74 42bc d93f 183d
00000160: af0a b73c 2d45 c43c 850d 7ebc 34cf 1c3d
00000170: 2be8 5f3d 34d4 b4bb 1674 713c aa74 d83c
00000180: 61e2 203d c8ad 76bc 3b78 ccbc 56fb 87bc
00000190: 8750 013d dde8 6d3c 1e7b 90bb 9633 0b3d
000001a0: 0138 b83d ebb5 46bc e399 10bd 6401 f3bc
000001b0: 437f 0cbc e134 d83c 2314 0abd 7c37 e03c
000001c0: 835b c0bc e46a 043d 1f58 303b 8a2c 26bd
000001d0: 2cba b5bb 019a 7e3b 2f3e 00bd 9adf 3e3a
000001e0: 2342 62bc d6e1 2ebc ea64 babb bdd0 d3bc
000001f0: 0869 dbbb 2d68 983c 0bc2 973c 11ff b1bb
00000200: 17eb 8bba 4037 44bc 87ed 26bc c27f b6bc
00000210: 7a11 d8bc d57f 6c3c 0e51 243d 7964 9bbb
00000220: a4a6 183c d6c4 bfbb dbbb 82bd 00fe bbbc
00000230: 32d4 a4bc d829 1ebd 9e11 333d 6426 debb
00000240: d57c 063d 8c51 ef3a 79f1 4bbd 0b5c f9bc
00000250: e583 3fbb a84d 2a3d 59bf de3b 6fde 41bd
00000260: 774d 4cbb ae93 0ebd 2530 773b 5d7f bd3c
00000270: 60e7 733c 2564 e3bc d2b8 ddbc e9f4 24bd
00000280: 898a eabb 121c f6bb 6c58 24bc 4429 133d
00000290: 6dee 673c 7bf7 a7b9 ae74 22bd 623f 28bc
000002a0: e56f 873c 84d8 233c 5d56 883d 3f5f aabb
000002b0: 2bd8 a53c 8d34 84bc 4b79 ba3c 1104 63bc
000002c0: 7b64 4c3c 7a65 053c 1f1b a33b 0243 94bc
000002d0: 3382 263d 462e 9e3c 03c8 42bc b6f5 31bc
000002e0: addb 393b 18c4 0ebc fe29 b53b 8ec8 cb3c
000002f0: 3a1e 5dbc be50 1abb a11d 43bd ad73 dbbc
00000300: 8fb1 e3bb 976a 6dbc f217 3dbc a53c 2abd
00000310: 6b47 103c 5496 2d3b bf5a acbc a18b 54bc
00000320: e9ba 163b 7d46 e43b 1730 66bd af60 1ebc
00000330: d8af 743b d18d 22bc 8d18 00bc cca7 c3bb
00000340: 230f 393c f436 b5bc fa69 fdbc 2c31 e13b
00000350: 802b 523b 1fe6 9b3c ecad 69bb 52ef 263c
00000360: 5eb5 563c 85e3 d1bc 66d0 3d3c bff8 0d3d
00000370: 15cc 23bc cefe 91bc 44d7 20bd 8b3f f8bb
00000380: 09fb adbc b692 5e3c cde5 143d 9862 933b
00000390: 3294 0e3c 4f49 833c 28f4 413b cd95 06bc
000003a0: 553d 283c 3a37 153d 8713 163d 2a75 46bb
000003b0: ba22 25bc ad9d febc d2f2 2abc d9bb 78bc
000003c0: 3b44 0f3c 6d1e 283d 35fa 65bc f94a 07bd
000003d0: df40 0cbd d2a8 2ebd e01d ed3c ae37 e0bc
000003e0: eff3 9a3c e221 b0bb 2858 10bc befc 1dbc
000003f0: 20b6 7cbc 5ac8 26bc 0be2 04bd c870 473b
-0.028107904 0.02925276 0.009196193 0.05143664 0.042408053 0.009266966 0.020326992 0.030641751
-0.00040830352 0.011560613 -0.07654886 -0.02579989 0.041702762 0.0027767778 0.009970772 -0.014895525
0.018519199 0.03364638 0.025137493 0.017443998 -0.09691338 0.060703795 -0.007427206 -0.023771858
-0.00985699 -0.004114464 0.04435089 -0.013857641 -0.067190215 -0.053905204 -0.032876253 -0.009946517
-0.025546037 0.007633239 -0.029621037 -0.026470434 0.007631568 0.0030627877 -0.033687524 -0.027593475
0.028176377 0.021843057 0.14050359 0.092178136 0.008044102 -0.01684072 -0.06518635 -0.0124783795
0.021895481 0.041184068 0.008148653 -0.006108129 0.045481723 0.011506929 -0.0043503204 -0.0633513
0.00046802734 0.034469906 -2.6597241e-05 0.052546125 0.0033058976 -0.03885017 0.014305068 0.029839475
0.026534986 -0.039580293 0.0027624369 -0.001846297 0.0037839992 0.018666267 -0.018531492 0.02349542
0.10598969 -0.03622832 -0.006520008 0.028751057 0.036855057 -0.00127806 -0.01868924 0.020953076
0.049612667 0.011095852 0.0063844793 0.043493185 0.0016067876 -0.047854036 -0.011868653 0.037170265
0.022343962 0.023958767 -0.015506153 0.03828354 0.054664772 -0.0055184606 0.01473715 0.026422817
0.03927839 -0.015056081 -0.024959674 -0.016599339 0.031570937 0.014520851 -0.004409208 0.033984743
0.08995057 -0.012128334 -0.035303008 -0.029663749 -0.008575263 0.026392402 -0.03371061 0.027370207
-0.023481136 0.0323285 0.0026907993 -0.04056982 -0.005545875 0.0038849118 -0.031309303 0.0007281244
-0.013809714 -0.010673961 -0.0056882994 -0.02585637 -0.0066958703 0.018604362 0.018525144 -0.0054320176
-0.0010674921 -0.011976063 -0.010188467 -0.022277717 -0.026375521 0.014434774 0.040116362 -0.004742202
0.009317074 -0.005852322 -0.06383487 -0.022948265 -0.020120714 -0.038614124 0.043717973 -0.006779479
0.032833893 0.0018258556 -0.049790833 -0.030439397 -0.0029222902 0.041577965 0.0067977128 -0.04733127
-0.0031174102 -0.034808807 0.0037717905 0.02313202 0.014886707 -0.027757714 -0.027065668 -0.040272627
-0.007157628 -0.0075106705 -0.010030847 0.035928026 0.014155966 -0.0003203711 -0.039662056 -0.010269018
0.016532848 0.010000352 0.066570975 -0.0051993425 0.020244678 -0.01613834 0.022762915 -0.01385595
0.012475128 0.00814187 0.0049775983 -0.018098358 0.04065151 0.019309174 -0.011888507 -0.010861805
0.0028359697 -0.008713745 0.0055286875 0.024875905 -0.013495976 -0.0023546661 -0.04763568 -0.026788557
-0.006948657 -0.014490745 -0.011541354 -0.04156174 0.00880609 0.0026487308 -0.021039365 -0.012972743
0.002299959 0.0069664107 -0.056198206 -0.009666606 0.0037336256 -0.009921507 -0.007818353 -0.0059709307
0.011295113 -0.02212093 -0.030934323 0.006872317 0.0032069385 0.019030629 -0.0035656644 0.010188894
0.013104765 -0.025621185 0.011585331 0.03466105 -0.009997387 -0.017821696 -0.039267793 -0.0075759343
-0.021237867 0.013584783 0.036351968 0.0044978373 0.008702325 0.016026167 0.0029594991 -0.008214426
0.010268529 0.03642962 0.036639716 -0.0030282238 -0.01007908 -0.031081045 -0.010433869 -0.015181505
0.008744295 0.04104464 -0.014036705 -0.033030484 -0.034241553 -0.04264147 0.02894491 -0.0273703
0.018915145 -0.005375133 -0.008810081 -0.009642778 -0.015424281 -0.0101796035 -0.032442134 0.0030432213

5.bias f4 [100]
00000000: 94df 69bd efc9 223e f29d 81bd bc75 983d
00000010: 4a2f 94bc 90a4 f1bd 3d84 123e 6174 f2bd
00000020: 8bd1 cebb 9c32 283e 5051 113e 86ac ebbc
00000030: e6fb f9ba ee21 cd3d a39a 943e faf8 0a3d
00000040: f31b b33d 0541 02bd 7740 6f3d 15bb bcbd
00000050: 6294 05bd b193 1bbd a87b 17bc e5f6 bebd
00000060: ea15 e1bc 5b08 0a3d 85e0 f23c 538f 71bc
00000070: 9071 08bd 6e68 aa3c d535 56bb 26b3 47bd
00000080: 93d1 b93d e5c4 18bd 815d 49ba b712 1d3e
00000090: af2c 083d 4e10 a53d d5cc a3bc d4df 8f3d
000000a0: 1592 623c 245f 253d aad2 c63d ee65 a4bc
000000b0: 67f6 b6bb 7ac0 2cbd 88d6 003c 29d1 ce3a
000000c0: ad7c 0f3e b428 a53d aa71 c6bc 64d4 4739
000000d0: 86c7 04bd e115 b3bd f0ec dc3c fa1a 003e
000000e0: 96aa 70bd aab8 77bd 7d89 5fbd 2e2c 373e
000000f0: f48a bbbc ab04 cfbc 1475 89bd 525c b5bc
00000100: 9615 843c aef3 613d 3df7 993e 3af7 4e3d
00000110: b7e3 a13d 6127 dbbc 2f46 82bd 2009 debc
00000120: 0330 f03c e52f 0e3e d8f2 47bd 9cee 2cbc
00000130: d245 3a3e 6c57 a3bb e799 273d 006d 343d
00000140: a51e 1cbd 9d96 ba3d 2b69 34bd 015d 31bd
00000150: 2573 99bc f93c 813d b421 f1bd 078e 9b3e
00000160: 7167 e83d bfd2 9eb9 2b7e 8abd 4e0e 9fbc
00000170: 0e5b f3bc e89a b3bd b823 8ebd 86ef 353b
00000180: a677 073e ce74 d03c b887 1ebd 95da c13d
-0.057097986 0.15897344 -0.06328954 0.07444331 -0.018088955 -0.11798966 0.14308257 -0.11838604
-0.0063116006 0.16425556 0.14191175 -0.028768789 -0.0019072264 0.10016237 0.29024228 0.03392885
0.08745565 -0.03180029 0.058411088 -0.092153706 -0.032612212 -0.037982646 -0.009245791 -0.09324435
-0.02747627 0.033699375 0.029648075 -0.014743644 -0.033311427 0.02080175 -0.0032685895 -0.048754834
0.09073176 -0.03729715 -0.00076814747 0.1533917 0.03324574 0.080597505 -0.019995132 0.07025114
0.013828774 0.040373936 0.0970815 -0.020068135 -0.0055835727 -0.042175747 0.007863648 0.0015778887
0.14012404 0.08064404 -0.024224121 0.0001905724 -0.032416843 -0.087444074 0.02696845 0.1251029
-0.058756433 -0.060478844 -0.05457448 0.17887947 -0.022893406 -0.02527078 -0.06711784 -0.022138748
0.016123574 0.05516403 0.3007144 0.050528742 0.07904761 -0.026752176 -0.06361043 -0.02710396
0.029319769 0.13885458 -0.04881558 -0.010554936 0.18190697 -0.0049847867 0.040918257 0.044049263
-0.038115162 0.091107585 -0.04404561 -0.043301586 -0.018731663 0.06310458 -0.117740065 0.30381796
0.11347855 -0.00030293126 -0.06762346 -0.019416 -0.029706504 -0.087697804 -0.069404066 0.0027761175
0.13229236 0.025446322 -0.03870365 0.09465519

7.weight f4 [10, 100]
00000000: 4e99 763e ee2f a7bd 3c4d 27be 69b5 51bc
00000010: 283e 6e3d 0643 92bd 1aed 85bd dcee a13d
00000020: 133a 993e b7d4 5e3e fcf2 97be a9c3 3a3d
00000030: 7d85 1ebe 3e31 7fbc ba68 86bd ce90 4ebd
00000040: 233b 2abd 0d8f ac3b 0c35 7ebd 51a1 273e
00000050: 8415 2a3e f769 2c3d 135f abbc a713 51bd
00000060: 3a59 56bd 432f 0ebd 8d49 913e 2eec a9bd
00000070: 1094 26be 0ef9 193e 6a7b 4e3e 8b0f 92bd
00000080: 1606 e33d 4734 bbbb 55f4 93bb 6f18 16be
00000090: 3910 8d3e 4b92 10be 9d3c 2fbe f44e 673e
000000a0: 1eb9 883e 8806 b73d bbba bebd 3c9e 293e
000000b0: be99 1cbb 1b09 9b3d 232a cf3d 7c04 40be
000000c0: d539 bebd 8d81 713e 14fc 9bbe aec2 113a
000000d0: a866 7f3d ab14 24be 6f51 b7bd 887e 673e
000000e0: df7b 823e 8b73 4bbd 61a8 c7bc b7b1 86bd
000000f0: e7af d2bd 9e22 aabd 9456 0c3e 0499 02bd
00000100: 41eb 7b3d c822 873c b694 963e c68d 19be
00000110: 82dc 9bbd 9dcf f9bd 9594 a33d d1b5 aa3a
00000120: 6d70 5cbe b668 473e 39ad 4f3d 6ab9 143e
00000130: 52b8 97bc 24ca 523e 9147 b53b 3bdf ad3d
00000140: 3657 30be 3886 323d 6782 b1bd 224e 6e3d
00000150: 6d9d 8f3e 2ee8 973e b53f ce3d d19f 3bbe
00000160: fbca 54bd fe05 163d 0ed4 433d 7483 04be
00000170: d795 b6bd 15b4 34be 9f50 193e d940 a4bd
00000180: a70e 333e c3d0 eebc 2fe9 dc3c 156c cbbc
00000190: 257d 6cbe 4a52 93be 087d 913d 1954 15be
000001a0: ab97 793c 8155 e03e ec0e 20be 7a23 3cbe
000001b0: 8667 3f3d 3e0d 76bd 2287 0cbe 6c21 8dbd
000001c0: 3c0b 0d3d 6b41 56be a96f d5bc 011b 47bd
000001d0: 968e a23d bcc8 8e3e be20 b2bd b34d 14be
000001e0: 04c8 533e f5a0 7dbe 6f33 bdbc 02e2 9e3e
000001f0: fdf4 c43e 4957 82bd 9734 173e 3d38 b3bd
00000200: 8124 6ebd 45e3 99bd c870 b9bc eeea d8bd
00000210: 7047 d7bd 7292 93bd c21d 4dbb 0b0b 96bd
00000220: 9b46 8dbd ab50 d0bd ec42 c8bc 7719 98bd
00000230: a0b6 84bd 79d8 7c3e 49b0 7dbd ff1f d2bd
00000240: 03a7 c2ba 2b70 6a3e 190f 5c3e 8748 543e
00000250: 4f79 abbd 9fa9 b4bd 908d cd3d 77fe 34bb
00000260: c994 70bb badc ab3e adf3 06be 307f c3bd
00000270: 9a9f c53d b452 6abd 5a46 a83e 40c5 64bd
00000280: 2a4f f43c dbe0 3cbe 299b 0c3d 446f 2ebc
00000290: fda0 8bbd 4a72 e4bd 77a3 2dbe 3c6b d83d
000002a0: cc62 40be e8c2 be3e 1f0f 413d 5a68 a93e
000002b0: 9d92 013e e940 693e e4c5 3cbd 9636 a2bd
000002c0: 8ece 153e 72a7 16be 6dbc e6bd eb4d 263e
000002d0: 9bf0 fcbd d736 043e 8cf2 d1bd f6b7 bd3c
000002e0: 821c 52bd 497e 3cbe a7ff ea3d e66e b0be
000002f0: 91fe 13be b21e d3bd 69b7 bcbd a1df e0bc
00000300: 4986 b5bc d005 b7bd 035e 01be a6e7 683e
00000310: efee 46be f76f e3bd bbe9 09be c2c8 41be
00000320: 5974 f13d 57f5 e93d 0909 8fbd ee85 603d
00000330: 9963 2bbe 6262 45bd 20d5 1ebb b12c efbd
00000340: 8c41 633a 960b 1c3d c7cf 2d3e 2562 c5bc
00000350: 6c8d 83bd b5e4 083e dc69 583e afe6 debc
00000360: d714 a63a 1d04 173d 8802 62bc 2bb4 803d
00000370: 1b67 fabd c8f3 bebc e3df 9fbc f15f cf3b
00000380: a626 f9bc 72c3 03be d6d3 f8bc 5c07 06bd
00000390: 470d 703e c1cf 41bd 3c53 29be ecea 66bd
000003a0: ce65 833e 9d9f 16bd 437f 3c3b f8bc fa3b
000003b0: 6308 d33c 6c24 c2bd 1ee3 aa3c 6bbd 873e
000003c0: 2858 963e c738 c6bd 0920 95bd 063c 4f3e
000003d0: 7b75 433c 9dfd b43d 17ae 8e3c 9874 3dbd
000003e0: 046a aebb 1b3d 303e 2a9b 3b3e dcbf e2ba
000003f0: 4139 09bb f5a1 a0bc 21ce 8c3d 8b69 74bd
0.24081919 -0.08163439 -0.16338056 -0.012799599 0.058164746 -0.0714169 -0.06539364 0.07906887
0.2992712 0.21760832 -0.2967757 0.045596752 -0.15480609 -0.015575705 -0.06562944 -0.050431065
-0.041560303 0.0052660764 -0.06206231 0.16370131 0.1660977 0.042093243 -0.020919358 -0.051044133
-0.052331187 -0.03471304 0.28376427 -0.08297001 -0.16267419 0.15036413 0.20164266 -0.07131871
0.11085145 -0.005713019 -0.0045152106 -0.14657758 0.2755144 -0.14118306 -0.17112966 0.22588712
0.26703733 0.089367926 -0.0931296 0.16564268 -0.0023895348 0.07570096 0.10115459 -0.1875171
-0.09288374 0.23584576 -0.30465758 0.00055603206 0.06235376 -0.16023509 -0.08951079 0.22606862
0.2548513 -0.049670737 -0.024372282 -0.06576865 -0.10287457 -0.08307384 0.13704902 -0.03188421
0.061503652 0.016496077 0.29410332 -0.14995489 -0.07610418 -0.12197802 0.07987324 0.0013024156
-0.21527262 0.19473538 0.050702307 0.14523855 -0.018520508 0.20584923 0.005532213 0.084898435
-0.17220768 0.043585032 -0.086674504 0.058179982 0.28049794 0.29669327 0.10070745 -0.18322684
-0.05195139 0.03662681 0.047809653 -0.1294077 -0.089152984 -0.17646821 0.14972161 -0.08020181
0.17486058 -0.02915228 0.02696666 -0.024831811 -0.23094614 -0.2877372 0.07103926 -0.14582862
0.015233914 0.43815234 -0.15630692 -0.18372908 0.046729587 -0.060071222 -0.13723424 -0.0689114
0.034434542 -0.20923392 -0.02605422 -0.048609737 0.07937352 0.27887523 -0.08697651 -0.14482765
0.20681769 -0.24768431 -0.023095815 0.31031805 0.3846816 -0.063643046 0.14766155 -0.08750961
-0.05814028 -0.07514051 -0.022636786 -0.10591684 -0.105116725 -0.072056666 -0.0031298255 -0.07326325
-0.068982325 -0.10171636 -0.024445973 -0.07426732 -0.064801455 0.24691953 -0.061935697 -0.10260009
-0.0014850799 0.22894351 0.21490134 0.20730792 -0.08372747 -0.08821415 0.100367665 -0.0027617493
-0.0036709777 0.33566839 -0.13178892 -0.095457435 0.09649582 -0.057207778 0.32866174 -0.055852175
0.029822905 -0.1844515 0.03432766 -0.010646645 -0.068178155 -0.111546114 -0.16956888 0.10567328
-0.18787688 0.37258077 0.04713356 0.33087426 0.12653585 0.22778668 -0.04608716 -0.07920568
0.14629576 -0.14712313 -0.11266408 0.16240661 -0.12350579 0.12911545 -0.1025134 0.023159008
-0.05129672 -0.18407549 0.11474543 -0.3445961 -0.14452578 -0.10308589 -0.0921467 -0.027450385
-0.022158759 -0.089366555 -0.12633519 0.22744617 -0.19427083 -0.1110534 -0.13468067 -0.1892424
0.1178977 0.11423748 -0.06984145 0.054815225 -0.16737212 -0.04818953 -0.002423592 -0.11678446
0.000866913 0.038096987 0.16973792 -0.02409465 -0.064234585 0.13368495 0.21134132 -0.027209608
0.0012671006 0.036869157 -0.013794549 0.06284364 -0.12226697 -0.023309603 -0.019515937 0.006328576
-0.030413937 -0.12867525 -0.030374449 -0.032721862 0.23442565 -0.04731727 -0.16535658 -0.056376383
0.25663608 -0.036773313 0.0028762377 0.0076519214 0.025760835 -0.09479603 0.020860251 0.26511702
0.29364133 -0.09678798 -0.07281501 0.20237741 0.011929865 0.088374354 0.017416997 -0.04625377
-0.0053226966 0.1721081 0.18320909 -0.001729961 -0.0020938667 -0.019608477 0.068752535 -0.059670966

7.bias f4 [10]
00000000: ac8b 93be 8ef3 bebe ab30 e4bd a396 803e
00000010: 738f b13e 6ec7 ca3d bb94 2b3d 41b8 043e
00000020: 6b16 94be 32df 463e
-0.288175 -0.37295192 -0.11142095 0.25114927 0.34679756 0.099013194 0.041889887 0.12960912
-0.28923354 0.1942108
