models/non_seq_trained/l_2/more_cifar_small_36px_2.pth (torch, 862159 bytes, 8 tensors)

0.weight f4 [16, 3, 4, 4]
-0.2965538 -0.12944397 0.22134164 0.30629218 -0.48363465 -0.21468066 0.29920173 0.4540028
-0.50743484 -0.19185376 0.32334778 0.44090313 -0.3321787 -0.10559606 0.23824781 0.28329116
-0.35325667 -0.19005913 0.15458682 0.25449982 -0.5370517 -0.26566738 0.25305086 0.41948164
-0.55204576 -0.23500563 0.28619513 0.4191663 -0.37325653 -0.15044844 0.19745395 0.2605621
-0.30449304 -0.15360375 0.16164465 0.24907322 -0.4795609 -0.21966474 0.2683437 0.4165494
-0.4971716 -0.18577456 0.3047895 0.42616305 -0.32655075 -0.10676189 0.21552542 0.26946133
0.22928073 0.28889725 0.3249711 0.29961193 0.307571 0.37115183 0.4157841 0.3771767
0.30599105 0.3614123 0.38597322 0.3448522 0.23179127 0.2782631 0.30642503 0.2603964
-0.07198887 -0.07476325 -0.049894325 -0.012799209 -0.12416157 -0.1336967 -0.091922835 -0.054214913
-0.15604457 -0.16526854 -0.13424192 -0.091327354 -0.15491852 -0.16000529 -0.12158225 -0.092902824
-0.10636443 -0.14916718 -0.1435341 -0.10244454 -0.21678044 -0.26568887 -0.24148926 -0.19076397
-0.2630515 -0.3070555 -0.28733414 -0.22695903 -0.24914704 -0.27857068 -0.23964411 -0.19267872
0.36377788 0.5030529 0.30461946 0.010127683 0.507858 0.39884067 -0.0029734252 -0.2844102
0.29094514 -0.010588264 -0.38393387 -0.44774365 0.014279254 -0.28002 -0.4373341 -0.29200038
0.34175405 0.46022034 0.26415956 -0.025502853 0.4597986 0.33830243 -0.053349882 -0.32619512
0.23415315 -0.07000354 -0.43368796 -0.4907619 -0.039271224 -0.32931703 -0.47105947 -0.31932178
0.32012707 0.4394557 0.2649945 0.0086847795 0.4422529 0.3337119 -0.018653179 -0.26162204
0.23439462 -0.046387725 -0.3647517 -0.40888312 -0.023255885 -0.28683162 -0.3995064 -0.2527916
0.04849399 0.13718165 0.16034843 0.06960659 0.03801825 0.16817106 0.20468147 0.12557158
-0.05778943 0.05861827 0.11272 0.07471309 -0.12707473 -0.09535991 -0.06221999 -0.06587149
0.10447304 0.21812208 0.26312634 0.16313341 0.106990814 0.2658292 0.32479224 0.23965074
-0.0075065955 0.1372152 0.20941469 0.16810833 -0.0922129 -0.04072759 0.0072655147 0.0055223117
0.13229965 0.26583627 0.30865496 0.19249861 0.13467948 0.3150801 0.37530565 0.27521443
0.019245142 0.18779217 0.2547416 0.20259272 -0.092070945 -0.02201139 0.026597781 0.017334975
-0.29357228 -0.39717615 -0.2989116 -0.1331209 -0.44847536 -0.55341864 -0.40523157 -0.20497853
-0.38763443 -0.44303495 -0.28374943 -0.09571365 -0.19255795 -0.19068258 -0.05572041 0.06742092
-0.13815227 -0.21796495 -0.14483811 0.0028591545 -0.25391793 -0.33699214 -0.2133655 -0.031460937
-0.19513886 -0.23555933 -0.086285226 0.07692867 -0.025389317 -0.013402509 0.11145284 0.20809533
-0.068365164 -0.12763748 -0.060011633 0.058845975 -0.16452688 -0.22605056 -0.11043571 0.04150193
-0.11520146 -0.13873562 0.0041195923 0.14276402 0.013641462 0.035315618 0.15357319 0.23006389
0.12409823 0.23923142 0.15719555 0.012403771 0.30864424 0.4975634 0.39989722 0.14449902
0.3236648 0.535901 0.45944214 0.19613005 0.15722086 0.31590146 0.26571998 0.09965228
00000000: e6d5 97be f68c 04be 62a7 623e 54d2 9c3e
00000010: f69e f7be 3fd5 5bbe f830 993e 0e73 e83e
00000020: 40e7 01bf 5075 44be d78d a53e 0ebe e13e
00000030: 5413 aabe bf42 d8bd 3cf7 733e 8a0b 913e
00000040: 0fde b4be dc9e 42be 024c 1e3e cd4d 823e
00000050: 387c 09bf 8e05 88be e28f 813e 4cc6 d63e
00000060: df52 0dbf 51a5 70be 2b88 923e f79c d63e
00000070: 7b1b bfbe 280f 1abe 5e31 4a3e 6568 853e
00000080: 83e6 9bbe 4d4a 1dbe 2d86 253e 0d0d 7f3e
00000090: 0289 f5be cbef 60be 5864 893e f745 d53e
000000a0: 478d febe b03b 3ebe 5f0d 9c3e 0b32 da3e
000000b0: a931 a7be faa5 dabd b2b2 5c3e d6f6 893e
000000c0: 91c8 6a3e 57ea 933e 9d62 a63e bc66 993e
000000d0: f279 9d3e 9d07 be3e a7e1 d43e 4e1d c13e
000000e0: dcaa 9c3e 080b b93e 489e c53e 7890 b03e
000000f0: b15a 6d3e 8078 8e3e bee3 9c3e ad52 853e
00000100: e76e 93bd 7a1d 99bd fe5d 4cbd c6b3 51bc
00000110: 6c48 febd cae7 08be 0a42 bcbd 7510 5ebd
00000120: 26ca 1fbe 283c 29be b776 09be d609 bbbd
00000130: f6a2 1ebe 6dd8 23be 1d00 f9bd d643 bebd
00000140: 98d5 d9bd 48bf 18be 9afa 12be 71ce d1bd
00000150: b1fb 5dbe 5f08 88be f648 77be a157 43be
00000160: b0ae 86be 6136 9dbe 761d 93be f367 68be
00000170: 6720 7fbe d1a0 8ebe 4465 75be 924d 45be
00000180: 1841 ba3e 13c8 003f 15f7 9b3e 95ee 253c
00000190: fb02 023f d834 cc3e ccdd 42bb 379e 91be
000001a0: c3f6 943e 667a 2dbc fb92 c4be a83e e5be
000001b0: 88f3 693c c85e 8fbe 41ea dfbe 1381 95be
000001c0: 63fa ae3e 00a2 eb3e ec3f 873e 5ceb d0bc
000001d0: b96a eb3e fa35 ad3e 6885 5abd 0c03 a7be
000001e0: d8c5 6f3e 045e 8fbd 590c debe 2545 fbbe
000001f0: ddda 20bd 3e9c a8be b52e f1be 257e a3be
00000200: b2e7 a33e 5600 e13e 5cad 873e 9b4a 0e3c
00000210: f96e e23e 49dc aa3e 8dce 98bc 53f3 85be
00000220: 2505 703e 0e01 3ebd bcc0 babe 2159 d1be
00000230: 2083 bebc 98db 92be 1a8c ccbe e76d 81be
00000240: a2a1 463d 5979 0c3e 6132 243e e68d 8e3d
00000250: 06b9 1b3d 0935 2c3e 0598 513e d695 003e
00000260: 9cb4 6cbd b619 703d bed9 e63d 2d03 993d
00000270: e11f 02be 0e4c c3bd 63da 7ebd a2e7 86bd
00000280: f6f5 d53d 655b 5f3e 7fb8 863e 720c 273e
00000290: 001e db3d c41a 883e 2b4b a63e 0167 753e
000002a0: e3f9 f5bb 2482 0c3e ce70 563e 9724 2c3e
000002b0: 1eda bcbd f9d1 26bd 8e13 ee3b 82f4 b43b
000002c0: 8f79 073e b11b 883e 0608 9e3e 5b1e 453e
000002d0: 6be9 093e 2e52 a13e 1028 c03e e8e8 8c3e
000002e0: fda7 9d3c 974c 403e 7e6d 823e 7774 4f3e
000002f0: b18f bcbd 3b51 b4bc 97e3 d93c 1402 8e3c
00000300: 1b4f 96be ac5a cbbe f10a 99be d850 08be
00000310: 909e e5be d8ac 0dbf 837a cfbe e4e5 51be
00000320: 0578 c6be 7ad5 e2be 9b47 91be 8505 c4bd
00000330: e92d 45be 4b42 43be 163b 64bd fb13 8a3d
00000340: ca77 0dbe 3432 5fbe 7150 14be a760 3b3b
00000350: 8801 82be 3c8a acbe 7c7c 5abe 2fdd 00bd
00000360: 7bd2 47be 7736 71be 4fb6 b0bd c78c 9d3d
00000370: 42fd cfbc 3296 5bbc 6341 e43d f116 553e
00000380: 0903 8cbd 66b3 02be c2ce 75bd 7a08 713d
00000390: bc79 28be cc79 67be 1e2c e2bd eefd 293d
000003a0: beee ebbd b610 0ebe a5fd 863b bb30 123e
000003b0: 7080 5f3c 1ca7 103d 4a42 1d3e de95 6b3e
000003c0: 3627 fe3d 15f9 743e dff7 203e 3039 4b3c
000003d0: 9e06 9e3e a1c0 fe3e 54bf cc3e 8df7 133e
000003e0: 65b7 a53e cf30 093f 003c eb3e 51d6 483e
000003f0: 81fe 203e d6bd a13e 730c 883e 7f16 cc3d

0.bias f4 [16]
-0.7499349 -0.41504633 -0.8141784 -0.31041777 -0.50925684 0.9600706 -0.9060934 -0.82629603
-0.8962088 -0.80848414 -0.6285162 -0.5825722 0.82318276 1.4856973 0.5845651 -0.6398506
00000000: bcfb 3fbf f480 d4be ff6d 50bf 14ef 9ebe
00000010: a85e 02bf 30c7 753f bdf5 67bf 2388 53bf
00000020: f16d 65bf d1f8 4ebf 70e6 20bf 7423 15bf
00000030: 1bbc 523f 542b be3f 0fa6 153f 40cd 23bf

2.weight f4 [32, 16, 4, 4]
-0.042874873 0.097790815 0.20931165 0.08140743 0.061490964 0.23803256 0.027057972 -0.05033157
0.051269107 -0.11305423 -0.1966215 -0.13672005 -0.1389723 -0.16531432 -0.13611212 -0.14046182
-0.0860614 -0.08726114 -0.07923192 -0.034109518 -0.07735255 -0.08095448 -0.06316955 -0.046217225
-0.03938639 -0.019202357 -0.012770096 -0.012292491 0.017723018 0.02614344 0.028705847 0.052130885
0.19883303 0.0047480655 -0.041215695 -0.007076515 0.020019857 -0.0010808965 0.0050818054 0.031788092
-0.0477592 0.0060492437 0.048926156 0.01685813 -0.010883142 0.060606346 0.036182318 0.01063998
-0.009201754 -0.0159161 -0.046512265 0.030025098 -0.14783043 -0.06821814 -0.011395665 0.061303537
-0.08732192 0.12743385 0.09805768 0.08898699 0.04685756 0.07129299 0.0047344277 -0.053690698
-0.054395054 0.18857214 0.029873822 -0.10221654 0.27971005 0.19877164 -0.08146899 -0.13103357
-0.0041561937 -0.12305337 -0.11406161 -0.09872787 -0.11714212 -0.113979146 -0.08859686 -0.01814529
-0.068802804 -0.10345353 -0.08793189 -0.038171515 -0.27422777 -0.12945579 -0.08740009 -0.035339173
-0.03717928 0.09198772 0.03272157 -0.016711408 0.004806991 -0.0606425 -0.08835751 -0.07648216
-0.063900374 0.00052111427 0.08649383 0.044771437 0.0809072 0.2721797 0.08837268 -0.064084634
0.50625443 0.1525605 -0.0612458 -0.10343486 -0.087285146 -0.09549262 -0.06650081 -0.038758136
0.04086573 0.030765727 0.027521947 0.02130022 0.106041476 0.05470139 0.057525177 0.020098183
-0.01870385 -0.011711459 -0.004584493 -0.002348438 -0.010404418 0.0472723 0.03271992 0.05498596
0.19211555 0.023637176 -0.022527287 -0.03346894 0.028105563 -0.05485099 -0.06805386 -0.029961126
-0.056297116 -0.1369236 -0.056834735 -0.043083988 -0.07710114 -0.08491813 -0.045172114 -0.033745725
0.08707867 0.068719104 0.030464556 0.005748881 -0.0009924934 -0.005468987 -0.021155328 -0.021246422
-0.0127187045 0.045458842 -0.0023175122 0.03575601 -0.030440696 -0.012415373 -0.012270644 -0.021836683
-0.09744214 0.086546265 0.17313226 0.09350055 0.17294574 0.42154923 0.11276266 -0.018114949
0.25888756 -0.032920934 -0.10877088 -0.096602 -0.141976 -0.07111483 -0.06613536 -0.07724291
-0.113895215 -0.096914925 0.013014427 0.07005053 -0.24620023 0.061090402 0.11446818 0.1152871
0.08621105 0.19832835 0.07994241 0.021440774 0.0062289103 0.01850631 -0.029340893 -0.07337488
-0.014941314 -0.041100085 -0.029587816 -0.021555515 -0.1683511 -0.07393618 -0.019832904 0.011752822
-0.08975701 0.045386594 0.0457639 0.056232076 0.01706337 0.08956441 0.06753052 0.015401292
-0.09207305 -0.099496745 -0.087638974 -0.056044277 -0.11190912 -0.1252234 -0.11794971 -0.097398214
-0.13421942 -0.12055972 -0.121757366 -0.09066454 -0.053809468 -0.059539877 -0.0614941 -0.04420355
0.047482997 0.115762405 -0.13686019 -0.1359069 0.1243299 0.016406871 -0.12963311 -0.07542135
-0.23479679 -0.18022127 -0.14007212 -0.03672114 -0.11735125 -0.045576233 -0.0017911242 0.059043203
0.03351854 0.081977546 0.002560425 0.01179903 0.015675548 -0.060139045 -0.07597793 -0.025689209
-0.10287306 -0.17219467 -0.10419955 -0.038926635 -0.11836756 -0.06945659 -0.058875453 -0.05560717
00000000: 909d 2fbd 8d46 c83d cb55 563e f0b8 a63d
00000010: f3dd 7b3d cfbe 733e aea8 dd3c 7a28 4ebd
00000020: 8eff 513d fa88 e7bd 2657 49be 5700 0cbe
00000030: c14e 0ebe 2848 29be fa60 0bbe 39d5 0fbe
00000040: f640 b0bd f8b5 b2bd 5844 a2bd 6cb6 0bbd
00000050: 046b 9ebd 76cb a5bd 095f 81bd 464e 3dbd
00000060: a053 21bd 434e 9dbc aa39 51bc 7266 49bc
00000070: dd2f 913c c42a d63c 8628 eb3c 3287 553d
00000080: e39a 4b3e a995 9b3b cad1 28bd 1ce2 e7bb
00000090: af00 a43c deac 8dba 4685 a63b 3b34 023d
000000a0: 279f 43bd bc38 c63b cb66 483d 101a 8a3c
000000b0: 354f 32bc 5c3e 783d e933 143d 5053 2e3c
000000c0: f4c2 16bc 7b62 82bc a583 3ebd 32f7 f53c
000000d0: dc60 17be f4b5 8bbd e2b4 3abc 6b19 7b3d
000000e0: d6d5 b2bd 057e 023e 77d2 c83d d03e b63d
000000f0: b6ed 3f3d 0f02 923d 4223 9b3b c7ea 5bbd
00000100: 59cd 5ebd 0e19 413e f2b9 f43c e856 d1bd
00000110: 2836 8f3e cb8a 4b3e 37d9 a6bd aa2d 06be
00000120: ae30 88bb 6803 fcbd 2299 e9bd d631 cabd
00000130: 35e8 efbd e66d e9bd 4572 b5bd 6ea5 94bc
00000140: 7ce8 8cbd 72df d3bd a215 b4bd bc59 1cbd
00000150: 9567 8cbe 0f90 04be d2fe b2bd cfbf 10bd
00000160: 4d49 18bd 0f64 bc3d 0e07 063d 5de6 88bc
00000170: f783 9d3b 4564 78bd c8f4 b4bd aea2 9cbd
00000180: 33de 82bd 639b 083a ad23 b13d 4162 373d
00000190: adb2 a53d 235b 8b3e bcfc b43d ce3e 83bd
000001a0: e499 013f d238 1c3e e0dc 7abd a8d5 d3bd
000001b0: 8ec2 b2bd a291 c3bd 9431 88bd dac0 1ebd
000001c0: d362 273d 6808 fc3c b575 e13c cd7d ae3c
000001d0: 462c d93d 910e 603d 859f 6b3d f2a4 a43c
000001e0: d138 99bc 6be1 3fbc 8439 96bb 40e8 19bb
000001f0: 4b77 2abc 99a0 413d 5305 063d f538 613d
00000200: f0b9 443e c0a2 c13c 258b b8bc ba16 09bd
00000210: a33d e63c 6fab 60bd d25f 8bbd 0971 f5bc
00000220: ce97 66bd b335 0cbe 8acb 68bd d678 30bd
00000230: 34e7 9dbd 8ee9 adbd 6506 39bd f538 0abd
00000240: 4d56 b23d 9abc 8c3d ce90 f93c 1c61 bc3b
00000250: 8d16 82ba 3035 b3bb f04d adbc fa0c aebc
00000260: 1d62 50bc 0d33 3a3d 67e1 17bb e574 123d
00000270: c45e f9bc d969 4bbc d00a 49bc d8e2 b2bc
00000280: bf8f c7bd 2b3f b13d 9549 313e 377d bf3d
00000290: b018 313e 4dd5 d73e 1cf0 e63d cd65 94bc
000002a0: e98c 843e 1ad8 06bd 44c3 debd 45d7 c5bd
000002b0: 2862 11be a7a4 91bd fa71 87bd 8831 9ebd
000002c0: e541 e9bd 557b c6bd 773a 553c a776 8f3d
000002d0: ea1b 7cbe ee39 7a3d 4b6e ea3d a51b ec3d
000002e0: 6b8f b03d 9616 4b3e d9b8 a33d 90a4 af3c
000002f0: e31b cc3b 8c9a 973c 505c f0bc 9245 96bd
00000300: 6acc 74bc 9058 28bd 2662 f2bc 3195 b0bc
00000310: 3b64 2cbe da6b 97bd 9d78 a2bc e98e 403c
00000320: 86d2 b7bd 4be7 393d ed72 3b3d 9b53 663d
00000330: 7bc8 8b3c 8c6d b73d 714d 8a3d b355 7c3c
00000340: cc90 bcbd f3c4 cbbd 107c b3bd af8e 65bd
00000350: 9c30 e5bd 903a 00be 9e8f f1bd b778 c7bd
00000360: d170 09be 04e8 f6bd ed5b f9bd 55ae b9bd
00000370: 5167 5cbd 16e0 73bd 3de1 7bbd c80e 35bd
00000380: 887d 423d d714 ed3d 1425 0cbe 2e2b 0bbe
00000390: ada0 fe3d b467 863c 8bbe 04be 8276 9abd
000003a0: 926e 70be ed8b 38be 116f 0fbe e868 16bd
000003b0: da55 f0bd 25ae 3abd 28c4 eaba 49d7 713d
000003c0: bd4a 093d d8e3 a73d cecc 273b b850 413c
000003d0: 026a 803c 5c54 76bd 519a 9bbd 2d72 d2bc
000003e0: 1caf d2bd cd53 30be 9366 d5bd 8971 1fbd
000003f0: b16a f2bd 423f 8ebd 6327 71bd 58c4 63bd

2.bias f4 [32]
-0.12759317 -0.028106593 -0.083135016 -0.11289592 -0.050894562 -0.14810778 0.22451578 -0.15259598
-0.09225928 -0.11817034 -0.16103137 0.011406484 -0.12467092 -0.10661386 0.1353208 0.6949273
0.47798002 -0.13729756 -0.0001656537 -0.03056076 0.21994126 -0.10996394 -0.094612464 0.15930215
-0.12726504 -0.05722083 -0.046945643 -0.1515489 -0.10729846 -0.18673621 -0.117802724 -0.07842345
00000000: c9a7 02be cc3f e6bc b142 aabd fa35 e7bd
00000010: d176 50bd 91a9 17be 77e7 653e 1f42 1cbe
00000020: 6ff2 bcbd 4b03 f2bd 68e5 24be 43e2 3a3c
00000030: 7853 ffbd 5e58 dabd 8991 0a3e c1e6 313f
00000040: ccb9 f43e bb97 0cbe 54b3 2db9 8f5a fabc
00000050: 4838 613e c634 e1bd 2ec4 c1bd 1a20 233e
00000060: c451 02be 6460 6abd 134a 40bd a32f 1bbe
00000070: 4cbf dbbd c737 3fbe 8e42 f1bd 799c a0bd

5.weight f4 [100, 2048]
0.0045379074 -0.04273295 0.0019182633 0.009843324 -0.00052680954 -0.01767191 0.011175539 0.0096561555
-0.0052542444 0.020070383 0.014987958 -0.0058854152 -0.011494795 -0.017243197 0.025802586 0.02340841
0.024636691 -0.01080656 0.006095638 0.0027199327 0.026358554 0.0023045435 -0.02854141 0.052216113
0.007203392 0.0007313226 -0.046391916 -0.001494912 -0.013753166 -0.014766708 0.022891399 0.0011204478
-0.0153389415 0.014519359 0.057807334 -0.041221105 -0.031846546 0.040254023 0.03674122 -0.0005656896
0.019951783 -0.021467214 -0.04170155 0.02636309 -0.010680072 0.0090031335 -0.022952259 0.042296495
-0.013130173 0.011582684 -0.021261705 -0.03260914 -0.00046829286 -0.023288528 -0.029837864 -0.022637127
0.03551581 -0.05469509 0.006182602 -0.03780166 0.011601576 0.060666993 0.034667395 -0.001509355
-0.018043447 -0.019175982 0.011045503 -0.025762098 0.01664965 0.023528049 0.021837771 -0.0031782591
0.024308812 -0.012414167 0.0027492365 0.04156358 -0.042816956 -0.027128415 -0.0067864037 0.030362388
0.072873615 -0.04316446 0.007884319 0.03590495 0.02111077 0.029112337 0.00048428104 -0.025165357
0.036088668 0.024490869 0.0037664713 -0.07065055 -0.030465094 -0.035588942 -0.0036500287 -0.007313681
0.011063633 -0.005055669 0.001798679 -0.030132536 -0.045574784 0.053400125 -0.03996928 -0.04545034
-0.03636825 0.012380475 -0.02032865 0.040884614 -0.047282446 0.011553383 -0.0082549695 -0.021535456
-0.02934876 0.002614336 -0.023530604 -0.019265328 -0.014616044 -0.013650603 -0.031609785 -0.040371884
-0.03802265 -0.023002312 0.0075517897 -0.024245584 -0.018117981 -0.020870281 -0.0025573494 0.006644557
-0.02464657 0.03317739 0.035356108 -0.0046630157 0.029666584 -0.040669676 -0.007924909 0.041052893
-0.04621218 0.023961693 0.039597735 -0.023742327 0.027323244 0.032194782 -0.0035250916 0.09192582
0.0021884788 0.009762647 -0.073834255 0.0049938993 -0.008857724 0.0026245445 -0.046821374 -0.014808691
0.028564103 0.015954342 0.047697876 0.05448301 0.06347231 0.027148481 0.007510141 0.03556809
0.0005688188 -0.038647696 0.050220113 -0.012915422 0.03219745 -0.06654813 -0.026105277 -0.040339
0.0013617014 0.05953946 0.007680564 -0.009114333 0.005010965 -0.038639918 0.002689053 -0.022273175
-0.004298718 0.06269361 -0.005790873 0.0055767084 -0.032376137 -0.022444298 -0.0398858 -0.023493992
-0.002317101 0.00091664994 0.037297443 0.014618177 -0.009395191 -0.001035654 0.03847982 -0.007302708
-0.0068324083 -0.035666656 0.009183266 -0.013398268 -0.042993516 -0.024690757 0.034829624 -0.020012224
0.0004546147 -0.05347627 -0.02580811 -0.031517558 -0.045861077 -0.026957175 0.039602328 -0.03290011
-0.032912083 -0.006715189 0.0006023789 -0.06906412 -0.044912975 -0.014672007 -0.00730035 0.0014433756
-0.029169071 -0.014371913 0.006052147 -0.008850009 0.03390636 -0.050559334 0.008182188 -0.0044112694
-0.006158932 -0.002810864 0.0120931 -0.051202923 -0.022330208 -0.05662072 0.020400222 -0.019962505
0.063800566 -0.0091252625 -0.0012121056 -0.024586385 -0.034739416 0.0014224994 -0.011657089 0.0069264583
0.008548317 -0.02539456 -0.004664753 0.018125255 -0.008709511 -0.028286614 -0.03007548 -0.011919139
0.005719829 -0.0040161507 0.0050779344 -0.0007337325 -0.03443966 0.010880147 -0.006235788 -0.015969252
00000000: bab2 943b bf08 2fbd 3c6e fb3a e545 213c
00000010: 9719 0aba aec4 90bc 9c19 373c da34 1e3c
00000020: cc2b acbb a56a a43c 0d90 753c 71da c0bb
00000030: aa54 3cbc 9b41 8dbc f25f d33c fec2 bf3c
00000040: e3d2 c93c ff0d 31bc ebbd c73b e640 323b
00000050: e5ed d73c d307 173b adcf e9bc 90e0 553d
00000060: 6f0a ec3b 3bb6 3f3a 7305 3ebd ecf0 c3ba
00000070: f654 61bc 10f0 71bc be86 bb3c fddb 923a
00000080: 2f50 7bbc 9be2 6d3c 62c7 6c3d 76d7 28bd
00000090: 8671 02bd 67e1 243d f67d 163d c94a 14ba
000000a0: ec71 a33c 03dc afbc 3fcf 2abd 68f7 d73c
000000b0: 78fb 2ebc e181 133c 6006 bcbc 173f 2d3d
000000c0: f01f 57bc 4cc5 3d3c 072d aebc 2991 05bd
000000d0: 3485 f5b9 95c7 bebc 896e f4bc 7f71 b9bc
000000e0: 0779 113d f507 60bd 6d97 ca3b ead5 1abd
000000f0: 8914 3e3c f47d 783d 66ff 0d3d 8dd5 c5ba
00000100: dacf 93bc f316 9dbc 33f8 343c 090b d3bc
00000110: d964 883c e5bd c03c 20e5 b23c 574a 50bb
00000120: 4623 c73c ca64 4bbc 892c 343b 933e 2a3d
00000130: d560 2fbd 693c debc 7b60 debb 8bba f83c
00000140: c33e 953d 38cd 30bd 3b2d 013c 1211 133d
00000150: 7ef0 ac3c ff7c ee3c 1ae7 fd39 9427 cebc
00000160: b6d1 133d 13a1 c83c e7d6 763b 3cb1 90bd
00000170: ef91 f9bc b6c5 11bd 5235 6fbb 9aa7 efbb
00000180: 3d44 353c 07aa a5bb a7c1 eb3a 82d8 f6bc
00000190: a0ac 3abd 17ba 5a3d d4b6 23bd 232a 3abd
000001a0: e0f6 14bd 7ad7 4a3c 4588 a6bc a076 273d
000001b0: 3dab 41bd 674a 3d3c da3f 07bc 206b b0bc
000001c0: d06c f0bc 4855 2b3b 41c3 c0bc 52d2 9dbc
000001d0: 2278 6fbc c7a6 5fbc 4379 01bd fd5c 25bd
000001e0: a3bd 1bbd 586f bcbc 0175 f73b ad9e c6bc
000001f0: 296c 94bc 27f8 aabc 3499 27bb 96ba d93b
00000200: 9be7 c9bc 04e5 073d 91d1 103d 36cc 98bb
00000210: 5607 f33c 3f95 26bd 7ad7 01bc 1427 283d
00000220: fc48 3dbd 504b c43c 3c31 223d 457f c2bc
00000230: ffd4 df3c adde 033d 3905 67bb 9b43 bc3d
00000240: 956c 0f3b 82f3 1f3c 6a36 97bd dda3 a33b
00000250: fd1f 11bc 8d00 2c3b c5c7 3fbd 27a0 72bc
00000260: 44ff e93c aeb2 823c d95e 433d 9429 5f3d
00000270: c5fd 813d 7e66 de3c a117 f63b d8af 113d
00000280: c91c 153a 0c4d 1ebd 9bb3 4d3d 359b 53bc
00000290: 79e1 033d 634a 88bd bcda d5bc 823a 25bd
000002a0: 1e7b b23a a6df 733d 3ead fb3b 4954 15bc
000002b0: 0533 a43b e444 1ebd d33a 303b 3c76 b6bc
000002c0: 43dc 8cbb 8265 803d 5dc1 bdbb d2bc b63b
000002d0: d79c 04bd 1bdd b7bc 4b5f 23bd 7976 c0bc
000002e0: 81da 17bb 564b 703a 34c5 183d 1481 6f3c
000002f0: 4aee 19bc c8be 87ba 049d 1d3d 8e4b efbb
00000300: 65e2 dfbb 3317 12bd 6975 163c 6984 5bbc
00000310: f819 30bd 4544 cabc 82a9 0e3d adf0 a3bc
00000320: 5a59 ee39 ef09 5bbd 886b d3bc 8e18 01bd
00000330: d3d8 3bbd 4bd5 dcbc 0d36 223d 44c2 06bd
00000340: d2ce 06bd 170b dcbb f7e8 1d3a 7d71 8dbd
00000350: abf6 37bd dc62 70bc c637 efbb a62f bd3a
00000360: faf3 eebc 2c78 6bbc 1751 c63b a1ff 10bc
00000370: 65e1 0a3d 4e17 4fbd 950e 063c 698c 90bb
00000380: ded0 c9bb 7936 38bb 2322 463c 28ba 51bd
00000390: d7ed b6bc 21eb 67bd 5e1e a73c 6888 a3bc
000003a0: dfa9 823d 2082 15bc 84df 9eba 6369 c9bc
000003b0: eb4a 0ebd 2973 ba3a 60fd 3ebc 58f7 e23b
000003c0: 3d0e 0c3c 4108 d0bc c9da 98bb 6a7b 943c
000003d0: 56b2 0ebc 54b9 e7bc da60 f6bc 7e48 43bc
000003e0: 676d bb3b ea99 83bb cd64 a63b f457 40ba
000003f0: 9a10 0dbd a542 323c 9555 ccbb f3d1 82bc

5.bias f4 [100]
-0.012428333 0.08914906 0.013275339 0.0016106053 -0.02798033 -0.056337155 -0.0027639018 -0.016488422
0.04076921 -0.0028554061 0.07622993 -0.012948452 -0.03369066 -0.016134595 0.123108394 -0.035623804
0.10349843 -0.04413389 0.007831957 -0.047724992 -0.0058876737 0.008719831 -0.011445509 -0.016639186
0.042659238 -0.015757743 -0.06462065 -0.006280604 -0.006441072 0.0016818153 -0.04056507 0.011880374
0.021971095 0.020486977 -0.02843708 0.057779275 0.043754872 0.04548287 0.020636374 -0.001523021
-0.005489406 -0.008370288 -0.0019246947 -0.033358686 -0.036369585 -0.019257756 -0.0081379805 -0.017078623
0.055897884 0.013294766 -0.050702874 -0.0018952548 -0.023591291 -0.053127557 0.03728391 0.023813462
-0.023707958 -0.006511267 -0.037490696 0.08597324 0.023798982 0.034161285 -0.020302579 -0.022798454
0.0034526687 -0.0043524187 0.045171235 0.03416431 0.05107212 -0.036550205 -0.021647999 -0.03506044
0.08408504 -0.021654895 -0.015915394 -0.014351542 0.058385894 -0.009360635 -0.011005943 -0.042314686
0.034091923 -0.022004992 0.0010706478 -0.012692221 -0.03396902 -0.020389644 -0.060228825 0.026973795
0.009048516 0.050176684 -0.024602614 -0.025813842 -0.031925265 -0.029071888 -0.0119380895 0.0056322343
0.04247822 0.011582565 -0.016240919 0.052148372
00000000: 35a0 4bbc c893 b63d cf80 593c f21a d33a
00000010: 0137 e5bc cac1 66bd 9422 35bb ba12 87bc
00000020: 9dfd 263d c421 3bbb 701e 9c3d be25 54bc
00000030: 38ff 09bd b32c 84bc 4120 fc3d 44ea 11bd
00000040: fcf6 d33d bdc5 34bd 9c51 003c 487b 43bd
00000050: 63ed c0bb 9fdd 0e3c f285 3bbc e74e 88bc
00000060: 74bb 2e3d 6216 81bc d557 84bd 86cd cdbb
00000070: a10f d3bb 5b70 dc3a 8f27 26bd e6a5 423c
00000080: bafc b33c 4ed4 a73c e1f4 e8bc f6a9 6c3d
00000090: 4f38 333d 3f4c 3a3d 9d0d a93c 1ba0 c7ba
000000a0: 7ae0 b3bb 8823 09bc 0a46 fcba 1ea3 08bd
000000b0: 46f8 14bd 71c2 9dbc 2a55 05bc 78e8 8bbc
000000c0: 2ef5 643d 4ad2 593c d1ad 4fbd 336a f8ba
000000d0: 8642 c1bc 489c 59bd 03b7 183d 7314 c33c
000000e0: 3137 c2bc 775c d5bb d88f 19bd bd12 b03d
000000f0: 15f6 c23c b4ec 0b3d 9851 a6bc d3c3 babc
00000100: 2b46 623b bc9e 8ebb 7905 393d e0ef 0b3d
00000110: 0031 513d abb5 15bd 2557 b1bc 899b 0fbd
00000120: c734 ac3d 9b65 b1bc 0061 82bc bb22 6bbc
00000130: 0c26 6f3d 595d 19bc 4552 34bc 2a52 2dbd
00000140: f9a3 0b3d d043 b4bc fb54 8c3a 09f3 4fbc
00000150: 1923 0bbd 2f08 a7bc 80b2 76bd 26f8 dc3c
00000160: 3a40 143c 1186 4d3d 6c8b c9bc 8d77 d3bc
00000170: 11c4 02bd 2b28 eebc fa97 43bc 9b8e b83b
00000180: a4fd 2d3d ccc4 3d3c ad0b 85bc 8899 553d

7.weight f4 [10, 100]
-0.0558923 -0.33246213 -0.118491195 0.2980126 0.11549054 -0.104224175 0.08337548 0.45957848
-0.12596574 0.32118067 -0.22886598 0.2168637 -0.20716111 -0.033006184 -0.14092745 0.26067618
-0.12938298 0.118667364 -0.17691998 -0.06290462 0.06436406 0.008698588 -0.08915056 -0.15953939
-0.12675306 -0.40695676 0.16608597 -0.16428503 0.05124615 0.1831161 0.46920034 -0.16178562
0.11924178 -0.1304047 -0.06235614 -0.12797321 0.43359897 0.0890077 -0.1345834 0.41227734
0.3821392 0.0066153137 -0.2144023 0.5623373 -0.16243844 -0.23919325 0.56565213 -0.1527771
-0.14272153 0.28020594 -0.38158116 -0.048731633 -0.22995137 -0.33168826 -0.16261674 0.2750202
0.4618068 -0.05687955 -0.03846147 0.011125392 -0.15819909 -0.25134844 0.30803594 0.13396285
0.18146463 -0.07778255 0.30263707 -0.14319329 -0.14426695 -0.091486864 0.0023902706 0.1591029
-0.21260446 0.4142139 0.06582333 0.0693717 0.03833982 -0.15716645 0.13318257 -0.007994795
-0.11044605 0.076263644 -0.39406067 0.17889047 0.16255872 0.3998383 -0.16326526 -0.2068009
-0.13805372 0.25671312 0.3904296 -0.2351278 -0.19497988 -0.15459387 0.11159979 -0.08930234
0.355842 -0.24979888 -0.04770395 0.2266333 0.026830925 -0.36184597 -0.06362427 -0.15397325
-0.046056286 0.51504093 -0.20231895 -0.13635187 -0.10384339 0.17421785 -0.19177283 -0.12267217
-0.14629418 -0.239841 -0.18780021 -0.02341454 0.09225166 0.39728752 -0.114202574 -0.0025821107
-0.10137074 -0.06392101 -0.030927578 0.34918857 0.13536206 0.4128776 0.1912783 -0.13778065
-0.09613383 -0.2755762 -0.060075257 -0.26551655 -0.11509683 -0.13212769 -0.051665366 -0.044705234
-0.34773916 0.17438461 -0.199358 -0.16824237 -0.09557368 0.09075551 -0.20755614 -0.14539105
-0.23772907 0.48447958 0.15873063 0.33970234 0.04350329 -0.28470063 0.20211717 -0.1389471
-0.20363818 0.28832215 -0.23662767 -0.041604068 -0.037409235 -0.29285774 0.68205684 -0.03714436
-0.041281164 -0.04785463 0.30275154 0.1409537 -0.06559644 -0.08017141 -0.16638076 0.18801309
-0.2077938 0.187292 0.19226961 0.27453715 -0.03094065 0.24274093 -0.3155267 0.06090875
0.04741347 -0.16216505 -0.03639384 0.31236097 -0.2835642 0.33644235 0.0030730767 -0.27783814
0.49967837 -0.11943389 0.20694196 -0.16023797 -0.20742166 -0.23876247 -0.036234602 -0.16080382
0.14962937 0.0015283446 -0.11150997 0.079659104 -0.24961588 -0.100612044 -0.2765142 -0.029685596
-0.100849465 0.1952803 -0.0712663 -0.24154224 -0.028066149 0.400571 -0.30677125 -0.18492877
-0.06927453 0.56857055 0.3598134 0.37228692 -0.06045895 0.7128404 0.28336784 0.20382702
-0.03392614 -0.19721636 -0.26788843 -0.15977195 -0.3720053 -0.25812483 -0.15114209 -0.013110786
-0.07219581 -0.28814533 -0.3017239 -0.25177068 -0.09716731 -0.13490628 -0.15771832 -0.27621138
0.45791888 -0.059067573 0.6721952 0.26047695 0.14280443 -0.110036135 0.11877345 0.41683412
-0.025190044 -0.09908497 -0.21532793 -0.14902535 0.4960629 -0.06955636 -0.28842452 -0.14130715
0.025886493 0.23270628 0.13370706 -0.14171924 0.03453 0.00022602873 0.23832706 -0.08382068
00000000: 53ef 64bd 7a38 aabe 83ab f2bd 1c95 983e
00000010: 4e86 ec3d 7c73 d5bd c3c0 aa3d df4d eb3e
00000020: 2afd 00be cb71 a43e d85b 6abe 8511 5e3e
00000030: 0b22 54be 7e31 07bd 494f 10be 5977 853e
00000040: f97c 04be e007 f33d 832a 35be 23d4 80bd
00000050: 4ed1 833d 8684 0e3c 9294 b6bd 4b5e 23be
00000060: 8ecb 01be a35c d0be 7112 2a3e 563a 28be
00000070: 7ce7 513d c982 3b3e 073b f03e 21ab 25be
00000080: 0935 f43d cf88 05be 2769 7fbd 690b 03be
00000090: af00 de3e ab49 b63d 3bd0 09be 0416 d33e
000000a0: c0a7 c33e 46c5 d83b 478c 5bbe 56f5 0f3f
000000b0: 4356 26be 13ef 74be 94ce 103f 9a71 1cbe
000000c0: 9825 12be 2777 8f3e 9b5e c3be d29a 47bd
000000d0: 5f78 6bbe 0bd3 a9be 0185 26be 73cf 8c3e
000000e0: f171 ec3e 88fa 68bd c689 1dbd 4747 363c
000000f0: f1fe 21be beb0 80be e3b6 9d3e 8f2d 093e
00000100: ddd1 393e 754c 9fbd 3ff3 9a3e 43a1 12be
00000110: b7ba 13be 775d bbbd 16a6 1c3b dfeb 223e
00000120: fcb4 59be d813 d43e 62ce 863d c012 8e3d
00000130: 370a 1d3d 3ef0 20be 0361 083e 9afc 02bc
00000140: 8a31 e2bd 1d30 9c3d 52c2 c9be 102f 373e
00000150: cb75 263e 9bb7 cc3e 022f 27be 9dc3 53be
00000160: f45d 0dbe e76f 833e 63e6 c73e 58c5 70be
00000170: cea8 47be db4d 1ebe 6e8e e43d 25e4 b6bd
00000180: ec30 b63e 47cb 7fbe 3865 43bd 8f12 683e
00000190: 87cc db3c e043 b9be 714d 82bd 2aab 1dbe
000001a0: 84a5 3cbd b9d9 033f b32c 4fbe d39f 0bbe
000001b0: d8ab d4bd 2a66 323e 1960 44be 8c3b fbbd
000001c0: 24ce 15be e198 75be b34e 40be d9cf bfbc
000001d0: 70ee bc3d 4569 cb3e 0ae3 e9bd a138 29bb
000001e0: 769b cfbd 05e9 82bd d55b fdbc d8c8 b23e
000001f0: 5a9c 0a3e b164 d33e 75de 433e 5f16 0dbe
00000200: d0e1 c4bd 5318 8dbe 7911 76bd c9f1 87be
00000210: e3b7 ebbd 7b4c 07be 109f 53bd d61c 37bd
00000220: de0a b2be e191 323e 8124 4cbe ba47 2cbe
00000230: 22bc c3bd 06de b93d 9989 54be 64e1 14be
00000240: 406f 73be b50d f83e 488a 223e 77ed ad3e
00000250: 8130 323d 48c4 91be cef7 4e3e 2648 0ebe
00000260: 8786 50be f69e 933e 864e 72be 0769 2abd
00000270: 6d3a 19bd 73f1 95be 479b 2e3f af24 18bd
00000280: 7016 29bd 3703 44bd 4002 9b3e 2b56 103e
00000290: 6d57 86bd e930 a4bd b85f 2abe 8186 403e
000002a0: e6c7 54be 79c9 3f3e 53e2 443e 2290 8c3e
000002b0: 3f77 fdbc 1491 783e b78c a1be 747b 793d
000002c0: a034 423d 980e 26be b511 15bd c7ed 9f3e
000002d0: 542f 91be 2c42 ac3e ac65 493b cd40 8ebe
000002e0: d8d5 ff3e c199 f4bd 98e8 533e 6c15 24be
000002f0: 5866 54be 267e 74be bc6a 14bd c2a9 24be
00000300: 7138 193e bc52 c83a 575f e4bd 5024 a33d
00000310: 4e9b 7fbe b00d cebd 4593 8dbe 352f f3bc
00000320: 2a8a cebd 8ff7 473e 11f4 91bd d956 77be
00000330: fbea e5bc a417 cd3e 1f11 9dbe f85d 3dbe
00000340: cedf 8dbd d78d 113f 7639 b83e 649c be3e
00000350: cea3 77bd b57c 363f 9715 913e 08b8 503e
00000360: 23f6 0abd 16f3 49be ac28 89be 429b 23be
00000370: 7b77 bebe f028 84be fec4 1abe 9fce 56bc
00000380: 66db 93bd c987 93be 8e7b 9abe 16e8 80be
00000390: a8ff c6bd df24 0abe e980 21be 946b 8dbe
000003a0: 5874 ea3e d7f0 71bd fc14 2c3f 3c5d 853e
000003b0: 533b 123e a05a e1bd 7f3f f33d 486b d53e
000003c0: 5a5b cebc 10ed cabd ed7e 5cbe 1a9a 18be
000003d0: f5fb fd3e 9173 8ebd 61ac 93be d2b2 10be
000003e0: e90f d43c 8e4a 6e3e 81ea 083e d91e 11be
000003f0: 546f 0d3d 2002 6d39 020c 743e 2daa abbd

7.bias f4 [10]
-0.23395889 -0.2538669 -0.2661522 0.03944954 0.58795536 0.01545005 0.19001351 -0.05703882
-0.045362957 0.023513937
00000000: eb92 6fbe d8fa 81be 1a45 88be d795 213d
00000010: 3e84 163f 3522 7d3c e792 423e 8aa1 69bd
00000020: 82ce 39bd 4da0 c03c
