models/non_seq_trained/l_2/more_small_exact158_1.pth (torch, 668111 bytes, 8 tensors)

0.weight f4 [16, 1, 4, 4]
00000000: 1b1b a3bb cb0c 00bb 56ff e8b9 bfc1 00bb
00000010: 4514 dbbb 0356 1cbc 078a 61bc 91b6 65bc
00000020: 00aa d6bb 186d 38bc 0d3b b6bb 4ea4 abbb
00000030: d439 7ebb 71ff 01bc ec42 9bba 65b4 d2bb
00000040: 0c16 07bb 24e7 1abb 9854 e8ba 6705 bcba
00000050: 8207 e6ba 4c09 47ba 28a8 1e3a 507b 5b38
00000060: a9b2 59ba 1b38 0aba 640b 1b39 7308 fdb9
00000070: 3539 9bba 2026 feba cb14 32bb 8fdf 0ebb
00000080: aa6b 3ebb e309 e8ba fc21 96ba ffe8 74ba
00000090: c6c6 07bb 172d c939 7337 e9ba 0e66 34bb
000000a0: 4996 283b 7729 ae3b 4f0d 80ba e661 27bb
000000b0: 36f8 d138 5e18 02ba 665d 25bb 8a0a 01bb
000000c0: 6105 0d3b fd03 103c e044 503c 3a35 433c
000000d0: 198d 6bbb 17de 30bb 3b2e bd39 1377 333b
000000e0: cc69 6bbb 3c19 bfbb 0b06 9cbb 1bfb 29b8
000000f0: df50 783b 0de7 cf3b 48b2 b63b a24b e63b
00000100: 94d0 22bb 4e92 a43c abbe 0f3d ab1b f23c
00000110: 3854 243c c518 823d 2428 9c3d 8caf 643d
00000120: cc01 af3c 60a8 953d 2886 933d 0431 2c3d
00000130: dff9 463c 3030 063d a1bf cc3c 1171 c13b
00000140: 6bfa 1ebb 3c0f 11bc 06b5 a8bb 28c1 2dba
00000150: 1bb6 e2bb d2bd c1ba 0dd5 653b 18d0 1eba
00000160: b8a0 30ba dd4c 913c cdcf a03c 09a1 c83b
00000170: 6883 853b bf56 b23c 6d30 a83c 96a2 bc3b
00000180: b127 953a 0012 963b 9510 073b ee35 2f3a
00000190: e206 fe3a c9a0 483b 6f67 d43a 8557 fd3a
000001a0: f950 8a3b 8ab4 cbba 389f 6eba 6e52 a6ba
000001b0: 4a42 e03a 5e3d 0fbb ab8d 80bb f7e0 8fb7
000001c0: fb13 6fbb f683 08bb 893b 29bb 7d11 3a3b
000001d0: c12e 0ebc 8185 02bc e3ab 1abc 1c01 25ba
000001e0: d6e9 29bc a1b2 e7bb baf7 d6bb 9d05 c5bb
000001f0: 6ce1 a1ba 9cd0 b7b9 164f 6a3a 3e86 b8bb
00000200: e0bb ed39 f2b9 63b9 19e9 45b9 e96e 9d38
00000210: a44c 533a 26f6 13ba bfb1 57b9 64fc 373a
00000220: dd64 8239 e219 25ba 5772 8039 f5a2 903a
00000230: c512 b739 e799 be39 a5dc 813a 8ffd 4e3a
00000240: b4c2 0ebb 81a4 793b 54f3 473c 2903 ac3b
00000250: 9bad 36bb b28e c4bb 08a6 e83a 0be8 6bbb
00000260: 329d 7abc 6776 bebc 17b1 b4bc b95b 98bc
00000270: e24d b4bc ab6d ecbc d7ec b8bc 4b9d 73bc
00000280: 2a6b 5b3b 53ad b53b 5789 3e3b 4632 2f3c
00000290: 2930 c7ba cd1d 6dbb 6ff5 39bb 2f38 a23b
000002a0: f1c2 893a ae8b c139 2d21 253c aedd 8b3c
000002b0: b5c4 533b 9c80 a03b 25b2 203c 7c40 463c
000002c0: bf05 c13b 4e6d 683c 3258 6c3c b5e4 9abb
000002d0: 8051 323d 5891 593d f621 2b3d 60db b5ba
000002e0: 702c 7b3d 5e1c 863d 5265 393d 0a96 bc3b
000002f0: 85f2 023d 7630 fc3c 7576 913c 2d61 af3b
00000300: 5c3e 19bc 69ea b1ba 7371 1bbc c11c fdbb
00000310: febd 7bb9 cc13 0e3b b14b 8ebc 65f3 f7bb
00000320: 8d30 063b e4c3 b6bb 4029 91bc 8162 8cbb
00000330: 41ac 82bb cd4b 38bc c205 3dbc 7b70 d739
00000340: 9352 903b 694c 8b3b b3f9 523b 6ab7 c73b
00000350: 596f e339 a3e0 9bbb f62a 12bc e343 2739
00000360: 3cbe 09bc 5c2a cabc 658f 9cbc a9d0 d9bb
00000370: 8776 10bc ecef 86bc 0496 02bc 2604 6abb
00000380: 9a38 31bb ae94 4dbb 08fb eaba 6146 87b9
00000390: bec9 9bbb 5a28 98bb 0eec 0cbb a101 adba
000003a0: a058 9cbb c49c 8dbb 3949 1bbb 76b6 5abb
000003b0: 0b84 06bb cb0a 1cbb e73e 5abb 58cb 8cbb
000003c0: f944 54bb 2f4d 3abc 4743 afbc 1b2d 33bc
000003d0: 7f15 87bc f963 a7bc 6612 d5bc 5aeb f4bb
000003e0: ba0e 0fbc 67cf 3abc 3c79 28bc 5c1a 393b
000003f0: 37fa 0c3c d58e 423c 1055 273c feef 133c
-0.0049775965 -0.0019538875 -0.00044440728 -0.0019646732 -0.006685766 -0.009541991 -0.013765818 -0.014020578
-0.0065510273 -0.011256479 -0.0055612386 -0.0052380925 -0.0038791792 -0.007934437 -0.0011845506 -0.006430196
-0.0020612506 -0.0023636306 -0.0017725406 -0.0014344872 -0.0017549845 -0.0007592633 0.0006052279 5.2328513e-05
-0.00083045155 -0.00052726426 0.00014786195 -0.00048262216 -0.001184261 -0.0019390024 -0.0027173038 -0.0021800732
-0.0029055872 -0.0017703142 -0.001145422 -0.00093425805 -0.0020717843 0.00038371302 -0.0017793014 -0.002752665
0.0025724343 0.0053150016 -0.0009769591 -0.002554053 0.000100121295 -0.00049627374 -0.0025232672 -0.001969012
0.0021518099 0.008790013 0.012711734 0.011914546 -0.0035942255 -0.0026987845 0.00036083334 0.0027384206
-0.0035921214 -0.0058318656 -0.0047614626 -4.05266e-05 0.003789 0.006344682 0.005575452 0.007028059
-0.002484356 0.020089295 0.035093945 0.029554209 0.010029845 0.06352381 0.07624844 0.055831477
0.021363162 0.073075056 0.07203323 0.042038932 0.012144535 0.0327608 0.02499372 0.005903371
-0.0024258147 -0.00885373 -0.005148533 -0.0006628209 -0.0069186813 -0.0014781302 0.0035069615 -0.000605823
-0.0006737816 0.017736847 0.019630337 0.0061227125 0.0040745027 0.02176988 0.020530904 0.0057566864
0.0011379627 0.0045797825 0.002060925 0.00066837564 0.0019380713 0.0030613414 0.0016205142 0.0019328451
0.0042210785 -0.0015541476 -0.0009102705 -0.0012689361 0.00171096 -0.0021856646 -0.003923138 -1.7151686e-05
-0.0036480415 -0.0020830608 -0.002582284 0.0028391771 -0.008678139 -0.0079664 -0.009440395 -0.0006294416
-0.010370692 -0.007070855 -0.006560293 -0.006012632 -0.0012350506 -0.00035059906 0.00089381763 -0.0056312373
0.0004534414 -0.00021717677 -0.0001887422 7.507002e-05 0.00080604316 -0.0005644284 -0.00020570213 0.0007018505
0.0002487068 -0.00062981073 0.00024499252 0.0011034893 0.00034918464 0.0003635429 0.0009907676 0.00078960595
-0.0021783533 0.0038092437 0.01220401 0.0052494 -0.0027874473 -0.005998456 0.0017749676 -0.0035996463
-0.015296267 -0.023249818 -0.0220571 -0.018598424 -0.022009794 -0.028860888 -0.022573872 -0.014869045
0.0033480623 0.0055443435 0.002907356 0.010693138 -0.0015196848 -0.0036181093 -0.002837505 0.0049505453
0.0010510368 0.00036915898 0.0100787105 0.017073479 0.0032313291 0.004898144 0.009808098 0.012100335
0.0058905776 0.0141862165 0.014425324 -0.004726971 0.043534756 0.053117126 0.041780435 -0.0013874583
0.061321676 0.06548379 0.045262642 0.0057551907 0.031969566 0.030784827 0.01775668 0.0053521604
-0.009353247 -0.0013573888 -0.009487498 -0.007724375 -0.00024008003 0.002167928 -0.017370077 -0.0075668567
0.0020475716 -0.005577551 -0.017719865 -0.0042842035 -0.0039878194 -0.011248541 -0.011537017 0.000410918
0.004404375 0.004251052 0.003219229 0.0060948627 0.00043379774 -0.0047570034 -0.0089213755 0.00015951651
-0.008407172 -0.024678402 -0.019111345 -0.0066471887 -0.008817322 -0.016471826 -0.007970337 -0.003570804
-0.0027041794 -0.0031369138 -0.0017927596 -0.00025801643 -0.004754274 -0.004643482 -0.0021503004 -0.0013199338
-0.004771307 -0.0043216664 -0.0023694767 -0.0033372915 -0.002052548 -0.0023810144 -0.0033301653 -0.0042967014
-0.0032389744 -0.011370941 -0.021394385 -0.010936047 -0.016489742 -0.020433413 -0.02600975 -0.007474345
-0.008731538 -0.011401988 -0.010282811 0.0028244471 0.008604578 0.011874874 0.010213152 0.009029387

0.bias f4 [16]
00000000: c151 72bd fa71 bcbc 9205 4bbd 3f27 613d
00000010: 12be 8d3e 5e7b d63d a39c ff3c cc73 90bd
00000020: 0772 eabc ea7c 8a3e 9a6d 5a3d 144d 633e
00000030: 5dab 73bd f100 c5bd a77b cbbc e63f 5d3e
-0.059159998 -0.023003567 -0.04956586 0.05496907 0.27684075 0.10472749 0.03120262 -0.070533365
-0.028618826 0.27048427 0.05332718 0.22197372 -0.059489597 -0.0961932 -0.024839235 0.21606407

2.weight f4 [32, 16, 4, 4]
00000000: 48c8 c83b 8cb1 173d 2b53 513c bc34 b9bb
00000010: e337 c03b 0cca a93d 4b63 d73c 3adb 07bd
00000020: 5773 91bb cbcb 5e38 010f cabb 80a9 3c3b
00000030: 9268 b539 b996 fcb8 95aa ca3a 8430 5b3b
00000040: 2aeb 6eb8 2a62 333a c72e c939 425e 8f39
00000050: 7c12 49b9 bf28 c1b7 995b a0b9 a5bf 39b8
00000060: 2e4b 79b9 acd2 feb9 b486 dfb7 cd86 2439
00000070: 5c46 9f39 f593 c539 32c2 a939 081b 8138
00000080: 2cf9 1abb 0234 85ba 876a 233b 0b33 d339
00000090: 707c 9aba d0b3 5a3a 459b 883c 1f32 5839
000000a0: 1813 bbba 9452 60ba 6b50 82ba ed8b 6a3a
000000b0: 204a ae38 1809 15ba 9988 813a bca8 bf3a
000000c0: 5684 dcbb ea69 86bd cf52 4cbc ac43 07bd
000000d0: bbee 3fbd 81a0 e5bd aa3e 33bc c138 28bd
000000e0: ca9e 00bd 1442 b4bd 690a 1a3d e755 99bb
000000f0: 34ea 2fbc 538f b7bd 9807 debc be16 4fbd
00000100: 68cc 06bd 3663 2dbd 6658 a8bd 7686 c4bc
00000110: 41f6 f13b 2bad f63c 7098 65bc 6d95 0bbd
00000120: 0619 81bc 5eeb 853c 5fb0 3abd 0e91 6ebd
00000130: 13f5 74bd 822e b0bc e18e 5fbd 7188 1ebd
00000140: f274 98bd ef9f f5bc c237 e3bc 49d4 f7bd
00000150: 270f b5bd 13fc 30bc ee5b 0cbd 9a47 0fbe
00000160: 5db2 94bc 3d04 9fbd 634a 12bd ab55 30bd
00000170: 1365 053d d549 5fbd 9e66 7abd 495b dbbc
00000180: 362c c03c 2725 e73c fb71 92bd bef6 66bd
00000190: 0c27 5b3b 8092 6bbd 3a4a ebbd 2f21 88bd
000001a0: cd51 a73c 1d51 8b3d ae1a bd3c 747a d03b
000001b0: fa1e 0f3d 81e9 033c eaf9 b23a e5f9 cabc
000001c0: 293f 24bd fdcb bcbc 9b05 33bd fa30 04bd
000001d0: a2e0 dabb 8bf2 fd3d 2292 6f3d 4807 6f39
000001e0: 6b08 c9bb eb01 a83d c1e5 653d 8fb1 9bb9
000001f0: 6810 81bc 5b76 b5bc 85a4 68b9 d5e1 2fba
00000200: 86a9 afbc 29ea e23c 9837 cc3c 3128 efba
00000210: 6677 caba 9879 343e bb88 073e 9cd6 d0ba
00000220: 09c7 b3ba ef41 ddba 79a3 883c 4a86 75bb
00000230: e738 ffba d922 09bb 176f 16bb d94a b1ba
00000240: cc73 253d ab7e bfbc 75b0 c6bd e378 223d
00000250: 17d0 36bd 7783 72be ada3 6abe 1a10 a9bd
00000260: 68cf 5c3b 6080 22be 346e 68be df64 163d
00000270: e2f2 603d 9898 463c 2545 28bd 00b0 a23d
00000280: ea5c 333c ee80 a0bd 9e62 41bd 418d 533d
00000290: 0845 ef3b 9257 7cbe e5a7 79be d6b4 32bc
000002a0: d75c 053d 829c 84bd 3276 75be 6a53 803d
000002b0: 2f24 c4bb 3dfb 063d 9c4d 513b 795d 3b3d
000002c0: e33c 34bc 0323 5ebd d5c7 aa3b 5a19 753c
000002d0: 7667 97bb 8176 51bd 830e f2bc 56b4 bf3d
000002e0: e524 58bd d7cd 8bbd 4e10 04bd d4cc 993c
000002f0: 52fa 03bd 7f7e e3bc 0c27 9bb9 575a 043d
00000300: 79d1 2a39 96a6 893d 59c7 c63c bf8e b7bc
00000310: 1cf3 ca3c 2564 263e 70a8 813d 13de 8ebd
00000320: 86a8 38bc 981e 9939 eb13 b0ba 4a04 50bc
00000330: 5373 153a dc59 cfb9 f51f f539 a640 0f39
00000340: 745a aebc 6bcf bf3d 4f9d e23d a73e 2d3c
00000350: 7ac2 a0bb 8051 023e 2cf7 5b3e f058 713d
00000360: 441d aabd a8cf c9bd 5741 0e3c c111 09bc
00000370: f8af 63bc 9998 e3bc 4f69 5ebd c3fc 8dbc
00000380: e736 44ba 5fb1 c33c 08bb 0e3a 10cc 5339
00000390: f79c 1cba 608c d13d 5b29 c83b ef94 acb9
000003a0: e60c af38 bd4f 06b9 6e04 3e3a fabb 4ab9
000003b0: a052 2c3a 1d65 3d3a d0b9 c539 53c7 9eba
000003c0: df90 833c 71c3 e2bd 2291 f5bd ad7c 09bb
000003d0: 6a64 4dbc 03a0 76be c8ae 3bbe de36 d2bd
000003e0: 11d7 053b 772e 0dbe 42ee 2abe 6218 24bd
000003f0: f909 9d3d 1896 2e3c 4128 cabc 8635 c23d
0.006127391 0.037034556 0.012776176 -0.0056520384 0.005866037 0.082904905 0.026292464 -0.033168055
-0.0044387984 5.311872e-05 -0.0061663394 0.0028787553 0.0003460092 -0.00012044371 0.0015462214 0.0033445666
-5.6962635e-05 0.00068429357 0.0003837256 0.00027345313 -0.0001917574 -2.3026367e-05 -0.00030585824 -4.428592e-05
-0.00023774497 -0.00048603618 -2.6646398e-05 0.00015690476 0.00030379265 0.00037685005 0.0003237888 6.156234e-05
-0.0023647053 -0.0010162594 0.0024935321 0.00040283086 -0.0011786353 0.0008342834 0.0166756 0.00020618037
-0.0014272658 -0.0008557227 -0.0009942179 0.0008947242 8.3107734e-05 -0.0005685254 0.0009882628 0.001462243
-0.006729643 -0.0656317 -0.012470915 -0.03302352 -0.04685853 -0.11212254 -0.010940233 -0.04106975
-0.031401433 -0.08801666 0.037607584 -0.00467943 -0.010736991 -0.08962884 -0.02710323 -0.050558798
-0.03290978 -0.042330943 -0.08219986 -0.023989897 0.007384092 0.03011187 -0.014013395 -0.03407805
-0.015759002 0.016347583 -0.045578357 -0.058243804 -0.059804033 -0.021506552 -0.05457962 -0.03870434
-0.074441805 -0.029983489 -0.027736548 -0.12101037 -0.08840781 -0.010802287 -0.03426736 -0.13992158
-0.018151456 -0.0776448 -0.035715472 -0.04305045 0.032567095 -0.05451377 -0.06113302 -0.026776927
0.023458581 0.028215958 -0.07150646 -0.056387655 0.0033440022 -0.05751276 -0.11488767 -0.06646954
0.020424748 0.068025805 0.02308401 0.006362254 0.03494165 0.008051277 0.0013654802 -0.024777362
-0.040099297 -0.023046488 -0.043706518 -0.03227327 -0.0066796103 0.12399777 0.058488972 0.00022795529
-0.0061350367 0.08203491 0.056127314 -0.00029696195 -0.015754893 -0.022151163 -0.00022186532 -0.0006709372
-0.02144314 0.027699547 0.024928853 -0.0018246231 -0.001544696 0.1762451 0.13235752 -0.0015933099
-0.0013715933 -0.0016880612 0.016679512 -0.0037464076 -0.0019471914 -0.0020925312 -0.0022954398 -0.0013526335
0.040393636 -0.02337583 -0.09701625 0.039666068 -0.044632044 -0.23682962 -0.22914 -0.08255024
0.003369296 -0.15869284 -0.22698289 0.036717292 0.05491913 0.012121342 -0.041081566 0.079437256
0.010947445 -0.078370914 -0.04721319 0.051648382 0.0073019303 -0.2464278 -0.24380453 -0.010907372
0.032559242 -0.06475164 -0.23970869 0.0626591 -0.0059857587 0.032954443 0.0031937128 0.04574344
-0.011000845 -0.05423261 0.00521181 0.014959658 -0.004620488 -0.051138405 -0.029547935 0.09360568
-0.05276956 -0.0682637 -0.03224211 0.018774427 -0.032221146 -0.027770279 -0.00029592996 0.032312717
0.00016290498 0.06721227 0.024264978 -0.022406934 0.024774127 0.1624914 0.06330955 -0.06975951
-0.011270648 0.00029205228 -0.001343367 -0.012696335 0.00057010836 -0.00039549067 0.0004675385 0.00013661626
-0.021283366 0.09365734 0.110651605 0.0105740195 -0.004905996 0.12726402 0.21481007 0.058922708
-0.08306363 -0.098540604 0.00868257 -0.008366049 -0.013896935 -0.027782725 -0.05429965 -0.01733244
-0.0007484988 0.023888288 0.000544474 0.00020198547 -0.00059743173 0.102318525 0.0061084456 -0.0003291736
8.347053e-05 -0.0001280894 0.0007248585 -0.00019334248 0.00065735914 0.0007224845 0.0003771321 -0.0012113847
0.01606029 -0.11072434 -0.119905725 -0.0020978854 -0.012536148 -0.24084477 -0.18328393 -0.10264371
0.002042238 -0.13787256 -0.1669245 -0.040062316 0.07667918 0.010655902 -0.024677398 0.09482865

2.bias f4 [32]
00000000: d5ab f03b e0aa ecbd 52fb 8dbd a1de c83b
00000010: 5e62 a3bd 8661 aebd 0334 f4bd 1a1f e5bd
00000020: db4a f2bd edbf c5bd 5b53 e6bd 8b77 303e
00000030: 40dd 9abd 57f2 a0bd 62c4 7abd b116 1bbd
00000040: c30b 97bd ee98 4cbd 3fba 1f3e e98a 94bd
00000050: 0e67 95bd fd3f 2bbd 073c 0fbe fd3c 25be
00000060: 6a34 90bc ff31 0dbe 45bb 1fbd 980a dcbd
00000070: 8d25 01bd 152c babd a7fd c2bd 28a2 d0bd
0.0073447027 -0.11556029 -0.06932701 0.006130055 -0.079777464 -0.08514695 -0.11923983 -0.11187573
-0.11830684 -0.096557476 -0.112463675 0.17233102 -0.07561731 -0.07858723 -0.06122244 -0.037863437
-0.0737529 -0.049950533 0.15598391 -0.072530575 -0.07295047 -0.04180907 -0.13987742 -0.16136546
-0.017603118 -0.13788603 -0.038996954 -0.10744208 -0.03152995 -0.09090439 -0.095210366 -0.10187179

5.weight f4 [100, 1568]
00000000: 0a85 fcbb c910 923b fe89 7839 f772 deb7
00000010: b662 9d3a 82d2 0f3d 65a6 7139 2b58 b038
00000020: a984 89ba f3bf db3c 8d9e 19bc a4a7 233d
00000030: 73ae 863c 6c52 af3b daf8 0d3c 7e0b 80bc
00000040: 710c 1ebc 6f1c ce3c f935 063d 42cb 3f3d
00000050: 8f13 193c 46f5 943c e7c9 073e a985 033d
00000060: e194 733e 6c50 323c f48b a33c fec9 4cbc
00000070: 535b 2e3c aa87 c3bc 4fe0 9d3c d699 ba3d
00000080: 322b 9bbb 3537 f7bc b7c2 113c 53ca 5c3b
00000090: 7889 bebc c087 a53c 07da 8d3d 4c37 bdbc
000000a0: 9e2c 003d 7fa8 df37 964a 3cbb 66be 4c3c
000000b0: bed6 2d3c 1875 0d3c 79a1 ae3c 7470 373d
000000c0: bcb5 323d afdd 31bc 4492 da3c 74b5 a13b
000000d0: 512f cfba dab2 44b8 1afc f03b 7784 d339
000000e0: 1e4d acbd 08b0 95bb 7556 a43c 157a 98ba
000000f0: 60fb 3e3a 7122 82b9 a996 dc3b db2c 92bd
00000100: dc1e 883d 4815 3d3e 3edc 2c3e 96f8 96bc
00000110: f3b2 3abd cc52 d7bb f507 57bc 77c5 2bbd
00000120: 9af2 263e 3d3e e73c d22f 75bd a99e 8b3d
00000130: 3917 b1ba 3f16 c0bd 987a c3ba e115 473d
00000140: 55ef fd38 cd85 9bbb 19c5 f43c c7db e33a
00000150: 9b93 82bd 9df0 053b a3b2 0d3b 1277 15bc
00000160: bec1 13bc f7f1 723b ca12 fc3c aebd edbc
00000170: 6d6f a33b e1c7 11bd 6053 5c3c 0705 4b3d
00000180: af43 663c 1a97 8b3c b790 cd3c 82b9 1d3d
00000190: 67a8 c13b 4364 f23a 51dd 963a 6707 0e3c
000001a0: c145 fa3c 562b 33bd b137 90bb b80b 97ba
000001b0: 6bd6 52bc f222 783b 3173 c13a 1f55 dd3c
000001c0: 69a4 73bd 391b f23b b627 c23a 88a5 14bc
000001d0: 644b d23c ab09 4c3d 498b 173a 132b 5c3a
000001e0: 1b6d ae3c 7a6e b63c 5466 553d befd cc3c
000001f0: 89f3 ea3c 29f9 ecbc 8f60 5bbd 7965 ac3b
00000200: 6089 923d f871 95be a9cf 463d b9dc 0abb
00000210: db57 303c f413 4dbd ca33 cebc 22a8 4eb8
00000220: be6f ac3b b6c8 4b3c 35ce a4b9 09c3 d838
00000230: 9b60 8fba 1870 053c 5954 713b 8ef3 383c
00000240: e45c 833a 91af 3c3c 836c aabc a430 23bc
00000250: bb4d e5bb 75da 2fbc d356 ccbb 84d3 713c
00000260: 1f62 f83b 4bd8 a7bc ee04 6a3c 936b 143b
00000270: 2a01 833a b3c3 1f3c fac4 67bc 6e1f 2fbb
00000280: dbbb 663c 7808 863c 6a3c 693c 093d 68bb
00000290: b5f8 263b a44a 863c 0315 903b 26d9 633c
000002a0: 37a5 513c e177 353c 8da5 423c 0799 8abc
000002b0: bfd3 b5bc d5fe ccbc ac1f a23c b726 66bc
000002c0: 56a9 a2bc 0498 533b 7a5c 9fbb 515d 033c
000002d0: f61b d8bb 354a a03c e4dd 22bd 8ddf cbbc
000002e0: 2630 b23c bf8b 33bc bfca ca3b c2c8 163c
000002f0: ebe0 813b e4df 68bc 5d78 333b a172 87bc
00000300: 4483 ae3c b682 7f3b a66e 953c 8f24 923c
00000310: 3d9d 363c 9883 b83c 2d76 e93c 23e0 6bbb
00000320: fb52 583c d24e 56bc 5696 2c3c 7900 8f37
00000330: 9572 333a 9d3c 38bd aed2 47bc 09ce f7b9
00000340: e46b 3e3c 49f3 3b3b aa2e bdb9 fb26 0f3b
00000350: ed88 943b 786b 6a3d aa2c f13c e4a8 18be
00000360: 80c1 203d 71a1 a63b d703 003b b579 9c3d
00000370: 7d04 1c3e 7dd1 213a 8263 8f38 680c 453c
00000380: 576d 6bba 7a1c e5ba 3917 86bd 64aa dabb
00000390: 26af 38bc 054e f5bc 4e82 003d 7254 06bb
000003a0: 1cc5 1c3a 0abe 243d 77ea 5d3c 7b81 693c
000003b0: 7a3e 8e3b 81ce 5cbb 29b7 f03b 20e6 b5ba
000003c0: aca0 5d3c 4419 6739 045b a33b 1dfb 0a3d
000003d0: f4f7 b83b f52a 7c3c faf2 81bb 9900 27bb
000003e0: 3b4d 7a3b 5988 c5bb 1e2b 01bc d87a 6c3c
000003f0: a77a c6bb 1466 15bb c204 423a dc8c a2bc
-0.007706289 0.0044575674 0.00023702529 -2.6517997e-05 0.0012007568 0.035112865 0.00023045538 8.4087565e-05
-0.0010491806 0.026824927 -0.00937618 0.039954796 0.016440606 0.0053504016 0.008665288 -0.01563048
-0.009646521 0.025160043 0.032766316 0.0468247 0.009343042 0.018183362 0.13260613 0.03210989
0.23787262 0.010883432 0.019964196 -0.012499331 0.010641891 -0.0238684 0.019271998 0.09111373
-0.004735374 -0.030177692 0.008896521 0.003368993 -0.02325891 0.020206332 0.06926351 -0.023097657
0.03129255 2.6662134e-05 -0.002873098 0.012496566 0.010610281 0.008633874 0.02131723 0.044784978
0.043630347 -0.010856076 0.026681073 0.004934961 -0.0015806948 -4.689661e-05 0.0073542716 0.0004034375
-0.084131464 -0.0045681037 0.020060757 -0.0011633063 0.00072853826 -0.00024821193 0.0067318273 -0.07137462
0.06646511 0.1846515 0.1688089 -0.018429082 -0.045580816 -0.0065711495 -0.013124456 -0.041936364
0.16303483 0.02822792 -0.059860058 0.068173714 -0.0013510949 -0.09379243 -0.0014913855 0.04860485
0.00012108559 -0.004746175 0.02987914 0.0017384224 -0.0637581 0.0020437606 0.0021621368 -0.009122627
-0.00901836 0.0037070492 0.030770678 -0.02902111 0.004987648 -0.03559101 0.0134476125 0.04956534
0.014054223 0.017039824 0.02509342 0.038506992 0.0059099677 0.0018493015 0.0011510049 0.008668757
0.03055084 -0.0437425 -0.00440117 -0.0011523878 -0.012868504 0.0037862626 0.0014759061 0.027018128
-0.059482966 0.007388499 0.001481286 -0.009072669 0.025670715 0.049813908 0.0005780948 0.00083987525
0.02129226 0.022269476 0.05209954 0.025023337 0.02868058 -0.028927403 -0.053558882 0.00526112
0.071551085 -0.29188514 0.048537884 -0.002118869 0.010763134 -0.050067857 -0.02517118 -4.9270813e-05
0.005262344 0.01243799 -0.00031434154 0.00010336011 -0.0010938825 0.008144401 0.0036823957 0.011288537
0.001002219 0.011516468 -0.020803696 -0.009960327 -0.0069977916 -0.010733237 -0.006235936 0.014759902
0.0075800563 -0.020488879 0.014283402 0.0022647127 0.0009994854 0.009751248 -0.014146084 -0.0026721614
0.014082874 0.01636146 0.014235595 -0.003543677 0.002547783 0.016393013 0.004397036 0.013906753
0.012795738 0.011075945 0.011880291 -0.016918672 -0.022195695 -0.025023857 0.019790493 -0.014047316
-0.019856136 0.0032286653 -0.004863319 0.008017854 -0.00659513 0.019566635 -0.039762393 -0.02488687
0.021751475 -0.010958611 0.00618872 0.009203138 0.00396358 -0.014213536 0.0027384975 -0.016534152
0.021302827 0.0038987822 0.018241238 0.017839698 0.011145887 0.022523686 0.028498733 -0.003599175
0.013203378 -0.013080316 0.01053389 1.7047149e-05 0.0006845382 -0.04497968 -0.012196226 -0.0004726502
0.011622403 0.0028678945 -0.00036083657 0.0021843303 0.0045329244 0.057231396 0.029440243 -0.14908177
0.039247036 0.0050851633 0.0019533539 0.07640401 0.15236087 0.0006172879 6.837306e-05 0.012026884
-0.00089808315 -0.00174798 -0.06547398 -0.006673144 -0.011272227 -0.02994443 0.03137427 -0.002049711
0.00059802993 0.040220298 0.01354467 0.014252062 0.004340944 -0.0033692422 0.007346053 -0.0013877787
0.013527077 0.00022039289 0.004985215 0.033930887 0.0056447927 0.015391101 -0.0039657326 -0.0025482534
0.0038193006 -0.006028217 -0.007883815 0.014433585 -0.006057102 -0.002279644 0.00074012217 -0.019842558

5.bias f4 [100]
00000000: 0b39 8d3e 7aba 483e d2aa ebbc 26ae fdbc
00000010: ade9 76bd 820f b8bc 6cf3 963e 7fba ee3d
00000020: 2691 6dbd da68 013e 5d66 d5bc be0a 503e
00000030: 5d06 273e 8d0a 6f3e e789 153c ed8b 353e
00000040: e749 1a3e 8739 f63c ab7c 8cbd 4a96 e53d
00000050: 8b06 5dbb 679c 523d d525 953d 1128 c43d
00000060: f020 6fbe 4468 023d af03 9dbd 1266 3fbe
00000070: 0776 bc3d 3caf cdbc 5668 2dbe dcaf 05bd
00000080: 23b4 333c 0353 0f3e bf11 00bd eafe d7bb
00000090: 099e 72bd 45fb d2bd 8bc6 b7bc 81e7 b4bc
000000a0: 020d dabc d967 c43d e794 6bbc 0a2b 543c
000000b0: 4fc4 2e3e 75b7 353c f22b b1bc b0a0 b33d
000000c0: a6d3 edbb 6b19 9e3d e9ad c1bc f4ce 66bc
000000d0: f70e c1bb 9996 343e c59a 823e a8c6 263e
000000e0: da4a 923c 8272 cabc 86c8 0e3e 6df1 9c3d
000000f0: 46b4 05bd bbba c7bd 207e 59bd c690 1a3d
00000100: 2db8 ec3b bab3 423e d71f ecbc 5e44 6d3d
00000110: fa89 613d 2477 4b3e f738 a03d 95af 893d
00000120: 19be 503e 95ce 3f3d e1a0 09bc 18d3 65bd
00000130: 1be4 ddbc 8d6e 1e3d 1559 4cbd b756 72bd
00000140: d8d0 813d 275c f1bc 73c2 55be f494 f53b
00000150: 7cb1 6cbd 031e 9cbd 163f 0fbb cf5e db3c
00000160: eb84 14bd 1f2c 3f3e 78f3 5fbd e7cd 03bc
00000170: 5201 953c bb1c c23d fcda 2d3e da02 7a3c
00000180: f986 58bd 85e8 913d 9da3 783e 6998 cabb
0.27582583 0.19602385 -0.028767977 -0.03096683 -0.060281444 -0.022468332 0.2948259 0.11656665
-0.057999752 0.12637654 -0.026049787 0.20316598 0.16311021 0.23343869 0.009127117 0.17729159
0.15067254 0.030056728 -0.06859716 0.11210306 -0.0033725824 0.05141869 0.072826065 0.095779546
-0.23352408 0.031837717 -0.07666718 -0.1869128 0.092021994 -0.025107972 -0.16934332 -0.032638416
0.010968241 0.1399651 -0.031266924 -0.0065916674 -0.059232745 -0.10301832 -0.02243354 -0.022083046
-0.02661753 0.0959012 -0.014378763 0.012949714 0.17067073 0.011091103 -0.0216274 0.08770883
-0.0072578965 0.07719692 -0.023642497 -0.014087427 -0.0058916765 0.17635573 0.25508705 0.16286719
0.017857958 -0.024712805 0.13943681 0.07663236 -0.032642625 -0.09752413 -0.053098798 0.037735723
0.007224104 0.19013873 -0.028823776 0.05792653 0.055063225 0.19869667 0.07823365 0.06722943
0.20385017 0.04682787 -0.008400173 -0.056109518 -0.027086308 0.03867965 -0.049889643 -0.05916473
0.06338662 -0.029462887 -0.20874958 0.0074945632 -0.05778645 -0.07622912 -0.002185767 0.026778607
-0.036259573 0.18669175 -0.05467555 -0.008044696 0.018189106 0.09478136 0.16978067 0.015259469
-0.052863095 0.07124428 0.24281164 -0.0061827195

7.weight f4 [10, 100]
00000000: 1852 30bb 9381 22bc 0aeb 59be c1c7 61be
00000010: f72a 72be 3f81 41be f195 96bc a60f 7fbd
00000020: 5076 15be e962 d63d 9fc1 a0bc a62a 21be
00000030: f80a b9bd 9fde 63be 6ffe 983d f74d f73c
00000040: f988 9fbd aff7 9ebd 6583 75be d17d a3be
00000050: 2d4d 1c3d 2c78 313e 55bc d7bd 8425 e7bd
00000060: 1245 6f3e d7b5 c83c 8200 2abd 3f56 65be
00000070: 8a98 9bbd 6e6e 78bd 9949 6c3e 8a46 0a3d
00000080: 22ba 763d 535c 0abd d041 633c dac3 7d3c
00000090: cd73 eebd e1d6 373f 5895 9f3d b83c d73b
000000a0: ca1c 9d3e 1432 b33d aa61 02bd 6789 a0bd
000000b0: e015 d8bd 7d8d 9abd 0352 f2bc c698 d43b
000000c0: afea a8bd 245c 993c d7c1 78bd ac40 fabc
000000d0: ad97 b7bd c86c 1fbe 304b f9bd 210a e7bd
000000e0: eecd d13c e7a9 c0bd ab86 21bd 06eb 083e
000000f0: 511b 25bd 93df 5dbd 1fd1 8cbc 3dd5 443e
00000100: 383a f5bc f18f debd db97 183e 702b 503c
00000110: 90fa 57bd 42d0 2cbe 8f71 9cbc 3095 90bd
00000120: 07cd 3cbe 68b8 67bd d676 883e ba24 d5bd
00000130: 554f c03c f099 163e 676a d8bd a0c0 afbb
00000140: b091 a5bd 903a 6ebc fee8 123f 047d 9bbc
00000150: 8377 393e 71dd 223e 8ab3 a13d 723a 003e
00000160: a28c c4bb 7dd2 62bd 64d3 633d 253d f43c
00000170: 897c d6bc 5447 1b3d b80a 04be 823d ebbc
00000180: 1502 a03d fad4 b4bd b239 38be 0a6b 873d
00000190: 632e ff3d 10d0 0dbb d033 5bbe a335 62be
000001a0: 64e0 703f fc5b 41be f259 8b3c c2ef d23d
000001b0: 296c 8a3d c63e fbbd 8ed6 643c 6d0b 29be
000001c0: 5f1c bbbd c0b2 523d d2e8 2abd a44e f83c
000001d0: a9b3 c93d ac9a 833d a678 76be d88f 0dbc
000001e0: 38c3 8e3b 0754 66bd 8d13 babd 5947 fabd
000001f0: 9453 10bf bebd c93c 4f73 12bd 5422 633f
00000200: 79d6 ee3d d163 893d 5a77 3dbd 52b6 3ebd
00000210: f186 85bd 55cc a0bc 3de3 173d b385 8b3d
00000220: 6607 f2bd 6f68 a5be d614 17bd 17cc d73b
00000230: cf7f dfbd cfc9 2cbe 209c 80bd 2260 803d
00000240: db08 0f3f 6383 9bbd 8a66 a5bc 2707 d13b
00000250: 0af1 2fbd e234 a23c ddb7 ca3b 8ba2 7a3d
00000260: b7d3 523b 14d0 273e 6f96 ed3d 3c5c 743c
00000270: 092d d33c 7580 d9bb 2a73 c53d dc0f 543d
00000280: c44a 1a3d 5dda 0cbd 242a 25bd ae5e 56be
00000290: 1e7b 8ebe aaea a6bd 8704 0cbe 9272 0b3d
000002a0: 361d 58bd c24e 2bbe 0b71 9cbc 7bcd 8cbd
000002b0: 17bb 38be 8686 65bd 3873 423d 0d9f d4bd
000002c0: 8790 503c 4228 22be 426a dbbd 93da f2be
000002d0: 2568 05be b83e 253d e473 99bd f573 c4bd
000002e0: ce11 b33d a20d e8bc 6927 43bd 2236 c8bd
000002f0: 0795 acbd baf9 073e 935b 5b3d 05f6 f33c
00000300: 738a 633d c09f 1a3d 23e3 f4bd 85df e8bc
00000310: b002 a3be ddcc d0bd 023e 843d 1521 263d
00000320: a405 a0bb 5bd0 2cbc 071e 5abe 367b 62be
00000330: d90c 72be cb31 41be fefc 6fbc 6820 983c
00000340: 3fa1 4a3e ca0e fcbd 87e7 d5bc 8893 c43d
00000350: e045 babd 3f7d 57be 4403 65bd 23bb ed3c
00000360: 4eb5 a0bd 2342 e73d 77c1 1a3f 8db1 253e
00000370: e22c 4bbd 99fa 68bd 59e8 5cbd 49ba 823e
00000380: dcc7 433e 91d1 cb3c bb67 363e dc77 65be
00000390: 9c23 6c3d fd52 a3bd fe42 17bd 3c84 ddbc
000003a0: eb87 86bd ecf7 49bd d27a 5c3d 5d63 25bd
000003b0: fd58 f3bd 9540 a5be b76d eb3c ed1e d83b
000003c0: 1e59 dfbd 5ee8 b0bd 10b0 a13d b702 883d
000003d0: bba8 d9bd d640 df3e ad3f 533c ac73 d53b
000003e0: 433c 373d 5fac d63c 7c6f 84bd e606 ab3d
000003f0: a72d fabc a621 04be 094f c0bd 2e65 e5bd
-0.00269044 -0.009918588 -0.21281067 -0.22048856 -0.23649202 -0.1889696 -0.018382045 -0.062270783
-0.14595914 0.10468084 -0.019623576 -0.15738925 -0.09035295 -0.22252892 0.07470404 0.030188544
-0.07789797 -0.07762086 -0.23975904 -0.31931928 0.038159538 0.17330998 -0.10533968 -0.112864524
0.23366192 0.02450077 -0.04150439 -0.22396182 -0.07597454 -0.06065219 0.2307495 0.033758678
0.060236104 -0.033779453 0.013870671 0.015488589 -0.11643181 0.71812254 0.07792157 0.0065685175
0.30686027 0.08749786 -0.03183142 -0.078387074 -0.10551047 -0.07546518 -0.029580122 0.0064879386
-0.08247887 0.018720694 -0.060731735 -0.030548416 -0.08964477 -0.1556884 -0.12172544 -0.11281229
0.02561089 -0.09407406 -0.03943507 0.13370904 -0.040309254 -0.054168295 -0.01718956 0.19221969
-0.029934987 -0.108672984 0.14901678 0.012705669 -0.05272919 -0.16876319 -0.019097118 -0.07059705
-0.18437587 -0.056572348 0.26653165 -0.10407396 0.023475328 0.1470716 -0.1056717 -0.005363539
-0.08084428 -0.01454033 0.5738677 -0.01898051 0.18111996 0.15904786 0.078955725 0.12522295
-0.00599821 -0.05537652 0.05562152 0.029814312 -0.02618243 0.03790982 -0.12894714 -0.028715853
0.07812897 -0.088296846 -0.17990759 0.06612213 0.124600194 -0.0021638907 -0.21406484 -0.22090773
0.9409239 -0.18882746 0.017010663 0.102996364 0.06758911 -0.122678325 0.013967169 -0.16508265
-0.09136271 0.05144 -0.04172594 0.030310936 0.098487206 0.06425986 -0.24069461 -0.008640252
0.004356768 -0.05623248 -0.0908576 -0.1222064 -0.5637753 0.024626609 -0.035754498 0.88724256
0.11662001 0.067084916 -0.0462564 -0.046560593 -0.06519879 -0.019628683 0.037081946 0.068126105
-0.118178174 -0.3230624 -0.036885105 0.0065856087 -0.109130494 -0.16873859 -0.062797785 0.06268336
0.5587289 -0.075934194 -0.020190496 0.0063790265 -0.042954482 0.019800607 0.006186469 0.06119017
0.003216965 0.1638797 0.116009586 0.0149145685 0.02577831 -0.0066376277 0.096411064 0.051772937
0.03766896 -0.034387935 -0.04032339 -0.20934555 -0.27828306 -0.08150227 -0.13673602 0.03404481
-0.052762233 -0.16729262 -0.019096872 -0.0687513 -0.18040119 -0.056036495 0.047473162 -0.10381899
0.0127297705 -0.1583567 -0.107136264 -0.47432384 -0.13028009 0.040343016 -0.074928075 -0.095924295
0.0874363 -0.028326813 -0.047645006 -0.0977595 -0.08426862 0.13278857 0.05355413 0.029780397
0.055551957 0.037750006 -0.119573854 -0.028426895 -0.31837988 -0.101953246 0.064571396 0.040558893
-0.004883485 -0.010547723 -0.21300517 -0.22117314 -0.23637713 -0.18866651 -0.01464772 0.01857014
0.19788073 -0.12307508 -0.026111377 0.09598452 -0.09095359 -0.21043871 -0.055911317 0.029019898
-0.07847081 0.112919115 0.60451454 0.16181011 -0.04960335 -0.056879614 -0.05393252 0.2553275
0.19119209 0.024880202 0.17813008 -0.22409004 0.057651147 -0.07974813 -0.036929123 -0.027040593
-0.06568893 -0.049308702 0.053828068 -0.040377963 -0.118822075 -0.32275835 0.02873884 0.0065954835
-0.1090567 -0.086380705 0.078949094 0.06641143 -0.10627886 0.43604153 0.012893599 0.0065140333
0.044735204 0.02620524 -0.064665765 0.08350925 -0.030539347 -0.12903461 -0.09390075 -0.11200939

7.bias f4 [10]
00000000: 5d9a 49be 4bfa 10be aaab b9bd b0cf 17be
00000010: dd6a d33d 0d1a 3b3e 6433 a5bd c457 cbbd
00000020: 9379 263e 25bc c03d
-0.19687791 -0.14157979 -0.090659454 -0.1482532 0.10323117 0.18271656 -0.080664426 -0.09928849
0.16257314 0.09410886
